…
    batch_sampler {
      sampler {
        min_scale: 0.3
        max_scale: 1
        min_aspect_ratio: 0.5
        max_aspect_ratio: 2
      }
      sample_constraint {
        min_jaccard_overlap: 0.9
      }
      max_sample: 1
      max_trials: 50
    }
    batch_sampler {
      sampler {
        min_scale: 0.3
        max_scale: 1
        min_aspect_ratio: 0.5
        max_aspect_ratio: 2
      }
      sample_constraint {
        max_jaccard_overlap: 1
      }
      max_sample: 1
      max_trials: 50
    }
    label_map_file: "labelmap.prototxt"
  }
}
layer {
  name: "conv0"
  type: "Convolution"
  bottom: "data"
  top: "conv0"
  param {
    lr_mult: 0.1
    decay_mult: 0.1
  }
  convolution_param {
    num_output: 32
    bias_term: false
    pad: 1
    kernel_size: 3
    stride: 2
    weight_filler {
      type: "msra"
    }
  }
}
layer {
  name: "conv0/bn"
  type: "BatchNorm"
  bottom: "conv0"
  top: "conv0"
}
layer {
  name: "conv0/scale"
  type: "Scale"
  bottom: "conv0"
  top: "conv0"
  param {
    lr_mult: 0.1
    decay_mult: 0
  }
  param {
    lr_mult: 0.2
    decay_mult: 0
  }
  scale_param {
    filler {
      value: 1
    }
    bias_term: true
    bias_filler {
      value: 0
    }
  }
}
layer {
  name: "conv0/relu"
  type: "ReLU"
  bottom: "conv0"
  top: "conv0"
}
layer {
  name: "conv1/dw"
  type: "Convolution"
  bottom: "conv0"
  top: "conv1/dw"
  param {
    lr_mult: 0.1
    decay_mult: 0.1
  }
  convolution_param {
    num_output: 32
    bias_term: false
    pad: 1
    kernel_size: 3
    group: 32
    weight_filler {
      type: "msra"
    }
    engine: CAFFE
  }
}
layer {
  name: "conv1/dw/bn"
  type: "BatchNorm"
  bottom: "conv1/dw"
  top: "conv1/dw"
}
layer {
  name: "conv1/dw/scale"
  type: "Scale"
  bottom: "conv1/dw"
  top: "conv1/dw"
  param {
    lr_mult: 0.1
    decay_mult: 0
  }
  param {
    lr_mult: 0.2
    decay_mult: 0
  }
  scale_param {
    filler {
      value: 1
    }
    bias_term: true
    bias_filler {
      value: 0
    }
  }
}
layer {
  name: "conv1/dw/relu"
  type: "ReLU"
  bottom: "conv1/dw"
  top: "conv1/dw"
}
layer {
  name: "conv1"
  type: "Convolution"
  bottom: "conv1/dw"
  top: "conv1"
  param {
    lr_mult: 0.1
    decay_mult: 0.1
  }
  convolution_param {
    num_output: 64
    bias_term: false
    kernel_size: 1
    weight_filler {
      type: "msra"
    }
  }
}
layer {
  name: "conv1/bn"
  type: "BatchNorm"
  bottom: "conv1"
  top: "conv1"
}
layer {
  name: "conv1/scale"
  type: "Scale"
  bottom: "conv1"
  top: "conv1"
  param {
    lr_mult: 0.1
    decay_mult: 0
  }
  param {
    lr_mult: 0.2
    decay_mult: 0
  }
  scale_param {
    filler {
      value: 1
    }
    bias_term: true
    bias_filler {
      value: 0
    }
  }
}
layer {
  name: "conv1/relu"
  type: "ReLU"
  bottom: "conv1"
  top: "conv1"
}
layer {
  name: "conv2/dw"
  type: "Convolution"
  bottom: "conv1"
  top: "conv2/dw"
  param {
    lr_mult: 0.1
    decay_mult: 0.1
  }
  convolution_param {
    num_output: 64
    bias_term: false
    pad: 1
    kernel_size: 3
    group: 64
    stride: 2
    weight_filler {
      type: "msra"
    }
    engine: CAFFE
  }
}
layer {
  name: "conv2/dw/bn"
  type: "BatchNorm"
  bottom: "conv2/dw"
  top: "conv2/dw"
}
layer {
  name: "conv2/dw/scale"
  type: "Scale"
  bottom: "conv2/dw"
  top: "conv2/dw"
  param {
    lr_mult: 0.1
    decay_mult: 0
  }
  param {
    lr_mult: 0.2
    decay_mult: 0
  }
  scale_param {
    filler {
      value: 1
    }
    bias_term: true
    bias_filler {
      value: 0
    }
  }
}
layer {
  name: "conv2/dw/relu"
  type: "ReLU"
  bottom: "conv2/dw"
  top: "conv2/dw"
}
layer {
  name: "conv2"
  type: "Convolution"
  bottom: "conv2/dw"
  top: "conv2"
  param {
    lr_mult: 0.1
    decay_mult: 0.1
  }
  convolution_param {
    num_output: 128
    bias_term: false
    kernel_size: 1
    weight_filler {
      type: "msra"
    }
  }
}
layer {
  name: "conv2/bn"
  type: "BatchNorm"
  bottom: "conv2"
  top: "conv2"
}
layer {
  name: "conv2/scale"
  type: "Scale"
  bottom: "conv2"
  top: "conv2"
  param {
    lr_mult: 0.1
    decay_mult: 0
  }
  param {
    lr_mult: 0.2
    decay_mult: 0
  }
  scale_param {
    filler {
      value: 1
    }
    bias_term: true
    bias_filler {
      value: 0
    }
  }
}
layer {
  name: "conv2/relu"
  type: "ReLU"
  bottom: "conv2"
  top: "conv2"
}
layer {
  name: "conv3/dw"
  type: "Convolution"
  bottom: "conv2"
  top: "conv3/dw"
  param {
    lr_mult: 0.1
    decay_mult: 0.1
  }
  convolution_param {
    num_output: 128
    bias_term: false
    pad: 1
    kernel_size: 3
    group: 128
    weight_filler {
      type: "msra"
    }
    engine: CAFFE
  }
}
layer {
  name: "conv3/dw/bn"
  type: "BatchNorm"
  bottom: "conv3/dw"
  top: "conv3/dw"
}
layer {
  name: "conv3/dw/scale"
  type: "Scale"
  bottom: "conv3/dw"
  top: "conv3/dw"
  param {
    lr_mult: 0.1
    decay_mult: 0
  }
  param {
    lr_mult: 0.2
    decay_mult: 0
  }
  scale_param {
    filler {
      value: 1
    }
    bias_term: true
    bias_filler {
      value: 0
    }
  }
}
layer {
  name: "conv3/dw/relu"
  type: "ReLU"
  bottom: "conv3/dw"
  top: "conv3/dw"
}
layer {
  name: "conv3"
  type: "Convolution"
  bottom: "conv3/dw"
  top: "conv3"
  param {
    lr_mult: 0.1
    decay_mult: 0.1
  }
  convolution_param {
    num_output: 128
    bias_term: false
    kernel_size: 1
    weight_filler {
      type: "msra"
    }
  }
}
layer {
  name: "conv3/bn"
  type: "BatchNorm"
  bottom: "conv3"
  top: "conv3"
}
layer {
  name: "conv3/scale"
  type: "Scale"
  bottom: "conv3"
  top: "conv3"
  param {
    lr_mult: 0.1
    decay_mult: 0
  }
  param {
    lr_mult: 0.2
    decay_mult: 0
  }
  scale_param {
    filler {
      value: 1
    }
    bias_term: true
    bias_filler {
      value: 0
    }
  }
}
layer {
  name: "conv3/relu"
  type: "ReLU"
  bottom: "conv3"
  top: "conv3"
}
layer {
  name: "conv4/dw"
  type: "Convolution"
  bottom: "conv3"
  top: "conv4/dw"
  param {
    lr_mult: 0.1
    decay_mult: 0.1
  }
  convolution_param {
    num_output: 128
    bias_term: false
    pad: 1
    kernel_size: 3
    group: 128
    stride: 2
    weight_filler {
      type: "msra"
    }
    engine: CAFFE
  }
}
layer {
  name: "conv4/dw/bn"
  type: "BatchNorm"
  bottom: "conv4/dw"
  top: "conv4/dw"
}
layer {
  name: "conv4/dw/scale"
  type: "Scale"
  bottom: "conv4/dw"
  top: "conv4/dw"
  param {
    lr_mult: 0.1
    decay_mult: 0
  }
  param {
    lr_mult: 0.2
    decay_mult: 0
  }
  scale_param {
    filler {
      value: 1
    }
    bias_term: true
    bias_filler {
      value: 0
    }
  }
}
layer {
  name: "conv4/dw/relu"
  type: "ReLU"
  bottom: "conv4/dw"
  top: "conv4/dw"
}
layer {
  name: "conv4"
  type: "Convolution"
  bottom: "conv4/dw"
  top: "conv4"
  param {
    lr_mult: 0.1
    decay_mult: 0.1
  }
  convolution_param {
    num_output: 256
    bias_term: false
    kernel_size: 1
    weight_filler {
      type: "msra"
    }
  }
}
layer {
  name: "conv4/bn"
  type: "BatchNorm"
  bottom: "conv4"
  top: "conv4"
}
layer {
  name: "conv4/scale"
  type: "Scale"
  bottom: "conv4"
  top: "conv4"
  param {
    lr_mult: 0.1
    decay_mult: 0
  }
  param {
    lr_mult: 0.2
    decay_mult: 0
  }
  scale_param {
    filler {
      value: 1
    }
    bias_term: true
    bias_filler {
      value: 0
    }
  }
}
layer {
  name: "conv4/relu"
  type: "ReLU"
  bottom: "conv4"
  top: "conv4"
}
layer {
  name: "conv5/dw"
  type: "Convolution"
  bottom: "conv4"
  top: "conv5/dw"
  param {
    lr_mult: 0.1
    decay_mult: 0.1
  }
  convolution_param {
    num_output: 256
    bias_term: false
    pad: 1
    kernel_size: 3
    group: 256
    weight_filler {
      type: "msra"
    }
    engine: CAFFE
  }
}
layer {
  name: "conv5/dw/bn"
  type: "BatchNorm"
  bottom: "conv5/dw"
  top: "conv5/dw"
}
layer {
  name: "conv5/dw/scale"
  type: "Scale"
  bottom: "conv5/dw"
  top: "conv5/dw"
  param {
    lr_mult: 0.1
    decay_mult: 0
  }
  param {
    lr_mult: 0.2
    decay_mult: 0
  }
  scale_param {
    filler {
      value: 1
    }
    bias_term: true
    bias_filler {
      value: 0
    }
  }
}
layer {
  name: "conv5/dw/relu"
  type: "ReLU"
  bottom: "conv5/dw"
  top: "conv5/dw"
}
layer {
  name: "conv5"
  type: "Convolution"
  bottom: "conv5/dw"
  top: "conv5"
  param {
    lr_mult: 0.1
    decay_mult: 0.1
  }
  convolution_param {
    num_output: 256
    bias_term: false
    kernel_size: 1
    weight_filler {
      type: "msra"
    }
  }
}
layer {
  name: "conv5/bn"
  type: "BatchNorm"
  bottom: "conv5"
  top: "conv5"
}
layer {
  name: "conv5/scale"
  type: "Scale"
  bottom: "conv5"
  top: "conv5"
  param {
    lr_mult: 0.1
    decay_mult: 0
  }
  param {
    lr_mult: 0.2
    decay_mult: 0
  }
  scale_param {
    filler {
      value: 1
    }
    bias_term: true
    bias_filler {
      value: 0
    }
  }
}
layer {
  name: "conv5/relu"
  type: "ReLU"
  bottom: "conv5"
  top: "conv5"
}
layer {
  name: "conv6/dw"
  type: "Convolution"
  bottom: "conv5"
  top: "conv6/dw"
  param {
    lr_mult: 0.1
    decay_mult: 0.1
  }
  convolution_param {
    num_output: 256
    bias_term: false
    pad: 1
    kernel_size: 3
    group: 256
    stride: 2
    weight_filler {
      type: "msra"
    }
    engine: CAFFE
  }
}
layer {
  name: "conv6/dw/bn"
  type: "BatchNorm"
  bottom: "conv6/dw"
  top: "conv6/dw"
}
layer {
  name: "conv6/dw/scale"
  type: "Scale"
  bottom: "conv6/dw"
  top: "conv6/dw"
  param {
    lr_mult: 0.1
    decay_mult: 0
  }
  param {
    lr_mult: 0.2
    decay_mult: 0
  }
  scale_param {
    filler {
      value: 1
    }
    bias_term: true
    bias_filler {
      value: 0
    }
  }
}
layer {
  name: "conv6/dw/relu"
  type: "ReLU"
  bottom: "conv6/dw"
  top: "conv6/dw"
}
layer {
  name: "conv6"
  type: "Convolution"
  bottom: "conv6/dw"
  top: "conv6"
  param {
    lr_mult: 0.1
    decay_mult: 0.1
  }
  convolution_param {
    num_output: 512
    bias_term: false
    kernel_size: 1
    weight_filler {
      type: "msra"
    }
  }
}
layer {
  name: "conv6/bn"
  type: "BatchNorm"
  bottom: "conv6"
  top: "conv6"
}
layer {
  name: "conv6/scale"
  type: "Scale"
  bottom: "conv6"
  top: "conv6"
  param {
    lr_mult: 0.1
    decay_mult: 0
  }
  param {
    lr_mult: 0.2
    decay_mult: 0
  }
  scale_param {
    filler {
      value: 1
    }
    bias_term: true
    bias_filler {
      value: 0
    }
  }
}
layer {
  name: "conv6/relu"
  type: "ReLU"
  bottom: "conv6"
  top: "conv6"
}
layer {
  name: "conv7/dw"
  type: "Convolution"
  bottom: "conv6"
  top: "conv7/dw"
  param {
    lr_mult: 0.1
    decay_mult: 0.1
  }
  convolution_param {
    num_output: 512
    bias_term: false
    pad: 1
    kernel_size: 3
    group: 512
    weight_filler {
      type: "msra"
    }
    engine: CAFFE
  }
}
layer {
  name: "conv7/dw/bn"
  type: "BatchNorm"
  bottom: "conv7/dw"
  top: "conv7/dw"
}
layer {
  name: "conv7/dw/scale"
  type: "Scale"
  bottom: "conv7/dw"
  top: "conv7/dw"
  param {
    lr_mult: 0.1
    decay_mult: 0
  }
  param {
    lr_mult: 0.2
    decay_mult: 0
  }
  scale_param {
    filler {
      value: 1
    }
    bias_term: true
    bias_filler {
      value: 0
    }
  }
}
layer {
  name: "conv7/dw/relu"
  type: "ReLU"
  bottom: "conv7/dw"
  top: "conv7/dw"
}
layer {
  name: "conv7"
  type: "Convolution"
  bottom: "conv7/dw"
  top: "conv7"
  param {
    lr_mult: 0.1
    decay_mult: 0.1
  }
  convolution_param {
    num_output: 512
    bias_term: false
    kernel_size: 1
    weight_filler {
      type: "msra"
    }
  }
}
layer {
  name: "conv7/bn"
  type: "BatchNorm"
  bottom: "conv7"
  top: "conv7"
}
layer {
  name: "conv7/scale"
  type: "Scale"
  bottom: "conv7"
  top: "conv7"
  param {
    lr_mult: 0.1
    decay_mult: 0
  }
  param {
    lr_mult: 0.2
    decay_mult: 0
  }
  scale_param {
    filler {
      value: 1
    }
    bias_term: true
    bias_filler {
      value: 0
    }
  }
}
layer {
  name: "conv7/relu"
  type: "ReLU"
  bottom: "conv7"
  top: "conv7"
}
layer {
  name: "conv8/dw"
  type: "Convolution"
  bottom: "conv7"
  top: "conv8/dw"
  param {
    lr_mult: 0.1
    decay_mult: 0.1
  }
  convolution_param {
    num_output: 512
    bias_term: false
    pad: 1
    kernel_size: 3
    group: 512
    weight_filler {
      type: "msra"
    }
    engine: CAFFE
  }
}
layer {
  name: "conv8/dw/bn"
  type: "BatchNorm"
  bottom: "conv8/dw"
  top: "conv8/dw"
}
layer {
  name: "conv8/dw/scale"
  type: "Scale"
  bottom: "conv8/dw"
  top: "conv8/dw"
  param {
    lr_mult: 0.1
    decay_mult: 0
  }
  param {
    lr_mult: 0.2
    decay_mult: 0
  }
  scale_param {
    filler {
      value: 1
    }
    bias_term: true
    bias_filler {
      value: 0
    }
  }
}
layer {
  name: "conv8/dw/relu"
  type: "ReLU"
  bottom: "conv8/dw"
  top: "conv8/dw"
}
layer {
  name: "conv8"
  type: "Convolution"
  bottom: "conv8/dw"
  top: "conv8"
  param {
    lr_mult: 0.1
    decay_mult: 0.1
  }
  convolution_param {
    num_output: 512
    bias_term: false
    kernel_size: 1
    weight_filler {
      type: "msra"
    }
  }
}
layer {
  name: "conv8/bn"
  type: "BatchNorm"
  bottom: "conv8"
  top: "conv8"
}
layer {
  name: "conv8/scale"
  type: "Scale"
  bottom: "conv8"
  top: "conv8"
  param {
    lr_mult: 0.1
    decay_mult: 0
  }
  param {
    lr_mult: 0.2
    decay_mult: 0
  }
  scale_param {
    filler {
      value: 1
    }
    bias_term: true
    bias_filler {
      value: 0
    }
  }
}
layer {
  name: "conv8/relu"
  type: "ReLU"
  bottom: "conv8"
  top: "conv8"
}
layer {
  name: "conv9/dw"
  type: "Convolution"
  bottom: "conv8"
  top: "conv9/dw"
  param {
    lr_mult: 0.1
    decay_mult: 0.1
  }
  convolution_param {
    num_output: 512
    bias_term: false
    pad: 1
    kernel_size: 3
    group: 512
    weight_filler {
      type: "msra"
    }
    engine: CAFFE
  }
}
layer {
  name: "conv9/dw/bn"
  type: "BatchNorm"
  bottom: "conv9/dw"
  top: "conv9/dw"
}
layer {
  name: "conv9/dw/scale"
  type: "Scale"
  bottom: "conv9/dw"
  top: "conv9/dw"
  param {
    lr_mult: 0.1
    decay_mult: 0
  }
  param {
    lr_mult: 0.2
    decay_mult: 0
  }
  scale_param {
    filler {
      value: 1
    }
    bias_term: true
    bias_filler {
      value: 0
    }
  }
}
layer {
  name: "conv9/dw/relu"
  type: "ReLU"
  bottom: "conv9/dw"
  top: "conv9/dw"
}
layer {
  name: "conv9"
  type: "Convolution"
  bottom: "conv9/dw"
  top: "conv9"
  param {
    lr_mult: 0.1
    decay_mult: 0.1
  }
  convolution_param {
    num_output: 512
    bias_term: false
    kernel_size: 1
    weight_filler {
      type: "msra"
    }
  }
}
layer {
  name: "conv9/bn"
  type: "BatchNorm"
  bottom: "conv9"
  top: "conv9"
}
layer {
  name: "conv9/scale"
  type: "Scale"
  bottom: "conv9"
  top: "conv9"
  param {
    lr_mult: 0.1
    decay_mult: 0
  }
  param {
    lr_mult: 0.2
    decay_mult: 0
  }
  scale_param {
    filler {
      value: 1
    }
    bias_term: true
    bias_filler {
      value: 0
    }
  }
}
layer {
  name: "conv9/relu"
  type: "ReLU"
  bottom: "conv9"
  top: "conv9"
}
layer {
  name: "conv10/dw"
  type: "Convolution"
  bottom: "conv9"
  top: "conv10/dw"
  param {
    lr_mult: 0.1
    decay_mult: 0.1
  }
  convolution_param {
    num_output: 512
    bias_term: false
    pad: 1
    kernel_size: 3
    group: 512
    weight_filler {
      type: "msra"
    }
    engine: CAFFE
  }
}
layer {
  name: "conv10/dw/bn"
  type: "BatchNorm"
  bottom: "conv10/dw"
  top: "conv10/dw"
}
layer {
  name: "conv10/dw/scale"
  type: "Scale"
  bottom: "conv10/dw"
  top: "conv10/dw"
  param {
    lr_mult: 0.1
    decay_mult: 0
  }
  param {
    lr_mult: 0.2
    decay_mult: 0
  }
  scale_param {
    filler {
      value: 1
    }
    bias_term: true
    bias_filler {
      value: 0
    }
  }
}
layer {
  name: "conv10/dw/relu"
  type: "ReLU"
  bottom: "conv10/dw"
  top: "conv10/dw"
}
layer {
  name: "conv10"
  type: "Convolution"
  bottom: "conv10/dw"
  top: "conv10"
  param {
    lr_mult: 0.1
    decay_mult: 0.1
  }
  convolution_param {
    num_output: 512
    bias_term: false
    kernel_size: 1
    weight_filler {
      type: "msra"
    }
  }
}
layer {
  name: "conv10/bn"
  type: "BatchNorm"
  bottom: "conv10"
  top: "conv10"
}
layer {
  name: "conv10/scale"
  type: "Scale"
  bottom: "conv10"
  top: "conv10"
  param {
    lr_mult: 0.1
    decay_mult: 0
  }
  param {
    lr_mult: 0.2
    decay_mult: 0
  }
  scale_param {
    filler {
      value: 1
    }
    bias_term: true
    bias_filler {
      value: 0
    }
  }
}
layer {
  name: "conv10/relu"
  type: "ReLU"
  bottom: "conv10"
  top: "conv10"
}
layer {
  name: "conv11/dw"
  type: "Convolution"
  bottom: "conv10"
  top: "conv11/dw"
  param {
    lr_mult: 0.1
    decay_mult: 0.1
  }
  convolution_param {
    num_output: 512
    bias_term: false
    pad: 1
    kernel_size: 3
    group: 512
    weight_filler {
      type: "msra"
    }
    engine: CAFFE
  }
}
layer {
  name: "conv11/dw/bn"
  type: "BatchNorm"
  bottom: "conv11/dw"
  top: "conv11/dw"
}
layer {
  name: "conv11/dw/scale"
  type: "Scale"
  bottom: "conv11/dw"
  top: "conv11/dw"
  param {
    lr_mult: 0.1
    decay_mult: 0
  }
  param {
    lr_mult: 0.2
    decay_mult: 0
  }
  scale_param {
    filler {
      value: 1
    }
    bias_term: true
    bias_filler {
      value: 0
    }
  }
}
layer {
  name: "conv11/dw/relu"
  type: "ReLU"
  bottom: "conv11/dw"
  top: "conv11/dw"
}
layer {
  name: "conv11"
  type: "Convolution"
  bottom: "conv11/dw"
  top: "conv11"
  param {
    lr_mult: 0.1
    decay_mult: 0.1
  }
  convolution_param {
    num_output: 512
    bias_term: false
    kernel_size: 1
    weight_filler {
      type: "msra"
    }
  }
}
layer {
  name: "conv11/bn"
  type: "BatchNorm"
  bottom: "conv11"
  top: "conv11"
}
layer {
  name: "conv11/scale"
  type: "Scale"
  bottom: "conv11"
  top: "conv11"
  param {
    lr_mult: 0.1
    decay_mult: 0
  }
  param {
    lr_mult: 0.2
    decay_mult: 0
  }
  scale_param {
    filler {
      value: 1
    }
    bias_term: true
    bias_filler {
      value: 0
    }
  }
}
layer {
  name: "conv11/relu"
  type: "ReLU"
  bottom: "conv11"
  top: "conv11"
}
layer {
  name: "conv12/dw"
  type: "Convolution"
  bottom: "conv11"
  top: "conv12/dw"
  param {
    lr_mult: 0.1
    decay_mult: 0.1
  }
  convolution_param {
    num_output: 512
    bias_term: false
    pad: 1
    kernel_size: 3
    group: 512
    stride: 2
    weight_filler {
      type: "msra"
    }
    engine: CAFFE
  }
}
layer {
  name: "conv12/dw/bn"
  type: "BatchNorm"
  bottom: "conv12/dw"
  top: "conv12/dw"
}
layer {
  name: "conv12/dw/scale"
  type: "Scale"
  bottom: "conv12/dw"
  top: "conv12/dw"
  param {
    lr_mult: 0.1
    decay_mult: 0
  }
  param {
    lr_mult: 0.2
    decay_mult: 0
  }
  scale_param {
    filler {
      value: 1
    }
    bias_term: true
    bias_filler {
      value: 0
    }
  }
}
layer {
  name: "conv12/dw/relu"
  type: "ReLU"
  bottom: "conv12/dw"
  top: "conv12/dw"
}
layer {
  name: "conv12"
  type: "Convolution"
  bottom: "conv12/dw"
  top: "conv12"
  param {
    lr_mult: 0.1
    decay_mult: 0.1
  }
  convolution_param {
    num_output: 1024
    bias_term: false
    kernel_size: 1
    weight_filler {
      type: "msra"
    }
  }
}
layer {
  name: "conv12/bn"
  type: "BatchNorm"
  bottom: "conv12"
  top: "conv12"
}
layer {
  name: "conv12/scale"
  type: "Scale"
  bottom: "conv12"
  top: "conv12"
  param {
    lr_mult: 0.1
    decay_mult: 0
  }
  param {
    lr_mult: 0.2
    decay_mult: 0
  }
  scale_param {
    filler {
      value: 1
    }
    bias_term: true
    bias_filler {
      value: 0
    }
  }
}
layer {
  name: "conv12/relu"
  type: "ReLU"
  bottom: "conv12"
  top: "conv12"
}
layer {
  name: "conv13/dw"
  type: "Convolution"
  bottom: "conv12"
  top: "conv13/dw"
  param {
    lr_mult: 0.1
    decay_mult: 0.1
  }
  convolution_param {
    num_output: 1024
    bias_term: false
    pad: 1
    kernel_size: 3
    group: 1024
    weight_filler {
      type: "msra"
    }
    engine: CAFFE
  }
}
layer {
  name: "conv13/dw/bn"
  type: "BatchNorm"
  bottom: "conv13/dw"
  top: "conv13/dw"
}
layer {
  name: "conv13/dw/scale"
  type: "Scale"
  bottom: "conv13/dw"
  top: "conv13/dw"
  param {
    lr_mult: 0.1
    decay_mult: 0
  }
  param {
    lr_mult: 0.2
    decay_mult: 0
  }
  scale_param {
    filler {
      value: 1
    }
    bias_term: true
    bias_filler {
      value: 0
    }
  }
}
layer {
  name: "conv13/dw/relu"
  type: "ReLU"
  bottom: "conv13/dw"
  top: "conv13/dw"
}
layer {
  name: "conv13"
  type: "Convolution"
  bottom: "conv13/dw"
  top: "conv13"
  param {
    lr_mult: 0.1
    decay_mult: 0.1
  }
  convolution_param {
    num_output: 1024
    bias_term: false
    kernel_size: 1
    weight_filler {
      type: "msra"
    }
  }
}
layer {
  name: "conv13/bn"
  type: "BatchNorm"
  bottom: "conv13"
  top: "conv13"
}
layer {
  name: "conv13/scale"
  type: "Scale"
  bottom: "conv13"
  top: "conv13"
  param {
    lr_mult: 0.1
    decay_mult: 0
  }
  param {
    lr_mult: 0.2
    decay_mult: 0
  }
  scale_param {
    filler {
      value: 1
    }
    bias_term: true
    bias_filler {
      value: 0
    }
  }
}
layer {
  name: "conv13/relu"
  type: "ReLU"
  bottom: "conv13"
  top: "conv13"
}
layer {
  name: "conv14_1"
  type: "Convolution"
  bottom: "conv13"
  top: "conv14_1"
  param {
    lr_mult: 0.1
    decay_mult: 0.1
  }
  convolution_param {
    num_output: 256
    bias_term: false
    kernel_size: 1
    weight_filler {
      type: "msra"
    }
  }
}
layer {
  name: "conv14_1/bn"
  type: "BatchNorm"
  bottom: "conv14_1"
  top: "conv14_1"
}
layer {
  name: "conv14_1/scale"
  type: "Scale"
  bottom: "conv14_1"
  top: "conv14_1"
  param {
    lr_mult: 0.1
    decay_mult: 0
  }
  param {
    lr_mult: 0.2
    decay_mult: 0
  }
  scale_param {
    filler {
      value: 1
    }
    bias_term: true
    bias_filler {
      value: 0
    }
  }
}
layer {
  name: "conv14_1/relu"
  type: "ReLU"
  bottom: "conv14_1"
  top: "conv14_1"
}
layer {
  name: "conv14_2"
  type: "Convolution"
  bottom: "conv14_1"
  top: "conv14_2"
  param {
    lr_mult: 0.1
    decay_mult: 0.1
  }
  convolution_param {
    num_output: 512
    bias_term: false
    pad: 1
    kernel_size: 3
    stride: 2
    weight_filler {
      type: "msra"
    }
  }
}
layer {
  name: "conv14_2/bn"
  type: "BatchNorm"
  bottom: "conv14_2"
  top: "conv14_2"
}
layer {
  name: "conv14_2/scale"
  type: "Scale"
  bottom: "conv14_2"
  top: "conv14_2"
  param {
    lr_mult: 0.1
    decay_mult: 0
  }
  param {
    lr_mult: 0.2
    decay_mult: 0
  }
  scale_param {
    filler {
      value: 1
    }
    bias_term: true
    bias_filler {
      value: 0
    }
  }
}
layer {
  name: "conv14_2/relu"
  type: "ReLU"
  bottom: "conv14_2"
  top: "conv14_2"
}
layer {
  name: "conv15_1"
  type: "Convolution"
  bottom: "conv14_2"
  top: "conv15_1"
  param {
    lr_mult: 0.1
    decay_mult: 0.1
  }
  convolution_param {
    num_output: 128
    bias_term: false
    kernel_size: 1
    weight_filler {
      type: "msra"
    }
  }
}
layer {
  name: "conv15_1/bn"
  type: "BatchNorm"
  bottom: "conv15_1"
  top: "conv15_1"
}
layer {
  name: "conv15_1/scale"
  type: "Scale"
  bottom: "conv15_1"
  top: "conv15_1"
  param {
    lr_mult: 0.1
    decay_mult: 0
  }
  param {
    lr_mult: 0.2
    decay_mult: 0
  }
  scale_param {
    filler {
      value: 1
    }
    bias_term: true
    bias_filler {
      value: 0
    }
  }
}
layer {
  name: "conv15_1/relu"
  type: "ReLU"
  bottom: "conv15_1"
  top: "conv15_1"
}
layer {
  name: "conv15_2"
  type: "Convolution"
  bottom: "conv15_1"
  top: "conv15_2"
  param {
    lr_mult: 0.1
    decay_mult: 0.1
  }
  convolution_param {
    num_output: 256
    bias_term: false
    pad: 1
    kernel_size: 3
    stride: 2
    weight_filler {
      type: "msra"
    }
  }
}
layer {
  name: "conv15_2/bn"
  type: "BatchNorm"
  bottom: "conv15_2"
  top: "conv15_2"
}
layer {
  name: "conv15_2/scale"
  type: "Scale"
  bottom: "conv15_2"
  top: "conv15_2"
  param {
    lr_mult: 0.1
    decay_mult: 0
  }
  param {
    lr_mult: 0.2
    decay_mult: 0
  }
  scale_param {
    filler {
      value: 1
    }
    bias_term: true
    bias_filler {
      value: 0
    }
  }
}
layer {
  name: "conv15_2/relu"
  type: "ReLU"
  bottom: "conv15_2"
  top: "conv15_2"
}
layer {
  name: "conv16_1"
  type: "Convolution"
  bottom: "conv15_2"
  top: "conv16_1"
  param {
    lr_mult: 0.1
    decay_mult: 0.1
  }
  convolution_param {
    num_output: 128
    bias_term: false
    kernel_size: 1
    weight_filler {
      type: "msra"
    }
  }
}
layer {
  name: "conv16_1/bn"
  type: "BatchNorm"
  bottom: "conv16_1"
  top: "conv16_1"
}
layer {
  name: "conv16_1/scale"
  type: "Scale"
  bottom: "conv16_1"
  top: "conv16_1"
  param {
    lr_mult: 0.1
    decay_mult: 0
  }
  param {
    lr_mult: 0.2
    decay_mult: 0
  }
  scale_param {
    filler {
      value: 1
    }
    bias_term: true
    bias_filler {
      value: 0
    }
  }
}
layer {
  name: "conv16_1/relu"
  type: "ReLU"
  bottom: "conv16_1"
  top: "conv16_1"
}
layer {
  name: "conv16_2"
  type: "Convolution"
  bottom: "conv16_1"
  top: "conv16_2"
  param {
    lr_mult: 0.1
    decay_mult: 0.1
  }
  convolution_param {
    num_output: 256
    bias_term: false
    pad: 1
    kernel_size: 3
    stride: 2
    weight_filler {
      type: "msra"
    }
  }
}
layer {
  name: "conv16_2/bn"
  type: "BatchNorm"
  bottom: "conv16_2"
  top: "conv16_2"
}
layer {
  name: "conv16_2/scale"
  type: "Scale"
  bottom: "conv16_2"
  top: "conv16_2"
  param {
    lr_mult: 0.1
    decay_mult: 0
  }
  param {
    lr_mult: 0.2
    decay_mult: 0
  }
  scale_param {
    filler {
      value: 1
    }
    bias_term: true
    bias_filler {
      value: 0
    }
  }
}
layer {
  name: "conv16_2/relu"
  type: "ReLU"
  bottom: "conv16_2"
  top: "conv16_2"
}
layer {
  name: "conv17_1"
  type: "Convolution"
  bottom: "conv16_2"
  top: "conv17_1"
  param {
    lr_mult: 0.1
    decay_mult: 0.1
  }
  convolution_param {
    num_output: 64
    bias_term: false
    kernel_size: 1
    weight_filler {
      type: "msra"
    }
  }
}
layer {
  name: "conv17_1/bn"
  type: "BatchNorm"
  bottom: "conv17_1"
  top: "conv17_1"
}
layer {
  name: "conv17_1/scale"
  type: "Scale"
  bottom: "conv17_1"
  top: "conv17_1"
  param {
    lr_mult: 0.1
    decay_mult: 0
  }
  param {
    lr_mult: 0.2
    decay_mult: 0
  }
  scale_param {
    filler {
      value: 1
    }
    bias_term: true
    bias_filler {
      value: 0
    }
  }
}
layer {
  name: "conv17_1/relu"
  type: "ReLU"
  bottom: "conv17_1"
  top: "conv17_1"
}
layer {
  name: "conv17_2"
  type: "Convolution"
  bottom: "conv17_1"
  top: "conv17_2"
  param {
    lr_mult: 0.1
    decay_mult: 0.1
  }
  convolution_param {
    num_output: 128
    bias_term: false
    pad: 1
    kernel_size: 3
    stride: 2
    weight_filler {
      type: "msra"
    }
  }
}
layer {
  name: "conv17_2/bn"
  type: "BatchNorm"
  bottom: "conv17_2"
  top: "conv17_2"
}
layer {
  name: "conv17_2/scale"
  type: "Scale"
  bottom: "conv17_2"
  top: "conv17_2"
  param {
    lr_mult: 0.1
    decay_mult: 0
  }
  param {
    lr_mult: 0.2
    decay_mult: 0
  }
  scale_param {
    filler {
      value: 1
    }
    bias_term: true
    bias_filler {
      value: 0
    }
  }
}
layer {
  name: "conv17_2/relu"
  type: "ReLU"
  bottom: "conv17_2"
  top: "conv17_2"
}
layer {
  name: "conv11_mbox_loc"
  type: "Convolution"
  bottom: "conv11"
  top: "conv11_mbox_loc"
  param {
    lr_mult: 0.1
    decay_mult: 0.1
  }
  param {
    lr_mult: 0.2
    decay_mult: 0
  }
  convolution_param {
    num_output: 12
    kernel_size: 1
    weight_filler {
      type: "msra"
    }
    bias_filler {
      type: "constant"
      value: 0
    }
  }
}
layer {
  name: "conv11_mbox_loc_perm"
  type: "Permute"
  bottom: "conv11_mbox_loc"
  top: "conv11_mbox_loc_perm"
  permute_param {
    order: 0
    or
I0228 21:05:21.149636 30547 layer_factory.hpp:77] Creating layer data
I0228 21:05:21.150195 30547 net.cpp:100] Creating Layer data
I0228 21:05:21.150218 30547 net.cpp:408] data -> data
I0228 21:05:21.150259 30547 net.cpp:408] data -> label
I0228 21:05:21.152508 30555 db_lmdb.cpp:35] Opened lmdb trainval_lmdb/
I0228 21:05:21.178972 30547 annotated_data_layer.cpp:62] output data size: 24,3,300,300
I0228 21:05:21.217236 30547 net.cpp:150] Setting up data
I0228 21:05:21.217272 30547 net.cpp:157] Top shape: 24 3 300 300 (6480000)
I0228 21:05:21.217278 30547 net.cpp:157] Top shape: 1 1 1 8 (8)
I0228 21:05:21.217283 30547 net.cpp:165] Memory required for data: 25920032
I0228 21:05:21.217314 30547 layer_factory.hpp:77] Creating layer data_data_0_split
I0228 21:05:21.217346 30547 net.cpp:100] Creating Layer data_data_0_split
I0228 21:05:21.217357 30547 net.cpp:434] data_data_0_split <- data
I0228 21:05:21.217376 30547 net.cpp:408] data_data_0_split -> data_data_0_split_0
I0228 21:05:21.217396 30547 net.cpp:408] data_data_0_split -> data_data_0_split_1
I0228 21:05:21.217406 30547 net.cpp:408] data_data_0_split -> data_data_0_split_2
I0228 21:05:21.217417 30547 net.cpp:408] data_data_0_split -> data_data_0_split_3
I0228 21:05:21.217428 30547 net.cpp:408] data_data_0_split -> data_data_0_split_4
I0228 21:05:21.217439 30547 net.cpp:408] data_data_0_split -> data_data_0_split_5
I0228 21:05:21.217447 30547 net.cpp:408] data_data_0_split -> data_data_0_split_6
I0228 21:05:21.217583 30547 net.cpp:150] Setting up data_data_0_split
I0228 21:05:21.217594 30547 net.cpp:157] Top shape: 24 3 300 300 (6480000)
I0228 21:05:21.217619 30547 net.cpp:157] Top shape: 24 3 300 300 (6480000)
I0228 21:05:21.217624 30547 net.cpp:157] Top shape: 24 3 300 300 (6480000)
I0228 21:05:21.217648 30547 net.cpp:157] Top shape: 24 3 300 300 (6480000)
I0228 21:05:21.217655 30547 net.cpp:157] Top shape: 24 3 300 300 (6480000)
I0228 21:05:21.217661 30547 net.cpp:157] Top shape: 24 3 300 300 (6480000)
I0228 21:05:21.217686 30547 net.cpp:157] Top shape: 24 3 300 300 (6480000)
I0228 21:05:21.217691 30547 net.cpp:165] Memory required for data: 207360032
I0228 21:05:21.217696 30547 layer_factory.hpp:77] Creating layer conv0
I0228 21:05:21.217720 30547 net.cpp:100] Creating Layer conv0
I0228 21:05:21.217728 30547 net.cpp:434] conv0 <- data_data_0_split_0
I0228 21:05:21.217737 30547 net.cpp:408] conv0 -> conv0
I0228 21:05:22.346707 30547 net.cpp:150] Setting up conv0
I0228 21:05:22.346843 30547 net.cpp:157] Top shape: 24 32 150 150 (17280000)
I0228 21:05:22.346880 30547 net.cpp:165] Memory required for data: 276480032
I0228 21:05:22.346937 30547 layer_factory.hpp:77] Creating layer conv0/bn
I0228 21:05:22.346985 30547 net.cpp:100] Creating Layer conv0/bn
I0228 21:05:22.347019 30547 net.cpp:434] conv0/bn <- conv0
I0228 21:05:22.347059 30547 net.cpp:395] conv0/bn -> conv0 (in-place)
I0228 21:05:22.349086 30547 net.cpp:150] Setting up conv0/bn
I0228 21:05:22.349124 30547 net.cpp:157] Top shape: 24 32 150 150 (17280000)
I0228 21:05:22.349130 30547 net.cpp:165] Memory required for data: 345600032
I0228 21:05:22.349154 30547 layer_factory.hpp:77] Creating layer conv0/scale
I0228 21:05:22.349174 30547 net.cpp:100] Creating Layer conv0/scale
I0228 21:05:22.349184 30547 net.cpp:434] conv0/scale <- conv0
I0228 21:05:22.349195 30547 net.cpp:395] conv0/scale -> conv0 (in-place)
I0228 21:05:22.349264 30547 layer_factory.hpp:77] Creating layer conv0/scale
I0228 21:05:22.349534 30547 net.cpp:150] Setting up conv0/scale
I0228 21:05:22.349555 30547 net.cpp:157] Top shape: 24 32 150 150 (17280000)
I0228 21:05:22.349563 30547 net.cpp:165] Memory required for data: 414720032
I0228 21:05:22.349582 30547 layer_factory.hpp:77] Creating layer conv0/relu
I0228 21:05:22.349598 30547 net.cpp:100] Creating Layer conv0/relu
I0228 21:05:22.349609 30547 net.cpp:434] conv0/relu <- conv0
I0228 21:05:22.349622 30547 net.cpp:395] conv0/relu -> conv0 (in-place)
I0228 21:05:22.350358 30547 net.cpp:150] Setting up conv0/relu
I0228 21:05:22.350379 30547 net.cpp:157] Top shape: 24 32 150 150 (17280000)
I0228 21:05:22.350385 30547 net.cpp:165] Memory required for data: 483840032
I0228 21:05:22.350394 30547 layer_factory.hpp:77] Creating layer conv1/dw
I0228 21:05:22.350410 30547 net.cpp:100] Creating Layer conv1/dw
I0228 21:05:22.350419 30547 net.cpp:434] conv1/dw <- conv0
I0228 21:05:22.350430 30547 net.cpp:408] conv1/dw -> conv1/dw
I0228 21:05:22.350708 30547 net.cpp:150] Setting up conv1/dw
I0228 21:05:22.350718 30547 net.cpp:157] Top shape: 24 32 150 150 (17280000)
I0228 21:05:22.350723 30547 net.cpp:165] Memory required for data: 552960032
I0228 21:05:22.350733 30547 layer_factory.hpp:77] Creating layer conv1/dw/bn
I0228 21:05:22.350742 30547 net.cpp:100] Creating Layer conv1/dw/bn
I0228 21:05:22.350747 30547 net.cpp:434] conv1/dw/bn <- conv1/dw
I0228 21:05:22.350756 30547 net.cpp:395] conv1/dw/bn -> conv1/dw (in-place)
I0228 21:05:22.351016 30547 net.cpp:150] Setting up conv1/dw/bn
I0228 21:05:22.351027 30547 net.cpp:157] Top shape: 24 32 150 150 (17280000)
I0228 21:05:22.351032 30547 net.cpp:165] Memory required for data: 622080032
I0228 21:05:22.351044 30547 layer_factory.hpp:77] Creating layer conv1/dw/scale
I0228 21:05:22.351058 30547 net.cpp:100] Creating Layer conv1/dw/scale
I0228 21:05:22.351066 30547 net.cpp:434] conv1/dw/scale <- conv1/dw
I0228 21:05:22.351073 30547 net.cpp:395] conv1/dw/scale -> conv1/dw (in-place)
I0228 21:05:22.351126 30547 layer_factory.hpp:77] Creating layer conv1/dw/scale
I0228 21:05:22.351306 30547 net.cpp:150] Setting up conv1/dw/scale
I0228 21:05:22.351317 30547 net.cpp:157] Top shape: 24 32 150 150 (17280000)
I0228 21:05:22.351322 30547 net.cpp:165] Memory required for data: 691200032
I0228 21:05:22.351330 30547 layer_factory.hpp:77] Creating layer conv1/dw/relu
I0228 21:05:22.351361 30547 net.cpp:100] Creating Layer conv1/dw/relu
I0228 21:05:22.351368 30547 net.cpp:434] conv1/dw/relu <- conv1/dw
I0228 21:05:22.351375 30547 net.cpp:395] conv1/dw/relu -> conv1/dw (in-place)
I0228 21:05:22.351943 30547 net.cpp:150] Setting up conv1/dw/relu
I0228 21:05:22.351955 30547 net.cpp:157] Top shape: 24 32 150 150 (17280000)
I0228 21:05:22.351961 30547 net.cpp:165] Memory required for data: 760320032
I0228 21:05:22.351968 30547 layer_factory.hpp:77] Creating layer conv1
I0228 21:05:22.351980 30547 net.cpp:100] Creating Layer conv1
I0228 21:05:22.351986 30547 net.cpp:434] conv1 <- conv1/dw
I0228 21:05:22.351999 30547 net.cpp:408] conv1 -> conv1
I0228 21:05:22.356303 30547 net.cpp:150] Setting up conv1
I0228 21:05:22.356370 30547 net.cpp:157] Top shape: 24 64 150 150 (34560000)
I0228 21:05:22.356376 30547 net.cpp:165] Memory required for data: 898560032
I0228 21:05:22.356391 30547 layer_factory.hpp:77] Creating layer conv1/bn
I0228 21:05:22.356406 30547 net.cpp:100] Creating Layer conv1/bn
I0228 21:05:22.356416 30547 net.cpp:434] conv1/bn <- conv1
I0228 21:05:22.356426 30547 net.cpp:395] conv1/bn -> conv1 (in-place)
I0228 21:05:22.356863 30547 net.cpp:150] Setting up conv1/bn
I0228 21:05:22.356887 30547 net.cpp:157] Top shape: 24 64 150 150 (34560000)
I0228 21:05:22.356895 30547 net.cpp:165] Memory required for data: 1036800032
I0228 21:05:22.356914 30547 layer_factory.hpp:77] Creating layer conv1/scale
I0228 21:05:22.356936 30547 net.cpp:100] Creating Layer conv1/scale
I0228 21:05:22.356945 30547 net.cpp:434] conv1/scale <- conv1
I0228 21:05:22.356961 30547 net.cpp:395] conv1/scale -> conv1 (in-place)
I0228 21:05:22.357041 30547 layer_factory.hpp:77] Creating layer conv1/scale
I0228 21:05:22.357290 30547 net.cpp:150] Setting up conv1/scale
I0228 21:05:22.357305 30547 net.cpp:157] Top shape: 24 64 150 150 (34560000)
I0228 21:05:22.357309 30547 net.cpp:165] Memory required for data: 1175040032
I0228 21:05:22.357323 30547 layer_factory.hpp:77] Creating layer conv1/relu
I0228 21:05:22.357336 30547 net.cpp:100] Creating Layer conv1/relu
I0228 21:05:22.357342 30547 net.cpp:434] conv1/relu <- conv1
I0228 21:05:22.357352 30547 net.cpp:395] conv1/relu -> conv1 (in-place)
I0228 21:05:22.358618 30547 net.cpp:150] Setting up conv1/relu
I0228 21:05:22.358639 30547 net.cpp:157] Top shape: 24 64 150 150 (34560000)
I0228 21:05:22.358644 30547 net.cpp:165] Memory required for data: 1313280032
I0228 21:05:22.358649 30547 layer_factory.hpp:77] Creating layer conv2/dw
I0228 21:05:22.358664 30547 net.cpp:100] Creating Layer conv2/dw
I0228 21:05:22.358671 30547 net.cpp:434] conv2/dw <- conv1
I0228 21:05:22.358681 30547 net.cpp:408] conv2/dw -> conv2/dw
I0228 21:05:22.358943 30547 net.cpp:150] Setting up conv2/dw
I0228 21:05:22.358954 30547 net.cpp:157] Top shape: 24 64 75 75 (8640000)
I0228 21:05:22.358960 30547 net.cpp:165] Memory required for data: 1347840032
I0228 21:05:22.358968 30547 layer_factory.hpp:77] Creating layer conv2/dw/bn
I0228 21:05:22.358975 30547 net.cpp:100] Creating Layer conv2/dw/bn
I0228 21:05:22.358983 30547 net.cpp:434] conv2/dw/bn <- conv2/dw
I0228 21:05:22.358992 30547 net.cpp:395] conv2/dw/bn -> conv2/dw (in-place)
I0228 21:05:22.360482 30547 net.cpp:150] Setting up conv2/dw/bn
I0228 21:05:22.360499 30547 net.cpp:157] Top shape: 24 64 75 75 (8640000)
I0228 21:05:22.360504 30547 net.cpp:165] Memory required for data: 1382400032
I0228 21:05:22.360517 30547 layer_factory.hpp:77] Creating layer conv2/dw/scale
I0228 21:05:22.360532 30547 net.cpp:100] Creating Layer conv2/dw/scale
I0228 21:05:22.360538 30547 net.cpp:434] conv2/dw/scale <- conv2/dw
I0228 21:05:22.360553 30547 net.cpp:395] conv2/dw/scale -> conv2/dw (in-place)
I0228 21:05:22.360610 30547 layer_factory.hpp:77] Creating layer conv2/dw/scale
I0228 21:05:22.360756 30547 net.cpp:150] Setting up conv2/dw/scale
I0228 21:05:22.360766 30547 net.cpp:157] Top shape: 24 64 75 75 (8640000)
I0228 21:05:22.360771 30547 net.cpp:165] Memory required for data: 1416960032
I0228 21:05:22.360780 30547 layer_factory.hpp:77] Creating layer conv2/dw/relu
I0228 21:05:22.360805 30547 net.cpp:100] Creating Layer conv2/dw/relu
I0228 21:05:22.360810 30547 net.cpp:434] conv2/dw/relu <- conv2/dw
I0228 21:05:22.360818 30547 net.cpp:395] conv2/dw/relu -> conv2/dw (in-place)
I0228 21:05:22.361382 30547 net.cpp:150] Setting up conv2/dw/relu
I0228 21:05:22.361395 30547 net.cpp:157] Top shape: 24 64 75 75 (8640000)
I0228 21:05:22.361400 30547 net.cpp:165] Memory required for data: 1451520032
I0228 21:05:22.361405 30547 layer_factory.hpp:77] Creating layer conv2
I0228 21:05:22.361418 30547 net.cpp:100] Creating Layer conv2
I0228 21:05:22.361423 30547 net.cpp:434] conv2 <- conv2/dw
I0228 21:05:22.361433 30547 net.cpp:408] conv2 -> conv2
I0228 21:05:22.364567 30547 net.cpp:150] Setting up conv2
I0228 21:05:22.364585 30547 net.cpp:157] Top shape: 24 128 75 75 (17280000)
I0228 21:05:22.364590 30547 net.cpp:165] Memory required for data: 1520640032
I0228 21:05:22.364598 30547 layer_factory.hpp:77] Creating layer conv2/bn
I0228 21:05:22.364610 30547 net.cpp:100] Creating Layer conv2/bn
I0228 21:05:22.364617 30547 net.cpp:434] conv2/bn <- conv2
I0228 21:05:22.364624 30547 net.cpp:395] conv2/bn -> conv2 (in-place)
I0228 21:05:22.364852 30547 net.cpp:150] Setting up conv2/bn
I0228 21:05:22.364864 30547 net.cpp:157] Top shape: 24 128 75 75 (17280000)
I0228 21:05:22.364871 30547 net.cpp:165] Memory required for data: 1589760032
I0228 21:05:22.364881 30547 layer_factory.hpp:77] Creating layer conv2/scale
I0228 21:05:22.364892 30547 net.cpp:100] Creating Layer conv2/scale
I0228 21:05:22.364897 30547 net.cpp:434] conv2/scale <- conv2
I0228 21:05:22.364904 30547 net.cpp:395] conv2/scale -> conv2 (in-place)
I0228 21:05:22.364953 30547 layer_factory.hpp:77] Creating layer conv2/scale
I0228 21:05:22.365088 30547 net.cpp:150] Setting up conv2/scale
I0228 21:05:22.365099 30547 net.cpp:157] Top shape: 24 128 75 75 (17280000)
I0228 21:05:22.365104 30547 net.cpp:165] Memory required for data: 1658880032
I0228 21:05:22.365113 30547 layer_factory.hpp:77] Creating layer conv2/relu
I0228 21:05:22.365120 30547 net.cpp:100] Creating Layer conv2/relu
I0228 21:05:22.365126 30547 net.cpp:434] conv2/relu <- conv2
I0228 21:05:22.365136 30547 net.cpp:395] conv2/relu -> conv2 (in-place)
I0228 21:05:22.365669 30547 net.cpp:150] Setting up conv2/relu
I0228 21:05:22.365682 30547 net.cpp:157] Top shape: 24 128 75 75 (17280000)
I0228 21:05:22.365687 30547 net.cpp:165] Memory required for data: 1728000032
I0228 21:05:22.365694 30547 layer_factory.hpp:77] Creating layer conv3/dw
I0228 21:05:22.365705 30547 net.cpp:100] Creating Layer conv3/dw
I0228 21:05:22.365710 30547 net.cpp:434] conv3/dw <- conv2
I0228 21:05:22.365720 30547 net.cpp:408] conv3/dw -> conv3/dw
I0228 21:05:22.365960 30547 net.cpp:150] Setting up conv3/dw
I0228 21:05:22.365972 30547 net.cpp:157] Top shape: 24 128 75 75 (17280000)
I0228 21:05:22.365975 30547 net.cpp:165] Memory required for data: 1797120032
I0228 21:05:22.365983 30547 layer_factory.hpp:77] Creating layer conv3/dw/bn
I0228 21:05:22.365993 30547 net.cpp:100] Creating Layer conv3/dw/bn
I0228 21:05:22.366000 30547 net.cpp:434] conv3/dw/bn <- conv3/dw
I0228 21:05:22.366008 30547 net.cpp:395] conv3/dw/bn -> conv3/dw (in-place)
I0228 21:05:22.366222 30547 net.cpp:150] Setting up conv3/dw/bn
I0228 21:05:22.366233 30547 net.cpp:157] Top shape: 24 128 75 75 (17280000)
I0228 21:05:22.366237 30547 net.cpp:165] Memory required for data: 1866240032
I0228 21:05:22.366253 30547 layer_factory.hpp:77] Creating layer conv3/dw/scale
I0228 21:05:22.366263 30547 net.cpp:100] Creating Layer conv3/dw/scale
I0228 21:05:22.366269 30547 net.cpp:434] conv3/dw/scale <- conv3/dw
I0228 21:05:22.366277 30547 net.cpp:395] conv3/dw/scale -> conv3/dw (in-place)
I0228 21:05:22.366328 30547 layer_factory.hpp:77] Creating layer conv3/dw/scale
I0228 21:05:22.366459 30547 net.cpp:150] Setting up conv3/dw/scale
I0228 21:05:22.366470 30547 net.cpp:157] Top shape: 24 128 75 75 (17280000)
I0228 21:05:22.366474 30547 net.cpp:165] Memory required for data: 1935360032
I0228 21:05:22.366482 30547 layer_factory.hpp:77] Creating layer conv3/dw/relu
I0228 21:05:22.366504 30547 net.cpp:100] Creating Layer conv3/dw/relu
I0228 21:05:22.366510 30547 net.cpp:434] conv3/dw/relu <- conv3/dw
I0228 21:05:22.366518 30547 net.cpp:395] conv3/dw/relu -> conv3/dw (in-place)
I0228 21:05:22.367617 30547 net.cpp:150] Setting up conv3/dw/relu
I0228 21:05:22.367635 30547 net.cpp:157] Top shape: 24 128 75 75 (17280000)
I0228 21:05:22.367640 30547 net.cpp:165] Memory required for data: 2004480032
I0228 21:05:22.367646 30547 layer_factory.hpp:77] Creating layer conv3
I0228 21:05:22.367658 30547 net.cpp:100] Creating Layer conv3
I0228 21:05:22.367666 30547 net.cpp:434] conv3 <- conv3/dw
I0228 21:05:22.367676 30547 net.cpp:408] conv3 -> conv3
I0228 21:05:22.370339 30547 net.cpp:150] Setting up conv3
I0228 21:05:22.370362 30547 net.cpp:157] Top shape: 24 128 75 75 (17280000)
I0228 21:05:22.370367 30547 net.cpp:165] Memory required for data: 2073600032
I0228 21:05:22.370375 30547 layer_factory.hpp:77] Creating layer conv3/bn
I0228 21:05:22.370383 30547 net.cpp:100] Creating Layer conv3/bn
I0228 21:05:22.370389 30547 net.cpp:434] conv3/bn <- conv3
I0228 21:05:22.370396 30547 net.cpp:395] conv3/bn -> conv3 (in-place)
I0228 21:05:22.370661 30547 net.cpp:150] Setting up conv3/bn
I0228 21:05:22.370685 30547 net.cpp:157] Top shape: 24 128 75 75 (17280000)
I0228 21:05:22.370690 30547 net.cpp:165] Memory required for data: 2142720032
I0228 21:05:22.370699 30547 layer_factory.hpp:77] Creating layer conv3/scale
I0228 21:05:22.370709 30547 net.cpp:100] Creating Layer conv3/scale
I0228 21:05:22.370714 30547 net.cpp:434] conv3/scale <- conv3
I0228 21:05:22.370735 30547 net.cpp:395] conv3/scale -> conv3 (in-place)
I0228 21:05:22.370788 30547 layer_factory.hpp:77] Creating layer conv3/scale
I0228 21:05:22.370929 30547 net.cpp:150] Setting up conv3/scale
I0228 21:05:22.370941 30547 net.cpp:157] Top shape: 24 128 75 75 (17280000)
I0228 21:05:22.370947 30547 net.cpp:165] Memory required for data: 2211840032
I0228 21:05:22.370955 30547 layer_factory.hpp:77] Creating layer conv3/relu
I0228 21:05:22.370965 30547 net.cpp:100] Creating Layer conv3/relu
I0228 21:05:22.370970 30547 net.cpp:434] conv3/relu <- conv3
I0228 21:05:22.370977 30547 net.cpp:395] conv3/relu -> conv3 (in-place)
I0228 21:05:22.371520 30547 net.cpp:150] Setting up conv3/relu
I0228 21:05:22.371534 30547 net.cpp:157] Top shape: 24 128 75 75 (17280000)
I0228 21:05:22.371556 30547 net.cpp:165] Memory required for data: 2280960032
I0228 21:05:22.371561 30547 layer_factory.hpp:77] Creating layer conv4/dw
I0228 21:05:22.371572 30547 net.cpp:100] Creating Layer conv4/dw
I0228 21:05:22.371579 30547 net.cpp:434] conv4/dw <- conv3
I0228 21:05:22.371587 30547 net.cpp:408] conv4/dw -> conv4/dw
I0228 21:05:22.371850 30547 net.cpp:150] Setting up conv4/dw
I0228 21:05:22.371860 30547 net.cpp:157] Top shape: 24 128 38 38 (4435968)
I0228 21:05:22.371881 30547 net.cpp:165] Memory required for data: 2298703904
I0228 21:05:22.371901 30547 layer_factory.hpp:77] Creating layer conv4/dw/bn
I0228 21:05:22.371909 30547 net.cpp:100] Creating Layer conv4/dw/bn
I0228 21:05:22.371914 30547 net.cpp:434] conv4/dw/bn <- conv4/dw
I0228 21:05:22.371922 30547 net.cpp:395] conv4/dw/bn -> conv4/dw (in-place)
I0228 21:05:22.372143 30547 net.cpp:150] Setting up conv4/dw/bn
I0228 21:05:22.372151 30547 net.cpp:157] Top shape: 24 128 38 38 (4435968)
I0228 21:05:22.372156 30547 net.cpp:165] Memory required for data: 2316447776
I0228 21:05:22.372166 30547 layer_factory.hpp:77] Creating layer conv4/dw/scale
I0228 21:05:22.372180 30547 net.cpp:100] Creating Layer conv4/dw/scale
I0228 21:05:22.372187 30547 net.cpp:434] conv4/dw/scale <- conv4/dw
I0228 21:05:22.372195 30547 net.cpp:395] conv4/dw/scale -> conv4/dw (in-place)
I0228 21:05:22.372246 30547 layer_factory.hpp:77] Creating layer conv4/dw/scale
I0228 21:05:22.372404 30547 net.cpp:150] Setting up conv4/dw/scale
I0228 21:05:22.372414 30547 net.cpp:157] Top shape: 24 128 38 38 (4435968)
I0228 21:05:22.372419 30547 net.cpp:165] Memory required for data: 2334191648
I0228 21:05:22.372427 30547 layer_factory.hpp:77] Creating layer conv4/dw/relu
I0228 21:05:22.372450 30547 net.cpp:100] Creating Layer conv4/dw/relu
I0228 21:05:22.372457 30547 net.cpp:434] conv4/dw/relu <- conv4/dw
I0228 21:05:22.372467 30547 net.cpp:395] conv4/dw/relu -> conv4/dw (in-place)
I0228 21:05:22.372997 30547 net.cpp:150] Setting up conv4/dw/relu
I0228 21:05:22.373008 30547 net.cpp:157] Top shape: 24 128 38 38 (4435968)
I0228 21:05:22.373028 30547 net.cpp:165] Memory required for data: 2351935520
I0228 21:05:22.373034 30547 layer_factory.hpp:77] Creating layer conv4
I0228 21:05:22.373049 30547 net.cpp:100] Creating Layer conv4
I0228 21:05:22.373054 30547 net.cpp:434] conv4 <- conv4/dw
I0228 21:05:22.373064 30547 net.cpp:408] conv4 -> conv4
I0228 21:05:22.375934 30547 net.cpp:150] Setting up conv4
I0228 21:05:22.375952 30547 net.cpp:157] Top shape: 24 256 38 38 (8871936)
I0228 21:05:22.375973 30547 net.cpp:165] Memory required for data: 2387423264
I0228 21:05:22.375982 30547 layer_factory.hpp:77] Creating layer conv4/bn
I0228 21:05:22.376000 30547 net.cpp:100] Creating Layer conv4/bn
I0228 21:05:22.376008 30547 net.cpp:434] conv4/bn <- conv4
I0228 21:05:22.376018 30547 net.cpp:395] conv4/bn -> conv4 (in-place)
I0228 21:05:22.376251 30547 net.cpp:150] Setting up conv4/bn
I0228 21:05:22.376261 30547 net.cpp:157] Top shape: 24 256 38 38 (8871936)
I0228 21:05:22.376267 30547 net.cpp:165] Memory required for data: 2422911008
I0228 21:05:22.376276 30547 layer_factory.hpp:77] Creating layer conv4/scale
I0228 21:05:22.376286 30547 net.cpp:100] Creating Layer conv4/scale
I0228 21:05:22.376291 30547 net.cpp:434] conv4/scale <- conv4
I0228 21:05:22.376302 30547 net.cpp:395] conv4/scale -> conv4 (in-place)
I0228 21:05:22.376374 30547 layer_factory.hpp:77] Creating layer conv4/scale
I0228 21:05:22.376518 30547 net.cpp:150] Setting up conv4/scale
I0228 21:05:22.376528 30547 net.cpp:157] Top shape: 24 256 38 38 (8871936)
I0228 21:05:22.376533 30547 net.cpp:165] Memory required for data: 2458398752
I0228 21:05:22.376543 30547 layer_factory.hpp:77] Creating layer conv4/relu
I0228 21:05:22.376549 30547 net.cpp:100] Creating Layer conv4/relu
I0228 21:05:22.376554 30547 net.cpp:434] conv4/relu <- conv4
I0228 21:05:22.376564 30547 net.cpp:395] conv4/relu -> conv4 (in-place)
I0228 21:05:22.377094 30547 net.cpp:150] Setting up conv4/relu
I0228 21:05:22.377108 30547 net.cpp:157] Top shape: 24 256 38 38 (8871936)
I0228 21:05:22.377113 30547 net.cpp:165] Memory required for data: 2493886496
I0228 21:05:22.377121 30547 layer_factory.hpp:77] Creating layer conv5/dw
I0228 21:05:22.377133 30547 net.cpp:100] Creating Layer conv5/dw
I0228 21:05:22.377142 30547 net.cpp:434] conv5/dw <- conv4
I0228 21:05:22.377151 30547 net.cpp:408] conv5/dw -> conv5/dw
I0228 21:05:22.377419 30547 net.cpp:150] Setting up conv5/dw
I0228 21:05:22.377430 30547 net.cpp:157] Top shape: 24 256 38 38 (8871936)
I0228 21:05:22.377435 30547 net.cpp:165] Memory required for data: 2529374240
I0228 21:05:22.377441 30547 layer_factory.hpp:77] Creating layer conv5/dw/bn
I0228 21:05:22.377451 30547 net.cpp:100] Creating Layer conv5/dw/bn
I0228 21:05:22.377459 30547 net.cpp:434] conv5/dw/bn <- conv5/dw
I0228 21:05:22.377465 30547 net.cpp:395] conv5/dw/bn -> conv5/dw (in-place)
I0228 21:05:22.377682 30547 net.cpp:150] Setting up conv5/dw/bn
I0228 21:05:22.377693 30547 net.cpp:157] Top shape: 24 256 38 38 (8871936)
I0228 21:05:22.377697 30547 net.cpp:165] Memory required for data: 2564861984
I0228 21:05:22.377707 30547 layer_factory.hpp:77] Creating layer conv5/dw/scale
I0228 21:05:22.377717 30547 net.cpp:100] Creating Layer conv5/dw/scale
I0228 21:05:22.377722 30547 net.cpp:434] conv5/dw/scale <- conv5/dw
I0228 21:05:22.377732 30547 net.cpp:395] conv5/dw/scale -> conv5/dw (in-place)
I0228 21:05:22.377781 30547 layer_factory.hpp:77] Creating layer conv5/dw/scale
I0228 21:05:22.377912 30547 net.cpp:150] Setting up conv5/dw/scale
I0228 21:05:22.377923 30547 net.cpp:157] Top shape: 24 256 38 38 (8871936)
I0228 21:05:22.377928 30547 net.cpp:165] Memory required for data: 2600349728
I0228 21:05:22.377936 30547 layer_factory.hpp:77] Creating layer conv5/dw/relu
I0228 21:05:22.377957 30547 net.cpp:100] Creating Layer conv5/dw/relu
I0228 21:05:22.377964 30547 net.cpp:434] conv5/dw/relu <- conv5/dw
I0228 21:05:22.377972 30547 net.cpp:395] conv5/dw/relu -> conv5/dw (in-place)
I0228 21:05:22.379104 30547 net.cpp:150] Setting up conv5/dw/relu
I0228 21:05:22.379122 30547 net.cpp:157] Top shape: 24 256 38 38 (8871936)
I0228 21:05:22.379127 30547 net.cpp:165] Memory required for data: 2635837472
I0228 21:05:22.379132 30547 layer_factory.hpp:77] Creating layer conv5
I0228 21:05:22.379161 30547 net.cpp:100] Creating Layer conv5
I0228 21:05:22.379169 30547 net.cpp:434] conv5 <- conv5/dw
I0228 21:05:22.379180 30547 net.cpp:408] conv5 -> conv5
I0228 21:05:22.382526 30547 net.cpp:150] Setting up conv5
I0228 21:05:22.382550 30547 net.cpp:157] Top shape: 24 256 38 38 (8871936)
I0228 21:05:22.382566 30547 net.cpp:165] Memory required for data: 2671325216
I0228 21:05:22.382575 30547 layer_factory.hpp:77] Creating layer conv5/bn
I0228 21:05:22.382586 30547 net.cpp:100] Creating Layer conv5/bn
I0228 21:05:22.382603 30547 net.cpp:434] conv5/bn <- conv5
I0228 21:05:22.382611 30547 net.cpp:395] conv5/bn -> conv5 (in-place)
I0228 21:05:22.382879 30547 net.cpp:150] Setting up conv5/bn
I0228 21:05:22.382889 30547 net.cpp:157] Top shape: 24 256 38 38 (8871936)
I0228 21:05:22.382894 30547 net.cpp:165] Memory required for data: 2706812960
I0228 21:05:22.382905 30547 layer_factory.hpp:77] Creating layer conv5/scale
I0228 21:05:22.382916 30547 net.cpp:100] Creating Layer conv5/scale
I0228 21:05:22.382922 30547 net.cpp:434] conv5/scale <- conv5
I0228 21:05:22.382930 30547 net.cpp:395] conv5/scale -> conv5 (in-place)
I0228 21:05:22.382985 30547 layer_factory.hpp:77] Creating layer conv5/scale
I0228 21:05:22.383122 30547 net.cpp:150] Setting up conv5/scale
I0228 21:05:22.383132 30547 net.cpp:157] Top shape: 24 256 38 38 (8871936)
I0228 21:05:22.383137 30547 net.cpp:165] Memory required for data: 2742300704
I0228 21:05:22.383157 30547 layer_factory.hpp:77] Creating layer conv5/relu
I0228 21:05:22.383169 30547 net.cpp:100] Creating Layer conv5/relu
I0228 21:05:22.383174 30547 net.cpp:434] conv5/relu <- conv5
I0228 21:05:22.383180 30547 net.cpp:395] conv5/relu -> conv5 (in-place)
I0228 21:05:22.383735 30547 net.cpp:150] Setting up conv5/relu
I0228 21:05:22.383750 30547 net.cpp:157] Top shape: 24 256 38 38 (8871936)
I0228 21:05:22.383766 30547 net.cpp:165] Memory required for data: 2777788448
I0228 21:05:22.383771 30547 layer_factory.hpp:77] Creating layer conv6/dw
I0228 21:05:22.383785 30547 net.cpp:100] Creating Layer conv6/dw
I0228 21:05:22.383793 30547 net.cpp:434] conv6/dw <- conv5
I0228 21:05:22.383801 30547 net.cpp:408] conv6/dw -> conv6/dw
I0228 21:05:22.384089 30547 net.cpp:150] Setting up conv6/dw
I0228 21:05:22.384100 30547 net.cpp:157] Top shape: 24 256 19 19 (2217984)
I0228 21:05:22.384117 30547 net.cpp:165] Memory required for data: 2786660384
I0228 21:05:22.384124 30547 layer_factory.hpp:77] Creating layer conv6/dw/bn
I0228 21:05:22.384133 30547 net.cpp:100] Creating Layer conv6/dw/bn
I0228 21:05:22.384138 30547 net.cpp:434] conv6/dw/bn <- conv6/dw
I0228 21:05:22.384146 30547 net.cpp:395] conv6/dw/bn -> conv6/dw (in-place)
I0228 21:05:22.384405 30547 net.cpp:150] Setting up conv6/dw/bn
I0228 21:05:22.384415 30547 net.cpp:157] Top shape: 24 256 19 19 (2217984)
I0228 21:05:22.384420 30547 net.cpp:165] Memory required for data: 2795532320
I0228 21:05:22.384430 30547 layer_factory.hpp:77] Creating layer conv6/dw/scale
I0228 21:05:22.384441 30547 net.cpp:100] Creating Layer conv6/dw/scale
I0228 21:05:22.384446 30547 net.cpp:434] conv6/dw/scale <- conv6/dw
I0228 21:05:22.384454 30547 net.cpp:395] conv6/dw/scale -> conv6/dw (in-place)
I0228 21:05:22.384505 30547 layer_factory.hpp:77] Creating layer conv6/dw/scale
I0228 21:05:22.384641 30547 net.cpp:150] Setting up conv6/dw/scale
I0228 21:05:22.384650 30547 net.cpp:157] Top shape: 24 256 19 19 (2217984)
I0228 21:05:22.384655 30547 net.cpp:165] Memory required for data: 2804404256
I0228 21:05:22.384665 30547 layer_factory.hpp:77] Creating layer conv6/dw/relu
I0228 21:05:22.384692 30547 net.cpp:100] Creating Layer conv6/dw/relu
I0228 21:05:22.384697 30547 net.cpp:434] conv6/dw/relu <- conv6/dw
I0228 21:05:22.384704 30547 net.cpp:395] conv6/dw/relu -> conv6/dw (in-place)
I0228 21:05:22.385275 30547 net.cpp:150] Setting up conv6/dw/relu
I0228 21:05:22.385290 30547 net.cpp:157] Top shape: 24 256 19 19 (2217984)
I0228 21:05:22.385295 30547 net.cpp:165] Memory required for data: 2813276192
I0228 21:05:22.385301 30547 layer_factory.hpp:77] Creating layer conv6
I0228 21:05:22.385314 30547 net.cpp:100] Creating Layer conv6
I0228 21:05:22.385319 30547 net.cpp:434] conv6 <- conv6/dw
I0228 21:05:22.385327 30547 net.cpp:408] conv6 -> conv6
I0228 21:05:22.391047 30547 net.cpp:150] Setting up conv6
I0228 21:05:22.391088 30547 net.cpp:157] Top shape: 24 512 19 19 (4435968)
I0228 21:05:22.391093 30547 net.cpp:165] Memory required for data: 2831020064
I0228 21:05:22.391103 30547 layer_factory.hpp:77] Creating layer conv6/bn
I0228 21:05:22.391116 30547 net.cpp:100] Creating Layer conv6/bn
I0228 21:05:22.391124 30547 net.cpp:434] conv6/bn <- conv6
I0228 21:05:22.391144 30547 net.cpp:395] conv6/bn -> conv6 (in-place)
I0228 21:05:22.391386 30547 net.cpp:150] Setting up conv6/bn
I0228 21:05:22.391397 30547 net.cpp:157] Top shape: 24 512 19 19 (4435968)
I0228 21:05:22.391403 30547 net.cpp:165] Memory required for data: 2848763936
I0228 21:05:22.391412 30547 layer_factory.hpp:77] Creating layer conv6/scale
I0228 21:05:22.391436 30547 net.cpp:100] Creating Layer conv6/scale
I0228 21:05:22.391443 30547 net.cpp:434] conv6/scale <- conv6
I0228 21:05:22.391453 30547 net.cpp:395] conv6/scale -> conv6 (in-place)
I0228 21:05:22.391512 30547 layer_factory.hpp:77] Creating layer conv6/scale
I0228 21:05:22.391649 30547 net.cpp:150] Setting up conv6/scale
I0228 21:05:22.391659 30547 net.cpp:157] Top shape: 24 512 19 19 (4435968)
I0228 21:05:22.391664 30547 net.cpp:165] Memory required for data: 2866507808
I0228 21:05:22.391672 30547 layer_factory.hpp:77] Creating layer conv6/relu
I0228 21:05:22.391681 30547 net.cpp:100] Creating Layer conv6/relu
I0228 21:05:22.391703 30547 net.cpp:434] conv6/relu <- conv6
I0228 21:05:22.391710 30547 net.cpp:395] conv6/relu -> conv6 (in-place)
I0228 21:05:22.393026 30547 net.cpp:150] Setting up conv6/relu
I0228 21:05:22.393049 30547 net.cpp:157] Top shape: 24 512 19 19 (4435968)
I0228 21:05:22.393054 30547 net.cpp:165] Memory required for data: 2884251680
I0228 21:05:22.393061 30547 layer_factory.hpp:77] Creating layer conv7/dw
I0228 21:05:22.393076 30547 net.cpp:100] Creating Layer conv7/dw
I0228 21:05:22.393082 30547 net.cpp:434] conv7/dw <- conv6
I0228 21:05:22.393090 30547 net.cpp:408] conv7/dw -> conv7/dw
I0228 21:05:22.393402 30547 net.cpp:150] Setting up conv7/dw
I0228 21:05:22.393412 30547 net.cpp:157] Top shape: 24 512 19 19 (4435968)
I0228 21:05:22.393417 30547 net.cpp:165] Memory required for data: 2901995552
I0228 21:05:22.393424 30547 layer_factory.hpp:77] Creating layer conv7/dw/bn
I0228 21:05:22.393434 30547 net.cpp:100] Creating Layer conv7/dw/bn
I0228 21:05:22.393438 30547 net.cpp:434] conv7/dw/bn <- conv7/dw
I0228 21:05:22.393445 30547 net.cpp:395] conv7/dw/bn -> conv7/dw (in-place)
I0228 21:05:22.393669 30547 net.cpp:150] Setting up conv7/dw/bn
I0228 21:05:22.393681 30547 net.cpp:157] Top shape: 24 512 19 19 (4435968)
I0228 21:05:22.393684 30547 net.cpp:165] Memory required for data: 2919739424
I0228 21:05:22.393693 30547 layer_factory.hpp:77] Creating layer conv7/dw/scale
I0228 21:05:22.393704 30547 net.cpp:100] Creating Layer conv7/dw/scale
I0228 21:05:22.393712 30547 net.cpp:434] conv7/dw/scale <- conv7/dw
I0228 21:05:22.393718 30547 net.cpp:395] conv7/dw/scale -> conv7/dw (in-place)
I0228 21:05:22.393769 30547 layer_factory.hpp:77] Creating layer conv7/dw/scale
I0228 21:05:22.393903 30547 net.cpp:150] Setting up conv7/dw/scale
I0228 21:05:22.393913 30547 net.cpp:157] Top shape: 24 512 19 19 (4435968)
I0228 21:05:22.393918 30547 net.cpp:165] Memory required for data: 2937483296
I0228 21:05:22.393926 30547 layer_factory.hpp:77] Creating layer conv7/dw/relu
I0228 21:05:22.393952 30547 net.cpp:100] Creating Layer conv7/dw/relu
I0228 21:05:22.393959 30547 net.cpp:434] conv7/dw/relu <- conv7/dw
I0228 21:05:22.393965 30547 net.cpp:395] conv7/dw/relu -> conv7/dw (in-place)
I0228 21:05:22.394472 30547 net.cpp:150] Setting up conv7/dw/relu
I0228 21:05:22.394486 30547 net.cpp:157] Top shape: 24 512 19 19 (4435968)
I0228 21:05:22.394492 30547 net.cpp:165] Memory required for data: 2955227168
I0228 21:05:22.394497 30547 layer_factory.hpp:77] Creating layer conv7
I0228 21:05:22.394508 30547 net.cpp:100] Creating Layer conv7
I0228 21:05:22.394515 30547 net.cpp:434] conv7 <- conv7/dw
I0228 21:05:22.394524 30547 net.cpp:408] conv7 -> conv7
I0228 21:05:22.400040 30547 net.cpp:150] Setting up conv7
I0228 21:05:22.400058 30547 net.cpp:157] Top shape: 24 512 19 19 (4435968)
I0228 21:05:22.400074 30547 net.cpp:165] Memory required for data: 2972971040
I0228 21:05:22.400082 30547 layer_factory.hpp:77] Creating layer conv7/bn
I0228 21:05:22.400091 30547 net.cpp:100] Creating Layer conv7/bn
I0228 21:05:22.400097 30547 net.cpp:434] conv7/bn <- conv7
I0228 21:05:22.400120 30547 net.cpp:395] conv7/bn -> conv7 (in-place)
I0228 21:05:22.400413 30547 net.cpp:150] Setting up conv7/bn
I0228 21:05:22.400423 30547 net.cpp:157] Top shape: 24 512 19 19 (4435968)
I0228 21:05:22.400427 30547 net.cpp:165] Memory required for data: 2990714912
I0228 21:05:22.400436 30547 layer_factory.hpp:77] Creating layer conv7/scale
I0228 21:05:22.400449 30547 net.cpp:100] Creating Layer conv7/scale
I0228 21:05:22.400455 30547 net.cpp:434] conv7/scale <- conv7
I0228 21:05:22.400462 30547 net.cpp:395] conv7/scale -> conv7 (in-place)
I0228 21:05:22.400513 30547 layer_factory.hpp:77] Creating layer conv7/scale
I0228 21:05:22.400648 30547 net.cpp:150] Setting up conv7/scale
I0228 21:05:22.400658 30547 net.cpp:157] Top shape: 24 512 19 19 (4435968)
I0228 21:05:22.400663 30547 net.cpp:165] Memory required for data: 3008458784
I0228 21:05:22.400671 30547 layer_factory.hpp:77] Creating layer conv7/relu
I0228 21:05:22.400683 30547 net.cpp:100] Creating Layer conv7/relu
I0228 21:05:22.400688 30547 net.cpp:434] conv7/relu <- conv7
I0228 21:05:22.400696 30547 net.cpp:395] conv7/relu -> conv7 (in-place)
I0228 21:05:22.401237 30547 net.cpp:150] Setting up conv7/relu
I0228 21:05:22.401252 30547 net.cpp:157] Top shape: 24 512 19 19 (4435968)
I0228 21:05:22.401257 30547 net.cpp:165] Memory required for data: 3026202656
I0228 21:05:22.401260 30547 layer_factory.hpp:77] Creating layer conv8/dw
I0228 21:05:22.401273 30547 net.cpp:100] Creating Layer conv8/dw
I0228 21:05:22.401278 30547 net.cpp:434] conv8/dw <- conv7
I0228 21:05:22.401288 30547 net.cpp:408] conv8/dw -> conv8/dw
I0228 21:05:22.401572 30547 net.cpp:150] Setting up conv8/dw
I0228 21:05:22.401582 30547 net.cpp:157] Top shape: 24 512 19 19 (4435968)
I0228 21:05:22.401588 30547 net.cpp:165] Memory required for data: 3043946528
I0228 21:05:22.401595 30547 layer_factory.hpp:77] Creating layer conv8/dw/bn
I0228 21:05:22.401604 30547 net.cpp:100] Creating Layer conv8/dw/bn
I0228 21:05:22.401609 30547 net.cpp:434] conv8/dw/bn <- conv8/dw
I0228 21:05:22.401617 30547 net.cpp:395] conv8/dw/bn -> conv8/dw (in-place)
I0228 21:05:22.401841 30547 net.cpp:150] Setting up conv8/dw/bn
I0228 21:05:22.401850 30547 net.cpp:157] Top shape: 24 512 19 19 (4435968)
I0228 21:05:22.401855 30547 net.cpp:165] Memory required for data: 3061690400
I0228 21:05:22.401876 30547 layer_factory.hpp:77] Creating layer conv8/dw/scale
I0228 21:05:22.401895 30547 net.cpp:100] Creating Layer conv8/dw/scale
I0228 21:05:22.401902 30547 net.cpp:434] conv8/dw/scale <- conv8/dw
I0228 21:05:22.401909 30547 net.cpp:395] conv8/dw/scale -> conv8/dw (in-place)
I0228 21:05:22.401962 30547 layer_factory.hpp:77] Creating layer conv8/dw/scale
I0228 21:05:22.402094 30547 net.cpp:150] Setting up conv8/dw/scale
I0228 21:05:22.402104 30547 net.cpp:157] Top shape: 24 512 19 19 (4435968)
I0228 21:05:22.402108 30547 net.cpp:165] Memory required for data: 3079434272
I0228 21:05:22.402117 30547 layer_factory.hpp:77] Creating layer conv8/dw/relu
I0228 21:05:22.402140 30547 net.cpp:100] Creating Layer conv8/dw/relu
I0228 21:05:22.402145 30547 net.cpp:434] conv8/dw/relu <- conv8/dw
I0228 21:05:22.402153 30547 net.cpp:395] conv8/dw/relu -> conv8/dw (in-place)
I0228 21:05:22.403313 30547 net.cpp:150] Setting up conv8/dw/relu
I0228 21:05:22.403331 30547 net.cpp:157] Top shape: 24 512 19 19 (4435968)
I0228 21:05:22.403345 30547 net.cpp:165] Memory required for data: 3097178144
I0228 21:05:22.403350 30547 layer_factory.hpp:77] Creating layer conv8
I0228 21:05:22.403364 30547 net.cpp:100] Creating Layer conv8
I0228 21:05:22.403370 30547 net.cpp:434] conv8 <- conv8/dw
I0228 21:05:22.403380 30547 net.cpp:408] conv8 -> conv8
I0228 21:05:22.410538 30547 net.cpp:150] Setting up conv8
I0228 21:05:22.410568 30547 net.cpp:157] Top shape: 24 512 19 19 (4435968)
I0228 21:05:22.410574 30547 net.cpp:165] Memory required for data: 3114922016
I0228 21:05:22.410584 30547 layer_factory.hpp:77] Creating layer conv8/bn
I0228 21:05:22.410598 30547 net.cpp:100] Creating Layer conv8/bn
I0228 21:05:22.410605 30547 net.cpp:434] conv8/bn <- conv8
I0228 21:05:22.410614 30547 net.cpp:395] conv8/bn -> conv8 (in-place)
I0228 21:05:22.410862 30547 net.cpp:150] Setting up conv8/bn
I0228 21:05:22.410872 30547 net.cpp:157] Top shape: 24 512 19 19 (4435968)
I0228 21:05:22.410878 30547 net.cpp:165] Memory required for data: 3132665888
I0228 21:05:22.410889 30547 layer_factory.hpp:77] Creating layer conv8/scale
I0228 21:05:22.410902 30547 net.cpp:100] Creating Layer conv8/scale
I0228 21:05:22.410907 30547 net.cpp:434] conv8/scale <- conv8
I0228 21:05:22.410913 30547 net.cpp:395] conv8/scale -> conv8 (in-place)
I0228 21:05:22.410971 30547 layer_factory.hpp:77] Creating layer conv8/scale
I0228 21:05:22.411103 30547 net.cpp:150] Setting up conv8/scale
I0228 21:05:22.411113 30547 net.cpp:157] Top shape: 24 512 19 19 (4435968)
I0228 21:05:22.411118 30547 net.cpp:165] Memory required for data: 3150409760
I0228 21:05:22.411126 30547 layer_factory.hpp:77] Creating layer conv8/relu
I0228 21:05:22.411135 30547 net.cpp:100] Creating Layer conv8/relu
I0228 21:05:22.411140 30547 net.cpp:434] conv8/relu <- conv8
I0228 21:05:22.411147 30547 net.cpp:395] conv8/relu -> conv8 (in-place)
I0228 21:05:22.411633 30547 net.cpp:150] Setting up conv8/relu
I0228 21:05:22.411648 30547 net.cpp:157] Top shape: 24 512 19 19 (4435968)
I0228 21:05:22.411653 30547 net.cpp:165] Memory required for data: 3168153632
I0228 21:05:22.411658 30547 layer_factory.hpp:77] Creating layer conv9/dw
I0228 21:05:22.411669 30547 net.cpp:100] Creating Layer conv9/dw
I0228 21:05:22.411674 30547 net.cpp:434] conv9/dw <- conv8
I0228 21:05:22.411684 30547 net.cpp:408] conv9/dw -> conv9/dw
I0228 21:05:22.411967 30547 net.cpp:150] Setting up conv9/dw
I0228 21:05:22.411978 30547 net.cpp:157] Top shape: 24 512 19 19 (4435968)
I0228 21:05:22.411983 30547 net.cpp:165] Memory required for data: 3185897504
I0228 21:05:22.411988 30547 layer_factory.hpp:77] Creating layer conv9/dw/bn
I0228 21:05:22.411995 30547 net.cpp:100] Creating Layer conv9/dw/bn
I0228 21:05:22.412000 30547 net.cpp:434] conv9/dw/bn <- conv9/dw
I0228 21:05:22.412006 30547 net.cpp:395] conv9/dw/bn -> conv9/dw (in-place)
I0228 21:05:22.412222 30547 net.cpp:150] Setting up conv9/dw/bn
I0228 21:05:22.412233 30547 net.cpp:157] Top shape: 24 512 19 19 (4435968)
I0228 21:05:22.412237 30547 net.cpp:165] Memory required for data: 3203641376
I0228 21:05:22.412246 30547 layer_factory.hpp:77] Creating layer conv9/dw/scale
I0228 21:05:22.412253 30547 net.cpp:100] Creating Layer conv9/dw/scale
I0228 21:05:22.412261 30547 net.cpp:434] conv9/dw/scale <- conv9/dw
I0228 21:05:22.412268 30547 net.cpp:395] conv9/dw/scale -> conv9/dw (in-place)
I0228 21:05:22.412317 30547 layer_factory.hpp:77] Creating layer conv9/dw/scale
I0228 21:05:22.412504 30547 net.cpp:150] Setting up conv9/dw/scale
I0228 21:05:22.412518 30547 net.cpp:157] Top shape: 24 512 19 19 (4435968)
I0228 21:05:22.412521 30547 net.cpp:165] Memory required for data: 3221385248
I0228 21:05:22.412529 30547 layer_factory.hpp:77] Creating layer conv9/dw/relu
I0228 21:05:22.412569 30547 net.cpp:100] Creating Layer conv9/dw/relu
I0228 21:05:22.412576 30547 net.cpp:434] conv9/dw/relu <- conv9/dw
I0228 21:05:22.412585 30547 net.cpp:395] conv9/dw/relu -> conv9/dw (in-place)
I0228 21:05:22.413120 30547 net.cpp:150] Setting up conv9/dw/relu
I0228 21:05:22.413147 30547 net.cpp:157] Top shape: 24 512 19 19 (4435968)
I0228 21:05:22.413154 30547 net.cpp:165] Memory required for data: 3239129120
I0228 21:05:22.413159 30547 layer_factory.hpp:77] Creating layer conv9
I0228 21:05:22.413172 30547 net.cpp:100] Creating Layer conv9
I0228 21:05:22.413177 30547 net.cpp:434] conv9 <- conv9/dw
I0228 21:05:22.413187 30547 net.cpp:408] conv9 -> conv9
I0228 21:05:22.418355 30547 net.cpp:150] Setting up conv9
I0228 21:05:22.418373 30547 net.cpp:157] Top shape: 24 512 19 19 (4435968)
I0228 21:05:22.418378 30547 net.cpp:165] Memory required for data: 3256872992
I0228 21:05:22.418386 30547 layer_factory.hpp:77] Creating layer conv9/bn
I0228 21:05:22.418395 30547 net.cpp:100] Creating Layer conv9/bn
I0228 21:05:22.418401 30547 net.cpp:434] conv9/bn <- conv9
I0228 21:05:22.418409 30547 net.cpp:395] conv9/bn -> conv9 (in-place)
I0228 21:05:22.418661 30547 net.cpp:150] Setting up conv9/bn
I0228 21:05:22.418671 30547 net.cpp:157] Top shape: 24 512 19 19 (4435968)
I0228 21:05:22.418694 30547 net.cpp:165] Memory required for data: 3274616864
I0228 21:05:22.418702 30547 layer_factory.hpp:77] Creating layer conv9/scale
I0228 21:05:22.418715 30547 net.cpp:100] Creating Layer conv9/scale
I0228 21:05:22.418720 30547 net.cpp:434] conv9/scale <- conv9
I0228 21:05:22.418726 30547 net.cpp:395] conv9/scale -> conv9 (in-place)
I0228 21:05:22.418774 30547 layer_factory.hpp:77] Creating layer conv9/scale
I0228 21:05:22.418906 30547 net.cpp:150] Setting up conv9/scale
I0228 21:05:22.418916 30547 net.cpp:157] Top shape: 24 512 19 19 (4435968)
I0228 21:05:22.418920 30547 net.cpp:165] Memory required for data: 3292360736
I0228 21:05:22.418927 30547 layer_factory.hpp:77] Creating layer conv9/relu
I0228 21:05:22.418936 30547 net.cpp:100] Creating Layer conv9/relu
I0228 21:05:22.418941 30547 net.cpp:434] conv9/relu <- conv9
I0228 21:05:22.418949 30547 net.cpp:395] conv9/relu -> conv9 (in-place)
I0228 21:05:22.419433 30547 net.cpp:150] Setting up conv9/relu
I0228 21:05:22.419446 30547 net.cpp:157] Top shape: 24 512 19 19 (4435968)
I0228 21:05:22.419451 30547 net.cpp:165] Memory required for data: 3310104608
I0228 21:05:22.419456 30547 layer_factory.hpp:77] Creating layer conv10/dw
I0228 21:05:22.419467 30547 net.cpp:100] Creating Layer conv10/dw
I0228 21:05:22.419492 30547 net.cpp:434] conv10/dw <- conv9
I0228 21:05:22.419500 30547 net.cpp:408] conv10/dw -> conv10/dw
I0228 21:05:22.419803 30547 net.cpp:150] Setting up conv10/dw
I0228 21:05:22.419813 30547 net.cpp:157] Top shape: 24 512 19 19 (4435968)
I0228 21:05:22.419819 30547 net.cpp:165] Memory required for data: 3327848480
I0228 21:05:22.419826 30547 layer_factory.hpp:77] Creating layer conv10/dw/bn
I0228 21:05:22.419836 30547 net.cpp:100] Creating Layer conv10/dw/bn
I0228 21:05:22.419840 30547 net.cpp:434] conv10/dw/bn <- conv10/dw
I0228 21:05:22.419848 30547 net.cpp:395] conv10/dw/bn -> conv10/dw (in-place)
I0228 21:05:22.420063 30547 net.cpp:150] Setting up conv10/dw/bn
I0228 21:05:22.420073 30547 net.cpp:157] Top shape: 24 512 19 19 (4435968)
I0228 21:05:22.420076 30547 net.cpp:165] Memory required for data: 3345592352
I0228 21:05:22.420085 30547 layer_factory.hpp:77] Creating layer conv10/dw/scale
I0228 21:05:22.420095 30547 net.cpp:100] Creating Layer conv10/dw/scale
I0228 21:05:22.420104 30547 net.cpp:434] conv10/dw/scale <- conv10/dw
I0228 21:05:22.420109 30547 net.cpp:395] conv10/dw/scale -> conv10/dw (in-place)
I0228 21:05:22.420158 30547 layer_factory.hpp:77] Creating layer conv10/dw/scale
I0228 21:05:22.420286 30547 net.cpp:150] Setting up conv10/dw/scale
I0228 21:05:22.420295 30547 net.cpp:157] Top shape: 24 512 19 19 (4435968)
I0228 21:05:22.420300 30547 net.cpp:165] Memory required for data: 3363336224
I0228 21:05:22.420308 30547 layer_factory.hpp:77] Creating layer conv10/dw/relu
I0228 21:05:22.420328 30547 net.cpp:100] Creating Layer conv10/dw/relu
I0228 21:05:22.420336 30547 net.cpp:434] conv10/dw/relu <- conv10/dw
I0228 21:05:22.420341 30547 net.cpp:395] conv10/dw/relu -> conv10/dw (in-place)
I0228 21:05:22.421479 30547 net.cpp:150] Setting up conv10/dw/relu
I0228 21:05:22.421499 30547 net.cpp:157] Top shape: 24 512 19 19 (4435968)
I0228 21:05:22.421504 30547 net.cpp:165] Memory required for data: 3381080096
I0228 21:05:22.421509 30547 layer_factory.hpp:77] Creating layer conv10
I0228 21:05:22.421521 30547 net.cpp:100] Creating Layer conv10
I0228 21:05:22.421528 30547 net.cpp:434] conv10 <- conv10/dw
I0228 21:05:22.421536 30547 net.cpp:408] conv10 -> conv10
I0228 21:05:22.427896 30547 net.cpp:150] Setting up conv10
I0228 21:05:22.427914 30547 net.cpp:157] Top shape: 24 512 19 19 (4435968)
I0228 21:05:22.427919 30547 net.cpp:165] Memory required for data: 3398823968
I0228 21:05:22.427927 30547 layer_factory.hpp:77] Creating layer conv10/bn
I0228 21:05:22.427937 30547 net.cpp:100] Creating Layer conv10/bn
I0228 21:05:22.427942 30547 net.cpp:434] conv10/bn <- conv10
I0228 21:05:22.427949 30547 net.cpp:395] conv10/bn -> conv10 (in-place)
I0228 21:05:22.428195 30547 net.cpp:150] Setting up conv10/bn
I0228 21:05:22.428205 30547 net.cpp:157] Top shape: 24 512 19 19 (4435968)
I0228 21:05:22.428211 30547 net.cpp:165] Memory required for data: 3416567840
I0228 21:05:22.428220 30547 layer_factory.hpp:77] Creating layer conv10/scale
I0228 21:05:22.428232 30547 net.cpp:100] Creating Layer conv10/scale
I0228 21:05:22.428238 30547 net.cpp:434] conv10/scale <- conv10
I0228 21:05:22.428246 30547 net.cpp:395] conv10/scale -> conv10 (in-place)
I0228 21:05:22.428298 30547 layer_factory.hpp:77] Creating layer conv10/scale
I0228 21:05:22.428454 30547 net.cpp:150] Setting up conv10/scale
I0228 21:05:22.428465 30547 net.cpp:157] Top shape: 24 512 19 19 (4435968)
I0228 21:05:22.428470 30547 net.cpp:165] Memory required for data: 3434311712
I0228 21:05:22.428478 30547 layer_factory.hpp:77] Creating layer conv10/relu
I0228 21:05:22.428488 30547 net.cpp:100] Creating Layer conv10/relu
I0228 21:05:22.428493 30547 net.cpp:434] conv10/relu <- conv10
I0228 21:05:22.428499 30547 net.cpp:395] conv10/relu -> conv10 (in-place)
I0228 21:05:22.429105 30547 net.cpp:150] Setting up conv10/relu
I0228 21:05:22.429136 30547 net.cpp:157] Top shape: 24 512 19 19 (4435968)
I0228 21:05:22.429141 30547 net.cpp:165] Memory required for data: 3452055584
I0228 21:05:22.429148 30547 layer_factory.hpp:77] Creating layer conv11/dw
I0228 21:05:22.429160 30547 net.cpp:100] Creating Layer conv11/dw
I0228 21:05:22.429167 30547 net.cpp:434] conv11/dw <- conv10
I0228 21:05:22.429174 30547 net.cpp:408] conv11/dw -> conv11/dw
I0228 21:05:22.429487 30547 net.cpp:150] Setting up conv11/dw
I0228 21:05:22.429498 30547 net.cpp:157] Top shape: 24 512 19 19 (4435968)
I0228 21:05:22.429502 30547 net.cpp:165] Memory required for data: 3469799456
I0228 21:05:22.429508 30547 layer_factory.hpp:77] Creating layer conv11/dw/bn
I0228 21:05:22.429518 30547 net.cpp:100] Creating Layer conv11/dw/bn
I0228 21:05:22.429525 30547 net.cpp:434] conv11/dw/bn <- conv11/dw
I0228 21:05:22.429533 30547 net.cpp:395] conv11/dw/bn -> conv11/dw (in-place)
I0228 21:05:22.429760 30547 net.cpp:150] Setting up conv11/dw/bn
I0228 21:05:22.429771 30547 net.cpp:157] Top shape: 24 512 19 19 (4435968)
I0228 21:05:22.429775 30547 net.cpp:165] Memory required for data: 3487543328
I0228 21:05:22.429800 30547 layer_factory.hpp:77] Creating layer conv11/dw/scale
I0228 21:05:22.429811 30547 net.cpp:100] Creating Layer conv11/dw/scale
I0228 21:05:22.429818 30547 net.cpp:434] conv11/dw/scale <- conv11/dw
I0228 21:05:22.429827 30547 net.cpp:395] conv11/dw/scale -> conv11/dw (in-place)
I0228 21:05:22.429879 30547 layer_factory.hpp:77] Creating layer conv11/dw/scale
I0228 21:05:22.430009 30547 net.cpp:150] Setting up conv11/dw/scale
I0228 21:05:22.430022 30547 net.cpp:157] Top shape: 24 512 19 19 (4435968)
I0228 21:05:22.430025 30547 net.cpp:165] Memory required for data: 3505287200
I0228 21:05:22.430047 30547 layer_factory.hpp:77] Creating layer conv11/dw/relu
I0228 21:05:22.430055 30547 net.cpp:100] Creating Layer conv11/dw/relu
I0228 21:05:22.430061 30547 net.cpp:434] conv11/dw/relu <- conv11/dw
I0228 21:05:22.430068 30547 net.cpp:395] conv11/dw/relu -> conv11/dw (in-place)
I0228 21:05:22.430624 30547 net.cpp:150] Setting up conv11/dw/relu
I0228 21:05:22.430637 30547 net.cpp:157] Top shape: 24 512 19 19 (4435968)
I0228 21:05:22.430642 30547 net.cpp:165] Memory required for data: 3523031072
I0228 21:05:22.430647 30547 layer_factory.hpp:77] Creating layer conv11
I0228 21:05:22.430658 30547 net.cpp:100] Creating Layer conv11
I0228 21:05:22.430666 30547 net.cpp:434] conv11 <- conv11/dw
I0228 21:05:22.430675 30547 net.cpp:408] conv11 -> conv11
I0228 21:05:22.435871 30547 net.cpp:150] Setting up conv11
I0228 21:05:22.435890 30547 net.cpp:157] Top shape: 24 512 19 19 (4435968)
I0228 21:05:22.435895 30547 net.cpp:165] Memory required for data: 3540774944
I0228 21:05:22.435904 30547 layer_factory.hpp:77] Creating layer conv11/bn
I0228 21:05:22.435911 30547 net.cpp:100] Creating Layer conv11/bn
I0228 21:05:22.435916 30547 net.cpp:434] conv11/bn <- conv11
I0228 21:05:22.435925 30547 net.cpp:395] conv11/bn -> conv11 (in-place)
I0228 21:05:22.436189 30547 net.cpp:150] Setting up conv11/bn
I0228 21:05:22.436200 30547 net.cpp:157] Top shape: 24 512 19 19 (4435968)
I0228 21:05:22.436205 30547 net.cpp:165] Memory required for data: 3558518816
I0228 21:05:22.436215 30547 layer_factory.hpp:77] Creating layer conv11/scale
I0228 21:05:22.436226 30547 net.cpp:100] Creating Layer conv11/scale
I0228 21:05:22.436231 30547 net.cpp:434] conv11/scale <- conv11
I0228 21:05:22.436237 30547 net.cpp:395] conv11/scale -> conv11 (in-place)
I0228 21:05:22.436290 30547 layer_factory.hpp:77] Creating layer conv11/scale
I0228 21:05:22.436465 30547 net.cpp:150] Setting up conv11/scale
I0228 21:05:22.436476 30547 net.cpp:157] Top shape: 24 512 19 19 (4435968)
I0228 21:05:22.436481 30547 net.cpp:165] Memory required for data: 3576262688
I0228 21:05:22.436489 30547 layer_factory.hpp:77] Creating layer conv11/relu
I0228 21:05:22.436499 30547 net.cpp:100] Creating Layer conv11/relu
I0228 21:05:22.436506 30547 net.cpp:434] conv11/relu <- conv11
I0228 21:05:22.436512 30547 net.cpp:395] conv11/relu -> conv11 (in-place)
I0228 21:05:22.437743 30547 net.cpp:150] Setting up conv11/relu
I0228 21:05:22.437760 30547 net.cpp:157] Top shape: 24 512 19 19 (4435968)
I0228 21:05:22.437764 30547 net.cpp:165] Memory required for data: 3594006560
I0228 21:05:22.437769 30547 layer_factory.hpp:77] Creating layer conv11_conv11/relu_0_split
I0228 21:05:22.437777 30547 net.cpp:100] Creating Layer conv11_conv11/relu_0_split
I0228 21:05:22.437783 30547 net.cpp:434] conv11_conv11/relu_0_split <- conv11
I0228 21:05:22.437793 30547 net.cpp:408] conv11_conv11/relu_0_split -> conv11_conv11/relu_0_split_0
I0228 21:05:22.437825 30547 net.cpp:408] conv11_conv11/relu_0_split -> conv11_conv11/relu_0_split_1
I0228 21:05:22.437836 30547 net.cpp:408] conv11_conv11/relu_0_split -> conv11_conv11/relu_0_split_2
I0228 21:05:22.437845 30547 net.cpp:408] conv11_conv11/relu_0_split -> conv11_conv11/relu_0_split_3
I0228 21:05:22.437929 30547 net.cpp:150] Setting up conv11_conv11/relu_0_split
I0228 21:05:22.437939 30547 net.cpp:157] Top shape: 24 512 19 19 (4435968)
I0228 21:05:22.437944 30547 net.cpp:157] Top shape: 24 512 19 19 (4435968)
I0228 21:05:22.437952 30547 net.cpp:157] Top shape: 24 512 19 19 (4435968)
I0228 21:05:22.437957 30547 net.cpp:157] Top shape: 24 512 19 19 (4435968)
I0228 21:05:22.437961 30547 net.cpp:165] Memory required for data: 3664982048
I0228 21:05:22.437966 30547 layer_factory.hpp:77] Creating layer conv12/dw
I0228 21:05:22.437980 30547 net.cpp:100] Creating Layer conv12/dw
I0228 21:05:22.437986 30547 net.cpp:434] conv12/dw <- conv11_conv11/relu_0_split_0
I0228 21:05:22.437996 30547 net.cpp:408] conv12/dw -> conv12/dw
I0228 21:05:22.438287 30547 net.cpp:150] Setting up conv12/dw
I0228 21:05:22.438297 30547 net.cpp:157] Top shape: 24 512 10 10 (1228800)
I0228 21:05:22.438314 30547 net.cpp:165] Memory required for data: 3669897248
I0228 21:05:22.438323 30547 layer_factory.hpp:77] Creating layer conv12/dw/bn
I0228 21:05:22.438329 30547 net.cpp:100] Creating Layer conv12/dw/bn
I0228 21:05:22.438335 30547 net.cpp:434] conv12/dw/bn <- conv12/dw
I0228 21:05:22.438344 30547 net.cpp:395] conv12/dw/bn -> conv12/dw (in-place)
I0228 21:05:22.438614 30547 net.cpp:150] Setting up conv12/dw/bn
I0228 21:05:22.438624 30547 net.cpp:157] Top shape: 24 512 10 10 (1228800)
I0228 21:05:22.438630 30547 net.cpp:165] Memory required for data: 3674812448
I0228 21:05:22.438639 30547 layer_factory.hpp:77] Creating layer conv12/dw/scale
I0228 21:05:22.438663 30547 net.cpp:100] Creating Layer conv12/dw/scale
I0228 21:05:22.438686 30547 net.cpp:434] conv12/dw/scale <- conv12/dw
I0228 21:05:22.438696 30547 net.cpp:395] conv12/dw/scale -> conv12/dw (in-place)
I0228 21:05:22.438741 30547 layer_factory.hpp:77] Creating layer conv12/dw/scale
I0228 21:05:22.438885 30547 net.cpp:150] Setting up conv12/dw/scale
I0228 21:05:22.438910 30547 net.cpp:157] Top shape: 24 512 10 10 (1228800)
I0228 21:05:22.438915 30547 net.cpp:165] Memory required for data: 3679727648
I0228 21:05:22.438923 30547 layer_factory.hpp:77] Creating layer conv12/dw/relu
I0228 21:05:22.438931 30547 net.cpp:100] Creating Layer conv12/dw/relu
I0228 21:05:22.438936 30547 net.cpp:434] conv12/dw/relu <- conv12/dw
I0228 21:05:22.438946 30547 net.cpp:395] conv12/dw/relu -> conv12/dw (in-place)
I0228 21:05:22.440060 30547 net.cpp:150] Setting up conv12/dw/relu
I0228 21:05:22.440078 30547 net.cpp:157] Top shape: 24 512 10 10 (1228800)
I0228 21:05:22.440085 30547 net.cpp:165] Memory required for data: 3684642848
I0228 21:05:22.440093 30547 layer_factory.hpp:77] Creating layer conv12
I0228 21:05:22.440114 30547 net.cpp:100] Creating Layer conv12
I0228 21:05:22.440120 30547 net.cpp:434] conv12 <- conv12/dw
I0228 21:05:22.440131 30547 net.cpp:408] conv12 -> conv12
I0228 21:05:22.449465 30547 net.cpp:150] Setting up conv12
I0228 21:05:22.449494 30547 net.cpp:157] Top shape: 24 1024 10 10 (2457600)
I0228 21:05:22.449517 30547 net.cpp:165] Memory required for data: 3694473248
I0228 21:05:22.449540 30547 layer_factory.hpp:77] Creating layer conv12/bn
I0228 21:05:22.449554 30547 net.cpp:100] Creating Layer conv12/bn
I0228 21:05:22.449560 30547 net.cpp:434] conv12/bn <- conv12
I0228 21:05:22.449573 30547 net.cpp:395] conv12/bn -> conv12 (in-place)
I0228 21:05:22.449842 30547 net.cpp:150] Setting up conv12/bn
I0228 21:05:22.449869 30547 net.cpp:157] Top shape: 24 1024 10 10 (2457600)
I0228 21:05:22.449873 30547 net.cpp:165] Memory required for data: 3704303648
I0228 21:05:22.449883 30547 layer_factory.hpp:77] Creating layer conv12/scale
I0228 21:05:22.449892 30547 net.cpp:100] Creating Layer conv12/scale
I0228 21:05:22.449898 30547 net.cpp:434] conv12/scale <- conv12
I0228 21:05:22.449906 30547 net.cpp:395] conv12/scale -> conv12 (in-place)
I0228 21:05:22.449970 30547 layer_factory.hpp:77] Creating layer conv12/scale
I0228 21:05:22.450119 30547 net.cpp:150] Setting up conv12/scale
I0228 21:05:22.450129 30547 net.cpp:157] Top shape: 24 1024 10 10 (2457600)
I0228 21:05:22.450134 30547 net.cpp:165] Memory required for data: 3714134048
I0228 21:05:22.450141 30547 layer_factory.hpp:77] Creating layer conv12/relu
I0228 21:05:22.450150 30547 net.cpp:100] Creating Layer conv12/relu
I0228 21:05:22.450156 30547 net.cpp:434] conv12/relu <- conv12
I0228 21:05:22.450165 30547 net.cpp:395] conv12/relu -> conv12 (in-place)
I0228 21:05:22.450726 30547 net.cpp:150] Setting up conv12/relu
I0228 21:05:22.450739 30547 net.cpp:157] Top shape: 24 1024 10 10 (2457600)
I0228 21:05:22.450762 30547 net.cpp:165] Memory required for data: 3723964448
I0228 21:05:22.450767 30547 layer_factory.hpp:77] Creating layer conv13/dw
I0228 21:05:22.450778 30547 net.cpp:100] Creating Layer conv13/dw
I0228 21:05:22.450783 30547 net.cpp:434] conv13/dw <- conv12
I0228 21:05:22.450794 30547 net.cpp:408] conv13/dw -> conv13/dw
I0228 21:05:22.451201 30547 net.cpp:150] Setting up conv13/dw
I0228 21:05:22.451211 30547 net.cpp:157] Top shape: 24 1024 10 10 (2457600)
I0228 21:05:22.451248 30547 net.cpp:165] Memory required for data: 3733794848
I0228 21:05:22.451256 30547 layer_factory.hpp:77] Creating layer conv13/dw/bn
I0228 21:05:22.451264 30547 net.cpp:100] Creating Layer conv13/dw/bn
I0228 21:05:22.451269 30547 net.cpp:434] conv13/dw/bn <- conv13/dw
I0228 21:05:22.451277 30547 net.cpp:395] conv13/dw/bn -> conv13/dw (in-place)
I0228 21:05:22.451537 30547 net.cpp:150] Setting up conv13/dw/bn
I0228 21:05:22.451546 30547 net.cpp:157] Top shape: 24 1024 10 10 (2457600)
I0228 21:05:22.451551 30547 net.cpp:165] Memory required for data: 3743625248
I0228 21:05:22.451560 30547 layer_factory.hpp:77] Creating layer conv13/dw/scale
I0228 21:05:22.451570 30547 net.cpp:100] Creating Layer conv13/dw/scale
I0228 21:05:22.451575 30547 net.cpp:434] conv13/dw/scale <- conv13/dw
I0228 21:05:22.451582 30547 net.cpp:395] conv13/dw/scale -> conv13/dw (in-place)
I0228 21:05:22.451629 30547 layer_factory.hpp:77] Creating layer conv13/dw/scale
I0228 21:05:22.451774 30547 net.cpp:150] Setting up conv13/dw/scale
I0228 21:05:22.451784 30547 net.cpp:157] Top shape: 24 1024 10 10 (2457600)
I0228 21:05:22.451788 30547 net.cpp:165] Memory required for data: 3753455648
I0228 21:05:22.451797 30547 layer_factory.hpp:77] Creating layer conv13/dw/relu
I0228 21:05:22.451807 30547 net.cpp:100] Creating Layer conv13/dw/relu
I0228 21:05:22.451812 30547 net.cpp:434] conv13/dw/relu <- conv13/dw
I0228 21:05:22.451818 30547 net.cpp:395] conv13/dw/relu -> conv13/dw (in-place)
I0228 21:05:22.452968 30547 net.cpp:150] Setting up conv13/dw/relu
I0228 21:05:22.452986 30547 net.cpp:157] Top shape: 24 1024 10 10 (2457600)
I0228 21:05:22.452991 30547 net.cpp:165] Memory required for data: 3763286048
I0228 21:05:22.452996 30547 layer_factory.hpp:77] Creating layer conv13
I0228 21:05:22.453006 30547 net.cpp:100] Creating Layer conv13
I0228 21:05:22.453012 30547 net.cpp:434] conv13 <- conv13/dw
I0228 21:05:22.453021 30547 net.cpp:408] conv13 -> conv13
I0228 21:05:22.469249 30547 net.cpp:150] Setting up conv13
I0228 21:05:22.469296 30547 net.cpp:157] Top shape: 24 1024 10 10 (2457600)
I0228 21:05:22.469303 30547 net.cpp:165] Memory required for data: 3773116448
I0228 21:05:22.469316 30547 layer_factory.hpp:77] Creating layer conv13/bn
I0228 21:05:22.469328 30547 net.cpp:100] Creating Layer conv13/bn
I0228 21:05:22.469336 30547 net.cpp:434] conv13/bn <- conv13
I0228 21:05:22.469347 30547 net.cpp:395] conv13/bn -> conv13 (in-place)
I0228 21:05:22.469611 30547 net.cpp:150] Setting up conv13/bn
I0228 21:05:22.469622 30547 net.cpp:157] Top shape: 24 1024 10 10 (2457600)
I0228 21:05:22.469626 30547 net.cpp:165] Memory required for data: 3782946848
I0228 21:05:22.469637 30547 layer_factory.hpp:77] Creating layer conv13/scale
I0228 21:05:22.469648 30547 net.cpp:100] Creating Layer conv13/scale
I0228 21:05:22.469653 30547 net.cpp:434] conv13/scale <- conv13
I0228 21:05:22.469661 30547 net.cpp:395] conv13/scale -> conv13 (in-place)
I0228 21:05:22.469715 30547 layer_factory.hpp:77] Creating layer conv13/scale
I0228 21:05:22.469866 30547 net.cpp:150] Setting up conv13/scale
I0228 21:05:22.469874 30547 net.cpp:157] Top shape: 24 1024 10 10 (2457600)
I0228 21:05:22.469879 30547 net.cpp:165] Memory required for data: 3792777248
I0228 21:05:22.469887 30547 layer_factory.hpp:77] Creating layer conv13/relu
I0228 21:05:22.469895 30547 net.cpp:100] Creating Layer conv13/relu
I0228 21:05:22.469918 30547 net.cpp:434] conv13/relu <- conv13
I0228 21:05:22.469924 30547 net.cpp:395] conv13/relu -> conv13 (in-place)
I0228 21:05:22.470492 30547 net.cpp:150] Setting up conv13/relu
I0228 21:05:22.470506 30547 net.cpp:157] Top shape: 24 1024 10 10 (2457600)
I0228 21:05:22.470526 30547 net.cpp:165] Memory required for data: 3802607648
I0228 21:05:22.470531 30547 layer_factory.hpp:77] Creating layer conv13_conv13/relu_0_split
I0228 21:05:22.470541 30547 net.cpp:100] Creating Layer conv13_conv13/relu_0_split
I0228 21:05:22.470546 30547 net.cpp:434] conv13_conv13/relu_0_split <- conv13
I0228 21:05:22.470556 30547 net.cpp:408] conv13_conv13/relu_0_split -> conv13_conv13/relu_0_split_0
I0228 21:05:22.470583 30547 net.cpp:408] conv13_conv13/relu_0_split -> conv13_conv13/relu_0_split_1
I0228 21:05:22.470594 30547 net.cpp:408] conv13_conv13/relu_0_split -> conv13_conv13/relu_0_split_2
I0228 21:05:22.470602 30547 net.cpp:408] conv13_conv13/relu_0_split -> conv13_conv13/relu_0_split_3
I0228 21:05:22.470686 30547 net.cpp:150] Setting up conv13_conv13/relu_0_split
I0228 21:05:22.470695 30547 net.cpp:157] Top shape: 24 1024 10 10 (2457600)
I0228 21:05:22.470702 30547 net.cpp:157] Top shape: 24 1024 10 10 (2457600)
I0228 21:05:22.470707 30547 net.cpp:157] Top shape: 24 1024 10 10 (2457600)
I0228 21:05:22.470713 30547 net.cpp:157] Top shape: 24 1024 10 10 (2457600)
I0228 21:05:22.470717 30547 net.cpp:165] Memory required for data: 3841929248
I0228 21:05:22.470723 30547 layer_factory.hpp:77] Creating layer conv14_1
I0228 21:05:22.470736 30547 net.cpp:100] Creating Layer conv14_1
I0228 21:05:22.470742 30547 net.cpp:434] conv14_1 <- conv13_conv13/relu_0_split_0
I0228 21:05:22.470767 30547 net.cpp:408] conv14_1 -> conv14_1
I0228 21:05:22.477779 30547 net.cpp:150] Setting up conv14_1
I0228 21:05:22.477815 30547 net.cpp:157] Top shape: 24 256 10 10 (614400)
I0228 21:05:22.477820 30547 net.cpp:165] Memory required for data: 3844386848
I0228 21:05:22.477829 30547 layer_factory.hpp:77] Creating layer conv14_1/bn
I0228 21:05:22.477843 30547 net.cpp:100] Creating Layer conv14_1/bn
I0228 21:05:22.477849 30547 net.cpp:434] conv14_1/bn <- conv14_1
I0228 21:05:22.477872 30547 net.cpp:395] conv14_1/bn -> conv14_1 (in-place)
I0228 21:05:22.478166 30547 net.cpp:150] Setting up conv14_1/bn
I0228 21:05:22.478178 30547 net.cpp:157] Top shape: 24 256 10 10 (614400)
I0228 21:05:22.478183 30547 net.cpp:165] Memory required for data: 3846844448
I0228 21:05:22.478191 30547 layer_factory.hpp:77] Creating layer conv14_1/scale
I0228 21:05:22.478225 30547 net.cpp:100] Creating Layer conv14_1/scale
I0228 21:05:22.478235 30547 net.cpp:434] conv14_1/scale <- conv14_1
I0228 21:05:22.478241 30547 net.cpp:395] conv14_1/scale -> conv14_1 (in-place)
I0228 21:05:22.478297 30547 layer_factory.hpp:77] Creating layer conv14_1/scale
I0228 21:05:22.478440 30547 net.cpp:150] Setting up conv14_1/scale
I0228 21:05:22.478452 30547 net.cpp:157] Top shape: 24 256 10 10 (614400)
I0228 21:05:22.478456 30547 net.cpp:165] Memory required for data: 3849302048
I0228 21:05:22.478464 30547 layer_factory.hpp:77] Creating layer conv14_1/relu
I0228 21:05:22.478474 30547 net.cpp:100] Creating Layer conv14_1/relu
I0228 21:05:22.478480 30547 net.cpp:434] conv14_1/relu <- conv14_1
I0228 21:05:22.478487 30547 net.cpp:395] conv14_1/relu -> conv14_1 (in-place)
I0228 21:05:22.479034 30547 net.cpp:150] Setting up conv14_1/relu
I0228 21:05:22.479048 30547 net.cpp:157] Top shape: 24 256 10 10 (614400)
I0228 21:05:22.479068 30547 net.cpp:165] Memory required for data: 3851759648
I0228 21:05:22.479074 30547 layer_factory.hpp:77] Creating layer conv14_2
I0228 21:05:22.479096 30547 net.cpp:100] Creating Layer conv14_2
I0228 21:05:22.479101 30547 net.cpp:434] conv14_2 <- conv14_1
I0228 21:05:22.479110 30547 net.cpp:408] conv14_2 -> conv14_2
I0228 21:05:22.496719 30547 net.cpp:150] Setting up conv14_2
I0228 21:05:22.496765 30547 net.cpp:157] Top shape: 24 512 5 5 (307200)
I0228 21:05:22.496771 30547 net.cpp:165] Memory required for data: 3852988448
I0228 21:05:22.496786 30547 layer_factory.hpp:77] Creating layer conv14_2/bn
I0228 21:05:22.496814 30547 net.cpp:100] Creating Layer conv14_2/bn
I0228 21:05:22.496820 30547 net.cpp:434] conv14_2/bn <- conv14_2
I0228 21:05:22.496829 30547 net.cpp:395] conv14_2/bn -> conv14_2 (in-place)
I0228 21:05:22.497113 30547 net.cpp:150] Setting up conv14_2/bn
I0228 21:05:22.497141 30547 net.cpp:157] Top shape: 24 512 5 5 (307200)
I0228 21:05:22.497146 30547 net.cpp:165] Memory required for data: 3854217248
I0228 21:05:22.497155 30547 layer_factory.hpp:77] Creating layer conv14_2/scale
I0228 21:05:22.497166 30547 net.cpp:100] Creating Layer conv14_2/scale
I0228 21:05:22.497171 30547 net.cpp:434] conv14_2/scale <- conv14_2
I0228 21:05:22.497205 30547 net.cpp:395] conv14_2/scale -> conv14_2 (in-place)
I0228 21:05:22.497261 30547 layer_factory.hpp:77] Creating layer conv14_2/scale
I0228 21:05:22.497404 30547 net.cpp:150] Setting up conv14_2/scale
I0228 21:05:22.497416 30547 net.cpp:157] Top shape: 24 512 5 5 (307200)
I0228 21:05:22.497419 30547 net.cpp:165] Memory required for data: 3855446048
I0228 21:05:22.497427 30547 layer_factory.hpp:77] Creating layer conv14_2/relu
I0228 21:05:22.497437 30547 net.cpp:100] Creating Layer conv14_2/relu
I0228 21:05:22.497442 30547 net.cpp:434] conv14_2/relu <- conv14_2
I0228 21:05:22.497449 30547 net.cpp:395] conv14_2/relu -> conv14_2 (in-place)
I0228 21:05:22.498045 30547 net.cpp:150] Setting up conv14_2/relu
I0228 21:05:22.498060 30547 net.cpp:157] Top shape: 24 512 5 5 (307200)
I0228 21:05:22.498064 30547 net.cpp:165] Memory required for data: 3856674848
I0228 21:05:22.498070 30547 layer_factory.hpp:77] Creating layer conv14_2_conv14_2/relu_0_split
I0228 21:05:22.498078 30547 net.cpp:100] Creating Layer conv14_2_conv14_2/relu_0_split
I0228 21:05:22.498085 30547 net.cpp:434] conv14_2_conv14_2/relu_0_split <- conv14_2
I0228 21:05:22.498109 30547 net.cpp:408] conv14_2_conv14_2/relu_0_split -> conv14_2_conv14_2/relu_0_split_0
I0228 21:05:22.498122 30547 net.cpp:408] conv14_2_conv14_2/relu_0_split -> conv14_2_conv14_2/relu_0_split_1
I0228 21:05:22.498133 30547 net.cpp:408] conv14_2_conv14_2/relu_0_split -> conv14_2_conv14_2/relu_0_split_2
I0228 21:05:22.498143 30547 net.cpp:408] conv14_2_conv14_2/relu_0_split -> conv14_2_conv14_2/relu_0_split_3
I0228 21:05:22.498244 30547 net.cpp:150] Setting up conv14_2_conv14_2/relu_0_split
I0228 21:05:22.498252 30547 net.cpp:157] Top shape: 24 512 5 5 (307200)
I0228 21:05:22.498257 30547 net.cpp:157] Top shape: 24 512 5 5 (307200)
I0228 21:05:22.498265 30547 net.cpp:157] Top shape: 24 512 5 5 (307200)
I0228 21:05:22.498270 30547 net.cpp:157] Top shape: 24 512 5 5 (307200)
I0228 21:05:22.498273 30547 net.cpp:165] Memory required for data: 3861590048
I0228 21:05:22.498278 30547 layer_factory.hpp:77] Creating layer conv15_1
I0228 21:05:22.498292 30547 net.cpp:100] Creating Layer conv15_1
I0228 21:05:22.498299 30547 net.cpp:434] conv15_1 <- conv14_2_conv14_2/relu_0_split_0
I0228 21:05:22.498308 30547 net.cpp:408] conv15_1 -> conv15_1
I0228 21:05:22.507923 30547 net.cpp:150] Setting up conv15_1
I0228 21:05:22.507973 30547 net.cpp:157] Top shape: 24 128 5 5 (76800)
I0228 21:05:22.507978 30547 net.cpp:165] Memory required for data: 3861897248
I0228 21:05:22.507992 30547 layer_factory.hpp:77] Creating layer conv15_1/bn
I0228 21:05:22.508005 30547 net.cpp:100] Creating Layer conv15_1/bn
I0228 21:05:22.508029 30547 net.cpp:434] conv15_1/bn <- conv15_1
I0228 21:05:22.508040 30547 net.cpp:395] conv15_1/bn -> conv15_1 (in-place)
I0228 21:05:22.508319 30547 net.cpp:150] Setting up conv15_1/bn
I0228 21:05:22.508329 30547 net.cpp:157] Top shape: 24 128 5 5 (76800)
I0228 21:05:22.508407 30547 net.cpp:165] Memory required for data: 3862204448
I0228 21:05:22.508419 30547 layer_factory.hpp:77] Creating layer conv15_1/scale
I0228 21:05:22.508448 30547 net.cpp:100] Creating Layer conv15_1/scale
I0228 21:05:22.508457 30547 net.cpp:434] conv15_1/scale <- conv15_1
I0228 21:05:22.508466 30547 net.cpp:395] conv15_1/scale -> conv15_1 (in-place)
I0228 21:05:22.508527 30547 layer_factory.hpp:77] Creating layer conv15_1/scale
I0228 21:05:22.508689 30547 net.cpp:150] Setting up conv15_1/scale
I0228 21:05:22.508700 30547 net.cpp:157] Top shape: 24 128 5 5 (76800)
I0228 21:05:22.508705 30547 net.cpp:165] Memory required for data: 3862511648
I0228 21:05:22.508728 30547 layer_factory.hpp:77] Creating layer conv15_1/relu
I0228 21:05:22.508738 30547 net.cpp:100] Creating Layer conv15_1/relu
I0228 21:05:22.508744 30547 net.cpp:434] conv15_1/relu <- conv15_1
I0228 21:05:22.508754 30547 net.cpp:395] conv15_1/relu -> conv15_1 (in-place)
I0228 21:05:22.514861 30547 net.cpp:150] Setting up conv15_1/relu
I0228 21:05:22.514895 30547 net.cpp:157] Top shape: 24 128 5 5 (76800)
I0228 21:05:22.514930 30547 net.cpp:165] Memory required for data: 3862818848
I0228 21:05:22.514940 30547 layer_factory.hpp:77] Creating layer conv15_2
I0228 21:05:22.514977 30547 net.cpp:100] Creating Layer conv15_2
I0228 21:05:22.514988 30547 net.cpp:434] conv15_2 <- conv15_1
I0228 21:05:22.515002 30547 net.cpp:408] conv15_2 -> conv15_2
I0228 21:05:22.618206 30547 net.cpp:150] Setting up conv15_2
I0228 21:05:22.618247 30547 net.cpp:157] Top shape: 24 256 3 3 (55296)
I0228 21:05:22.618253 30547 net.cpp:165] Memory required for data: 3863040032
I0228 21:05:22.618279 30547 layer_factory.hpp:77] Creating layer conv15_2/bn
I0228 21:05:22.618294 30547 net.cpp:100] Creating Layer conv15_2/bn
I0228 21:05:22.618304 30547 net.cpp:434] conv15_2/bn <- conv15_2
I0228 21:05:22.618317 30547 net.cpp:395] conv15_2/bn -> conv15_2 (in-place)
I0228 21:05:22.618674 30547 net.cpp:150] Setting up conv15_2/bn
I0228 21:05:22.618687 30547 net.cpp:157] Top shape: 24 256 3 3 (55296)
I0228 21:05:22.618703 30547 net.cpp:165] Memory required for data: 3863261216
I0228 21:05:22.618716 30547 layer_factory.hpp:77] Creating layer conv15_2/scale
I0228 21:05:22.618731 30547 net.cpp:100] Creating Layer conv15_2/scale
I0228 21:05:22.618739 30547 net.cpp:434] conv15_2/scale <- conv15_2
I0228 21:05:22.618747 30547 net.cpp:395] conv15_2/scale -> conv15_2 (in-place)
I0228 21:05:22.618813 30547 layer_factory.hpp:77] Creating layer conv15_2/scale
I0228 21:05:22.618999 30547 net.cpp:150] Setting up conv15_2/scale
I0228 21:05:22.619011 30547 net.cpp:157] Top shape: 24 256 3 3 (55296)
I0228 21:05:22.619017 30547 net.cpp:165] Memory required for data: 3863482400
I0228 21:05:22.619027 30547 layer_factory.hpp:77] Creating layer conv15_2/relu
I0228 21:05:22.619056 30547 net.cpp:100] Creating Layer conv15_2/relu
I0228 21:05:22.619066 30547 net.cpp:434] conv15_2/relu <- conv15_2
I0228 21:05:22.619073 30547 net.cpp:395] conv15_2/relu -> conv15_2 (in-place)
I0228 21:05:22.619761 30547 net.cpp:150] Setting up conv15_2/relu
I0228 21:05:22.619789 30547 net.cpp:157] Top shape: 24 256 3 3 (55296)
I0228 21:05:22.619796 30547 net.cpp:165] Memory required for data: 3863703584
I0228 21:05:22.619803 30547 layer_factory.hpp:77] Creating layer conv15_2_conv15_2/relu_0_split
I0228 21:05:22.619828 30547 net.cpp:100] Creating Layer conv15_2_conv15_2/relu_0_split
I0228 21:05:22.619837 30547 net.cpp:434] conv15_2_conv15_2/relu_0_split <- conv15_2
I0228 21:05:22.619848 30547 net.cpp:408] conv15_2_conv15_2/relu_0_split -> conv15_2_conv15_2/relu_0_split_0
I0228 21:05:22.619863 30547 net.cpp:408] conv15_2_conv15_2/relu_0_split -> conv15_2_conv15_2/relu_0_split_1
I0228 21:05:22.619874 30547 net.cpp:408] conv15_2_conv15_2/relu_0_split -> conv15_2_conv15_2/relu_0_split_2
I0228 21:05:22.619884 30547 net.cpp:408] conv15_2_conv15_2/relu_0_split -> conv15_2_conv15_2/relu_0_split_3
I0228 21:05:22.619994 30547 net.cpp:150] Setting up conv15_2_conv15_2/relu_0_split
I0228 21:05:22.620007 30547 net.cpp:157] Top shape: 24 256 3 3 (55296)
I0228 21:05:22.620013 30547 net.cpp:157] Top shape: 24 256 3 3 (55296)
I0228 21:05:22.620020 30547 net.cpp:157] Top shape: 24 256 3 3 (55296)
I0228 21:05:22.620029 30547 net.cpp:157] Top shape: 24 256 3 3 (55296)
I0228 21:05:22.620034 30547 net.cpp:165] Memory required for data: 3864588320
I0228 21:05:22.620040 30547 layer_factory.hpp:77] Creating layer conv16_1
I0228 21:05:22.620056 30547 net.cpp:100] Creating Layer conv16_1
I0228 21:05:22.620065 30547 net.cpp:434] conv16_1 <- conv15_2_conv15_2/relu_0_split_0
I0228 21:05:22.620076 30547 net.cpp:408] conv16_1 -> conv16_1
I0228 21:05:22.627068 30547 net.cpp:150] Setting up conv16_1
I0228 21:05:22.627090 30547 net.cpp:157] Top shape: 24 128 3 3 (27648)
I0228 21:05:22.627099 30547 net.cpp:165] Memory required for data: 3864698912
I0228 21:05:22.627120 30547 layer_factory.hpp:77] Creating layer conv16_1/bn
I0228 21:05:22.627135 30547 net.cpp:100] Creating Layer conv16_1/bn
I0228 21:05:22.627146 30547 net.cpp:434] conv16_1/bn <- conv16_1
I0228 21:05:22.627156 30547 net.cpp:395] conv16_1/bn -> conv16_1 (in-place)
I0228 21:05:22.627475 30547 net.cpp:150] Setting up conv16_1/bn
I0228 21:05:22.627516 30547 net.cpp:157] Top shape: 24 128 3 3 (27648)
I0228 21:05:22.627521 30547 net.cpp:165] Memory required for data: 3864809504
I0228 21:05:22.627540 30547 layer_factory.hpp:77] Creating layer conv16_1/scale
I0228 21:05:22.627554 30547 net.cpp:100] Creating Layer conv16_1/scale
I0228 21:05:22.627562 30547 net.cpp:434] conv16_1/scale <- conv16_1
I0228 21:05:22.627571 30547 net.cpp:395] conv16_1/scale -> conv16_1 (in-place)
I0228 21:05:22.627635 30547 layer_factory.hpp:77] Creating layer conv16_1/scale
I0228 21:05:22.627807 30547 net.cpp:150] Setting up conv16_1/scale
I0228 21:05:22.627820 30547 net.cpp:157] Top shape: 24 128 3 3 (27648)
I0228 21:05:22.627825 30547 net.cpp:165] Memory required for data: 3864920096
I0228 21:05:22.627835 30547 layer_factory.hpp:77] Creating layer conv16_1/relu
I0228 21:05:22.627847 30547 net.cpp:100] Creating Layer conv16_1/relu
I0228 21:05:22.627853 30547 net.cpp:434] conv16_1/relu <- conv16_1
I0228 21:05:22.627861 30547 net.cpp:395] conv16_1/relu -> conv16_1 (in-place)
I0228 21:05:22.628583 30547 net.cpp:150] Setting up conv16_1/relu
I0228 21:05:22.628603 30547 net.cpp:157] Top shape: 24 128 3 3 (27648)
I0228 21:05:22.628609 30547 net.cpp:165] Memory required for data: 3865030688
I0228 21:05:22.628615 30547 layer_factory.hpp:77] Creating layer conv16_2
I0228 21:05:22.628631 30547 net.cpp:100] Creating Layer conv16_2
I0228 21:05:22.628638 30547 net.cpp:434] conv16_2 <- conv16_1
I0228 21:05:22.628649 30547 net.cpp:408] conv16_2 -> conv16_2
I0228 21:05:22.649930 30547 net.cpp:150] Setting up conv16_2
I0228 21:05:22.649966 30547 net.cpp:157] Top shape: 24 256 2 2 (24576)
I0228 21:05:22.649973 30547 net.cpp:165] Memory required for data: 3865128992
I0228 21:05:22.649986 30547 layer_factory.hpp:77] Creating layer conv16_2/bn
I0228 21:05:22.650002 30547 net.cpp:100] Creating Layer conv16_2/bn
I0228 21:05:22.650012 30547 net.cpp:434] conv16_2/bn <- conv16_2
I0228 21:05:22.650023 30547 net.cpp:395] conv16_2/bn -> conv16_2 (in-place)
I0228 21:05:22.650355 30547 net.cpp:150] Setting up conv16_2/bn
I0228 21:05:22.650367 30547 net.cpp:157] Top shape: 24 256 2 2 (24576)
I0228 21:05:22.650374 30547 net.cpp:165] Memory required for data: 3865227296
I0228 21:05:22.650385 30547 layer_factory.hpp:77] Creating layer conv16_2/scale
I0228 21:05:22.650409 30547 net.cpp:100] Creating Layer conv16_2/scale
I0228 21:05:22.650425 30547 net.cpp:434] conv16_2/scale <- conv16_2
I0228 21:05:22.650436 30547 net.cpp:395] conv16_2/scale -> conv16_2 (in-place)
I0228 21:05:22.650503 30547 layer_factory.hpp:77] Creating layer conv16_2/scale
I0228 21:05:22.650686 30547 net.cpp:150] Setting up conv16_2/scale
I0228 21:05:22.650712 30547 net.cpp:157] Top shape: 24 256 2 2 (24576)
I0228 21:05:22.650717 30547 net.cpp:165] Memory required for data: 3865325600
I0228 21:05:22.650727 30547 layer_factory.hpp:77] Creating layer conv16_2/relu
I0228 21:05:22.650735 30547 net.cpp:100] Creating Layer conv16_2/relu
I0228 21:05:22.650741 30547 net.cpp:434] conv16_2/relu <- conv16_2
I0228 21:05:22.650750 30547 net.cpp:395] conv16_2/relu -> conv16_2 (in-place)
I0228 21:05:22.656044 30547 net.cpp:150] Setting up conv16_2/relu
I0228 21:05:22.656080 30547 net.cpp:157] Top shape: 24 256 2 2 (24576)
I0228 21:05:22.656087 30547 net.cpp:165] Memory required for data: 3865423904
I0228 21:05:22.656095 30547 layer_factory.hpp:77] Creating layer conv16_2_conv16_2/relu_0_split
I0228 21:05:22.656106 30547 net.cpp:100] Creating Layer conv16_2_conv16_2/relu_0_split
I0228 21:05:22.656113 30547 net.cpp:434] conv16_2_conv16_2/relu_0_split <- conv16_2
I0228 21:05:22.656137 30547 net.cpp:408] conv16_2_conv16_2/relu_0_split -> conv16_2_conv16_2/relu_0_split_0
I0228 21:05:22.656152 30547 net.cpp:408] conv16_2_conv16_2/relu_0_split -> conv16_2_conv16_2/relu_0_split_1
I0228 21:05:22.656174 30547 net.cpp:408] conv16_2_conv16_2/relu_0_split -> conv16_2_conv16_2/relu_0_split_2
I0228 21:05:22.656191 30547 net.cpp:408] conv16_2_conv16_2/relu_0_split -> conv16_2_conv16_2/relu_0_split_3
I0228 21:05:22.656304 30547 net.cpp:150] Setting up conv16_2_conv16_2/relu_0_split
I0228 21:05:22.656335 30547 net.cpp:157] Top shape: 24 256 2 2 (24576)
I0228 21:05:22.656342 30547 net.cpp:157] Top shape: 24 256 2 2 (24576)
I0228 21:05:22.656373 30547 net.cpp:157] Top shape: 24 256 2 2 (24576)
I0228 21:05:22.656390 30547 net.cpp:157] Top shape: 24 256 2 2 (24576)
I0228 21:05:22.656396 30547 net.cpp:165] Memory required for data: 3865817120
I0228 21:05:22.656402 30547 layer_factory.hpp:77] Creating layer conv17_1
I0228 21:05:22.656419 30547 net.cpp:100] Creating Layer conv17_1
I0228 21:05:22.656426 30547 net.cpp:434] conv17_1 <- conv16_2_conv16_2/relu_0_split_0
I0228 21:05:22.656453 30547 net.cpp:408] conv17_1 -> conv17_1
I0228 21:05:22.670065 30547 net.cpp:150] Setting up conv17_1
I0228 21:05:22.670091 30547 net.cpp:157] Top shape: 24 64 2 2 (6144)
I0228 21:05:22.670099 30547 net.cpp:165] Memory required for data: 3865841696
I0228 21:05:22.670120 30547 layer_factory.hpp:77] Creating layer conv17_1/bn
I0228 21:05:22.670133 30547 net.cpp:100] Creating Layer conv17_1/bn
I0228 21:05:22.670140 30547 net.cpp:434] conv17_1/bn <- conv17_1
I0228 21:05:22.670162 30547 net.cpp:395] conv17_1/bn -> conv17_1 (in-place)
I0228 21:05:22.670522 30547 net.cpp:150] Setting up conv17_1/bn
I0228 21:05:22.670533 30547 net.cpp:157] Top shape: 24 64 2 2 (6144)
I0228 21:05:22.670549 30547 net.cpp:165] Memory required for data: 3865866272
I0228 21:05:22.670562 30547 layer_factory.hpp:77] Creating layer conv17_1/scale
I0228 21:05:22.670591 30547 net.cpp:100] Creating Layer conv17_1/scale
I0228 21:05:22.670599 30547 net.cpp:434] conv17_1/scale <- conv17_1
I0228 21:05:22.670608 30547 net.cpp:395] conv17_1/scale -> conv17_1 (in-place)
I0228 21:05:22.670673 30547 layer_factory.hpp:77] Creating layer conv17_1/scale
I0228 21:05:22.670869 30547 net.cpp:150] Setting up conv17_1/scale
I0228 21:05:22.670881 30547 net.cpp:157] Top shape: 24 64 2 2 (6144)
I0228 21:05:22.670886 30547 net.cpp:165] Memory required for data: 3865890848
I0228 21:05:22.670895 30547 layer_factory.hpp:77] Creating layer conv17_1/relu
I0228 21:05:22.670907 30547 net.cpp:100] Creating Layer conv17_1/relu
I0228 21:05:22.670913 30547 net.cpp:434] conv17_1/relu <- conv17_1
I0228 21:05:22.670924 30547 net.cpp:395] conv17_1/relu -> conv17_1 (in-place)
I0228 21:05:22.671610 30547 net.cpp:150] Setting up conv17_1/relu
I0228 21:05:22.671627 30547 net.cpp:157] Top shape: 24 64 2 2 (6144)
I0228 21:05:22.671633 30547 net.cpp:165] Memory required for data: 3865915424
I0228 21:05:22.671641 30547 layer_factory.hpp:77] Creating layer conv17_2
I0228 21:05:22.671656 30547 net.cpp:100] Creating Layer conv17_2
I0228 21:05:22.671666 30547 net.cpp:434] conv17_2 <- conv17_1
I0228 21:05:22.671677 30547 net.cpp:408] conv17_2 -> conv17_2
I0228 21:05:22.679036 30547 net.cpp:150] Setting up conv17_2
I0228 21:05:22.679075 30547 net.cpp:157] Top shape: 24 128 1 1 (3072)
I0228 21:05:22.679082 30547 net.cpp:165] Memory required for data: 3865927712
I0228 21:05:22.679092 30547 layer_factory.hpp:77] Creating layer conv17_2/bn
I0228 21:05:22.679114 30547 net.cpp:100] Creating Layer conv17_2/bn
I0228 21:05:22.679123 30547 net.cpp:434] conv17_2/bn <- conv17_2
I0228 21:05:22.679137 30547 net.cpp:395] conv17_2/bn -> conv17_2 (in-place)
I0228 21:05:22.679455 30547 net.cpp:150] Setting up conv17_2/bn
I0228 21:05:22.679467 30547 net.cpp:157] Top shape: 24 128 1 1 (3072)
I0228 21:05:22.679472 30547 net.cpp:165] Memory required for data: 3865940000
I0228 21:05:22.679492 30547 layer_factory.hpp:77] Creating layer conv17_2/scale
I0228 21:05:22.679502 30547 net.cpp:100] Creating Layer conv17_2/scale
I0228 21:05:22.679510 30547 net.cpp:434] conv17_2/scale <- conv17_2
I0228 21:05:22.679520 30547 net.cpp:395] conv17_2/scale -> conv17_2 (in-place)
I0228 21:05:22.679586 30547 layer_factory.hpp:77] Creating layer conv17_2/scale
I0228 21:05:22.679769 30547 net.cpp:150] Setting up conv17_2/scale
I0228 21:05:22.679780 30547 net.cpp:157] Top shape: 24 128 1 1 (3072)
I0228 21:05:22.679785 30547 net.cpp:165] Memory required for data: 3865952288
I0228 21:05:22.679795 30547 layer_factory.hpp:77] Creating layer conv17_2/relu
I0228 21:05:22.679823 30547 net.cpp:100] Creating Layer conv17_2/relu
I0228 21:05:22.679829 30547 net.cpp:434] conv17_2/relu <- conv17_2
I0228 21:05:22.679839 30547 net.cpp:395] conv17_2/relu -> conv17_2 (in-place)
I0228 21:05:22.680569 30547 net.cpp:150] Setting up conv17_2/relu
I0228 21:05:22.680600 30547 net.cpp:157] Top shape: 24 128 1 1 (3072)
I0228 21:05:22.680605 30547 net.cpp:165] Memory required for data: 3865964576
I0228 21:05:22.680613 30547 layer_factory.hpp:77] Creating layer conv17_2_conv17_2/relu_0_split
I0228 21:05:22.680625 30547 net.cpp:100] Creating Layer conv17_2_conv17_2/relu_0_split
I0228 21:05:22.680634 30547 net.cpp:434] conv17_2_conv17_2/relu_0_split <- conv17_2
I0228 21:05:22.680642 30547 net.cpp:408] conv17_2_conv17_2/relu_0_split -> conv17_2_conv17_2/relu_0_split_0
I0228 21:05:22.680683 30547 net.cpp:408] conv17_2_conv17_2/relu_0_split -> conv17_2_conv17_2/relu_0_split_1
I0228 21:05:22.680696 30547 net.cpp:408] conv17_2_conv17_2/relu_0_split -> conv17_2_conv17_2/relu_0_split_2
I0228 21:05:22.680796 30547 net.cpp:150] Setting up conv17_2_conv17_2/relu_0_split
I0228 21:05:22.680807 30547 net.cpp:157] Top shape: 24 128 1 1 (3072)
I0228 21:05:22.680814 30547 net.cpp:157] Top shape: 24 128 1 1 (3072)
I0228 21:05:22.680824 30547 net.cpp:157] Top shape: 24 128 1 1 (3072)
I0228 21:05:22.680829 30547 net.cpp:165] Memory required for data: 3866001440
I0228 21:05:22.680833 30547 layer_factory.hpp:77] Creating layer conv11_mbox_loc
I0228 21:05:22.680851 30547 net.cpp:100] Creating Layer conv11_mbox_loc
I0228 21:05:22.680860 30547 net.cpp:434] conv11_mbox_loc <- conv11_conv11/relu_0_split_1
I0228 21:05:22.680871 30547 net.cpp:408] conv11_mbox_loc -> conv11_mbox_loc
I0228 21:05:22.684016 30547 net.cpp:150] Setting up conv11_mbox_loc
I0228 21:05:22.684036 30547 net.cpp:157] Top shape: 24 12 19 19 (103968)
I0228 21:05:22.684044 30547 net.cpp:165] Memory required for data: 3866417312
I0228 21:05:22.684056 30547 layer_factory.hpp:77] Creating layer conv11_mbox_loc_perm
I0228 21:05:22.684069 30547 net.cpp:100] Creating Layer conv11_mbox_loc_perm
I0228 21:05:22.684078 30547 net.cpp:434] conv11_mbox_loc_perm <- conv11_mbox_loc
I0228 21:05:22.684090 30547 net.cpp:408] conv11_mbox_loc_perm -> conv11_mbox_loc_perm
I0228 21:05:22.684255 30547 net.cpp:150] Setting up conv11_mbox_loc_perm
I0228 21:05:22.684267 30547 net.cpp:157] Top shape: 24 19 19 12 (103968)
I0228 21:05:22.684273 30547 net.cpp:165] Memory required for data: 3866833184
I0228 21:05:22.684279 30547 layer_factory.hpp:77] Creating layer conv11_mbox_loc_flat
I0228 21:05:22.684289 30547 net.cpp:100] Creating Layer conv11_mbox_loc_flat
I0228 21:05:22.684305 30547 net.cpp:434] conv11_mbox_loc_flat <- conv11_mbox_loc_perm
I0228 21:05:22.684327 30547 net.cpp:408] conv11_mbox_loc_flat -> conv11_mbox_loc_flat
I0228 21:05:22.684399 30547 net.cpp:150] Setting up conv11_mbox_loc_flat
I0228 21:05:22.684411 30547 net.cpp:157] Top shape: 24 4332 (103968)
I0228 21:05:22.684417 30547 net.cpp:165] Memory required for data: 3867249056
I0228 21:05:22.684422 30547 layer_factory.hpp:77] Creating layer conv11_mbox_conf_new
I0228 21:05:22.684438 30547 net.cpp:100] Creating Layer conv11_mbox_conf_new
I0228 21:05:22.684445 30547 net.cpp:434] conv11_mbox_conf_new <- conv11_conv11/relu_0_split_2
I0228 21:05:22.684458 30547 net.cpp:408] conv11_mbox_conf_new -> conv11_mbox_conf
I0228 21:05:22.687649 30547 net.cpp:150] Setting up conv11_mbox_conf_new
I0228 21:05:22.687670 30547 net.cpp:157] Top shape: 24 12 19 19 (103968)
I0228 21:05:22.687677 30547 net.cpp:165] Memory required for data: 3867664928
I0228 21:05:22.687697 30547 layer_factory.hpp:77] Creating layer conv11_mbox_conf_perm
I0228 21:05:22.687712 30547 net.cpp:100] Creating Layer conv11_mbox_conf_perm
I0228 21:05:22.687721 30547 net.cpp:434] conv11_mbox_conf_perm <- conv11_mbox_conf
I0228 21:05:22.687731 30547 net.cpp:408] conv11_mbox_conf_perm -> conv11_mbox_conf_perm
I0228 21:05:22.687889 30547 net.cpp:150] Setting up conv11_mbox_conf_perm
I0228 21:05:22.687899 30547 net.cpp:157] Top shape: 24 19 19 12 (103968)
I0228 21:05:22.687922 30547 net.cpp:165] Memory required for data: 3868080800
I0228 21:05:22.687927 30547 layer_factory.hpp:77] Creating layer conv11_mbox_conf_flat
I0228 21:05:22.687937 30547 net.cpp:100] Creating Layer conv11_mbox_conf_flat
I0228 21:05:22.687944 30547 net.cpp:434] conv11_mbox_conf_flat <- conv11_mbox_conf_perm
I0228 21:05:22.687957 30547 net.cpp:408] conv11_mbox_conf_flat -> conv11_mbox_conf_flat
I0228 21:05:22.688009 30547 net.cpp:150] Setting up conv11_mbox_conf_flat
I0228 21:05:22.688019 30547 net.cpp:157] Top shape: 24 4332 (103968)
I0228 21:05:22.688024 30547 net.cpp:165] Memory required for data: 3868496672
I0228 21:05:22.688030 30547 layer_factory.hpp:77] Creating layer conv11_mbox_priorbox
I0228 21:05:22.688052 30547 net.cpp:100] Creating Layer conv11_mbox_priorbox
I0228 21:05:22.688061 30547 net.cpp:434] conv11_mbox_priorbox <- conv11_conv11/relu_0_split_3
I0228 21:05:22.688074 30547 net.cpp:434] conv11_mbox_priorbox <- data_data_0_split_1
I0228 21:05:22.688086 30547 net.cpp:408] conv11_mbox_priorbox -> conv11_mbox_priorbox
I0228 21:05:22.688128 30547 net.cpp:150] Setting up conv11_mbox_priorbox
I0228 21:05:22.688138 30547 net.cpp:157] Top shape: 1 2 4332 (8664)
I0228 21:05:22.688143 30547 net.cpp:165] Memory required for data: 3868531328
I0228 21:05:22.688150 30547 layer_factory.hpp:77] Creating layer conv13_mbox_loc
I0228 21:05:22.688164 30547 net.cpp:100] Creating Layer conv13_mbox_loc
I0228 21:05:22.688172 30547 net.cpp:434] conv13_mbox_loc <- conv13_conv13/relu_0_split_1
I0228 21:05:22.688182 30547 net.cpp:408] conv13_mbox_loc -> conv13_mbox_loc
I0228 21:05:22.691573 30547 net.cpp:150] Setting up conv13_mbox_loc
I0228 21:05:22.691593 30547 net.cpp:157] Top shape: 24 24 10 10 (57600)
I0228 21:05:22.691599 30547 net.cpp:165] Memory required for data: 3868761728
I0228 21:05:22.691618 30547 layer_factory.hpp:77] Creating layer conv13_mbox_loc_perm
I0228 21:05:22.691633 30547 net.cpp:100] Creating Layer conv13_mbox_loc_perm
I0228 21:05:22.691642 30547 net.cpp:434] conv13_mbox_loc_perm <- conv13_mbox_loc
I0228 21:05:22.691650 30547 net.cpp:408] conv13_mbox_loc_perm -> conv13_mbox_loc_perm
I0228 21:05:22.691812 30547 net.cpp:150] Setting up conv13_mbox_loc_perm
I0228 21:05:22.691823 30547 net.cpp:157] Top shape: 24 10 10 24 (57600)
I0228 21:05:22.691828 30547 net.cpp:165] Memory required for data: 3868992128
I0228 21:05:22.691833 30547 layer_factory.hpp:77] Creating layer conv13_mbox_loc_flat
I0228 21:05:22.691843 30547 net.cpp:100] Creating Layer conv13_mbox_loc_flat
I0228 21:05:22.691851 30547 net.cpp:434] conv13_mbox_loc_flat <- conv13_mbox_loc_perm
I0228 21:05:22.691861 30547 net.cpp:408] conv13_mbox_loc_flat -> conv13_mbox_loc_flat
I0228 21:05:22.691898 30547 net.cpp:150] Setting up conv13_mbox_loc_flat
I0228 21:05:22.691907 30547 net.cpp:157] Top shape: 24 2400 (57600)
I0228 21:05:22.691913 30547 net.cpp:165] Memory required for data: 3869222528
I0228 21:05:22.691920 30547 layer_factory.hpp:77] Creating layer conv13_mbox_conf_new
I0228 21:05:22.691934 30547 net.cpp:100] Creating Layer conv13_mbox_conf_new
I0228 21:05:22.691942 30547 net.cpp:434] conv13_mbox_conf_new <- conv13_conv13/relu_0_split_2
I0228 21:05:22.691963 30547 net.cpp:408] conv13_mbox_conf_new -> conv13_mbox_conf
I0228 21:05:22.695268 30547 net.cpp:150] Setting up conv13_mbox_conf_new
I0228 21:05:22.695287 30547 net.cpp:157] Top shape: 24 24 10 10 (57600)
I0228 21:05:22.695299 30547 net.cpp:165] Memory required for data: 3869452928
I0228 21:05:22.695310 30547 layer_factory.hpp:77] Creating layer conv13_mbox_conf_perm
I0228 21:05:22.695322 30547 net.cpp:100] Creating Layer conv13_mbox_conf_perm
I0228 21:05:22.695328 30547 net.cpp:434] conv13_mbox_conf_perm <- conv13_mbox_conf
I0228 21:05:22.695348 30547 net.cpp:408] conv13_mbox_conf_perm -> conv13_mbox_conf_perm
I0228 21:05:22.695507 30547 net.cpp:150] Setting up conv13_mbox_conf_perm
I0228 21:05:22.695518 30547 net.cpp:157] Top shape: 24 10 10 24 (57600)
I0228 21:05:22.695523 30547 net.cpp:165] Memory required for data: 3869683328
I0228 21:05:22.695542 30547 layer_factory.hpp:77] Creating layer conv13_mbox_conf_flat
I0228 21:05:22.695554 30547 net.cpp:100] Creating Layer conv13_mbox_conf_flat
I0228 21:05:22.695559 30547 net.cpp:434] conv13_mbox_conf_flat <- conv13_mbox_conf_perm
I0228 21:05:22.695567 30547 net.cpp:408] conv13_mbox_conf_flat -> conv13_mbox_conf_flat
I0228 21:05:22.695605 30547 net.cpp:150] Setting up conv13_mbox_conf_flat
I0228 21:05:22.695616 30547 net.cpp:157] Top shape: 24 2400 (57600)
I0228 21:05:22.695621 30547 net.cpp:165] Memory required for data: 3869913728
I0228 21:05:22.695626 30547 layer_factory.hpp:77] Creating layer conv13_mbox_priorbox
I0228 21:05:22.695636 30547 net.cpp:100] Creating Layer conv13_mbox_priorbox
I0228 21:05:22.695644 30547 net.cpp:434] conv13_mbox_priorbox <- conv13_conv13/relu_0_split_3
I0228 21:05:22.695652 30547 net.cpp:434] conv13_mbox_priorbox <- data_data_0_split_2
I0228 21:05:22.695663 30547 net.cpp:408] conv13_mbox_priorbox -> conv13_mbox_priorbox
I0228 21:05:22.695700 30547 net.cpp:150] Setting up conv13_mbox_priorbox
I0228 21:05:22.695711 30547 net.cpp:157] Top shape: 1 2 2400 (4800)
I0228 21:05:22.695715 30547 net.cpp:165] Memory required for data: 3869932928
I0228 21:05:22.695720 30547 layer_factory.hpp:77] Creating layer conv14_2_mbox_loc
I0228 21:05:22.695735 30547 net.cpp:100] Creating Layer conv14_2_mbox_loc
I0228 21:05:22.695746 30547 net.cpp:434] conv14_2_mbox_loc <- conv14_2_conv14_2/relu_0_split_1
I0228 21:05:22.695755 30547 net.cpp:408] conv14_2_mbox_loc -> conv14_2_mbox_loc
I0228 21:05:22.698882 30547 net.cpp:150] Setting up conv14_2_mbox_loc
I0228 21:05:22.698901 30547 net.cpp:157] Top shape: 24 24 5 5 (14400)
I0228 21:05:22.698911 30547 net.cpp:165] Memory required for data: 3869990528
I0228 21:05:22.698925 30547 layer_factory.hpp:77] Creating layer conv14_2_mbox_loc_perm
I0228 21:05:22.698936 30547 net.cpp:100] Creating Layer conv14_2_mbox_loc_perm
I0228 21:05:22.698945 30547 net.cpp:434] conv14_2_mbox_loc_perm <- conv14_2_mbox_loc
I0228 21:05:22.698956 30547 net.cpp:408] conv14_2_mbox_loc_perm -> conv14_2_mbox_loc_perm
I0228 21:05:22.699118 30547 net.cpp:150] Setting up conv14_2_mbox_loc_perm
I0228 21:05:22.699128 30547 net.cpp:157] Top shape: 24 5 5 24 (14400)
I0228 21:05:22.699133 30547 net.cpp:165] Memory required for data: 3870048128
I0228 21:05:22.699141 30547 layer_factory.hpp:77] Creating layer conv14_2_mbox_loc_flat
I0228 21:05:22.699151 30547 net.cpp:100] Creating Layer conv14_2_mbox_loc_flat
I0228 21:05:22.699157 30547 net.cpp:434] conv14_2_mbox_loc_flat <- conv14_2_mbox_loc_perm
I0228 21:05:22.699168 30547 net.cpp:408] conv14_2_mbox_loc_flat -> conv14_2_mbox_loc_flat
I0228 21:05:22.699203 30547 net.cpp:150] Setting up conv14_2_mbox_loc_flat
I0228 21:05:22.699213 30547 net.cpp:157] Top shape: 24 600 (14400)
I0228 21:05:22.699218 30547 net.cpp:165] Memory required for data: 3870105728
I0228 21:05:22.699223 30547 layer_factory.hpp:77] Creating layer conv14_2_mbox_conf_new
I0228 21:05:22.699242 30547 net.cpp:100] Creating Layer conv14_2_mbox_conf_new
I0228 21:05:22.699250 30547 net.cpp:434] conv14_2_mbox_conf_new <- conv14_2_conv14_2/relu_0_split_2
I0228 21:05:22.699259 30547 net.cpp:408] conv14_2_mbox_conf_new -> conv14_2_mbox_conf
I0228 21:05:22.702353 30547 net.cpp:150] Setting up conv14_2_mbox_conf_new
I0228 21:05:22.702375 30547 net.cpp:157] Top shape: 24 24 5 5 (14400)
I0228 21:05:22.702381 30547 net.cpp:165] Memory required for data: 3870163328
I0228 21:05:22.702399 30547 layer_factory.hpp:77] Creating layer conv14_2_mbox_conf_perm
I0228 21:05:22.702409 30547 net.cpp:100] Creating Layer conv14_2_mbox_conf_perm
I0228 21:05:22.702416 30547 net.cpp:434] conv14_2_mbox_conf_perm <- conv14_2_mbox_conf
I0228 21:05:22.702435 30547 net.cpp:408] conv14_2_mbox_conf_perm -> conv14_2_mbox_conf_perm
I0228 21:05:22.702591 30547 net.cpp:150] Setting up conv14_2_mbox_conf_perm
I0228 21:05:22.702603 30547 net.cpp:157] Top shape: 24 5 5 24 (14400)
I0228 21:05:22.702610 30547 net.cpp:165] Memory required for data: 3870220928
I0228 21:05:22.702615 30547 layer_factory.hpp:77] Creating layer conv14_2_mbox_conf_flat
I0228 21:05:22.702638 30547 net.cpp:100] Creating Layer conv14_2_mbox_conf_flat
I0228 21:05:22.702644 30547 net.cpp:434] conv14_2_mbox_conf_flat <- conv14_2_mbox_conf_perm
I0228 21:05:22.702656 30547 net.cpp:408] conv14_2_mbox_conf_flat -> conv14_2_mbox_conf_flat
I0228 21:05:22.702702 30547 net.cpp:150] Setting up conv14_2_mbox_conf_flat
I0228 21:05:22.702710 30547 net.cpp:157] Top shape: 24 600 (14400)
I0228 21:05:22.702715 30547 net.cpp:165] Memory required for data: 3870278528
I0228 21:05:22.702721 30547 layer_factory.hpp:77] Creating layer conv14_2_mbox_priorbox
I0228 21:05:22.702744 30547 net.cpp:100] Creating Layer conv14_2_mbox_priorbox
I0228 21:05:22.702752 30547 net.cpp:434] conv14_2_mbox_priorbox <- conv14_2_conv14_2/relu_0_split_3
I0228 21:05:22.702760 30547 net.cpp:434] conv14_2_mbox_priorbox <- data_data_0_split_3
I0228 21:05:22.702775 30547 net.cpp:408] conv14_2_mbox_priorbox -> conv14_2_mbox_priorbox
I0228 21:05:22.702812 30547 net.cpp:150] Setting up conv14_2_mbox_priorbox
I0228 21:05:22.702822 30547 net.cpp:157] Top shape: 1 2 600 (1200)
I0228 21:05:22.702826 30547 net.cpp:165] Memory required for data: 3870283328
I0228 21:05:22.702834 30547 layer_factory.hpp:77] Creating layer conv15_2_mbox_loc
I0228 21:05:22.702849 30547 net.cpp:100] Creating Layer conv15_2_mbox_loc
I0228 21:05:22.702857 30547 net.cpp:434] conv15_2_mbox_loc <- conv15_2_conv15_2/relu_0_split_1
I0228 21:05:22.702865 30547 net.cpp:408] conv15_2_mbox_loc -> conv15_2_mbox_loc
I0228 21:05:22.705834 30547 net.cpp:150] Setting up conv15_2_mbox_loc
I0228 21:05:22.705852 30547 net.cpp:157] Top shape: 24 24 3 3 (5184)
I0228 21:05:22.705858 30547 net.cpp:165] Memory required for data: 3870304064
I0228 21:05:22.705879 30547 layer_factory.hpp:77] Creating layer conv15_2_mbox_loc_perm
I0228 21:05:22.705891 30547 net.cpp:100] Creating Layer conv15_2_mbox_loc_perm
I0228 21:05:22.705898 30547 net.cpp:434] conv15_2_mbox_loc_perm <- conv15_2_mbox_loc
I0228 21:05:22.705924 30547 net.cpp:408] conv15_2_mbox_loc_perm -> conv15_2_mbox_loc_perm
I0228 21:05:22.706073 30547 net.cpp:150] Setting up conv15_2_mbox_loc_perm
I0228 21:05:22.706085 30547 net.cpp:157] Top shape: 24 3 3 24 (5184)
I0228 21:05:22.706090 30547 net.cpp:165] Memory required for data: 3870324800
I0228 21:05:22.706095 30547 layer_factory.hpp:77] Creating layer conv15_2_mbox_loc_flat
I0228 21:05:22.706102 30547 net.cpp:100] Creating Layer conv15_2_mbox_loc_flat
I0228 21:05:22.706111 30547 net.cpp:434] conv15_2_mbox_loc_flat <- conv15_2_mbox_loc_perm
I0228 21:05:22.706120 30547 net.cpp:408] conv15_2_mbox_loc_flat -> conv15_2_mbox_loc_flat
I0228 21:05:22.706154 30547 net.cpp:150] Setting up conv15_2_mbox_loc_flat
I0228 21:05:22.706163 30547 net.cpp:157] Top shape: 24 216 (5184)
I0228 21:05:22.706168 30547 net.cpp:165] Memory required for data: 3870345536
I0228 21:05:22.706173 30547 layer_factory.hpp:77] Creating layer conv15_2_mbox_conf_new
I0228 21:05:22.706190 30547 net.cpp:100] Creating Layer conv15_2_mbox_conf_new
I0228 21:05:22.706198 30547 net.cpp:434] conv15_2_mbox_conf_new <- conv15_2_conv15_2/relu_0_split_2
I0228 21:05:22.706209 30547 net.cpp:408] conv15_2_mbox_conf_new -> conv15_2_mbox_conf
I0228 21:05:22.709738 30547 net.cpp:150] Setting up conv15_2_mbox_conf_new
I0228 21:05:22.709756 30547 net.cpp:157] Top shape: 24 24 3 3 (5184)
I0228 21:05:22.709763 30547 net.cpp:165] Memory required for data: 3870366272
I0228 21:05:22.709772 30547 layer_factory.hpp:77] Creating layer conv15_2_mbox_conf_perm
I0228 21:05:22.709782 30547 net.cpp:100] Creating Layer conv15_2_mbox_conf_perm
I0228 21:05:22.709789 30547 net.cpp:434] conv15_2_mbox_conf_perm <- conv15_2_mbox_conf
I0228 21:05:22.709800 30547 net.cpp:408] conv15_2_mbox_conf_perm -> conv15_2_mbox_conf_perm
I0228 21:05:22.709952 30547 net.cpp:150] Setting up conv15_2_mbox_conf_perm
I0228 21:05:22.709962 30547 net.cpp:157] Top shape: 24 3 3 24 (5184)
I0228 21:05:22.709967 30547 net.cpp:165] Memory required for data: 3870387008
I0228 21:05:22.709972 30547 layer_factory.hpp:77] Creating layer conv15_2_mbox_conf_flat
I0228 21:05:22.709996 30547 net.cpp:100] Creating Layer conv15_2_mbox_conf_flat
I0228 21:05:22.710003 30547 net.cpp:434] conv15_2_mbox_conf_flat <- conv15_2_mbox_conf_perm
I0228 21:05:22.710012 30547 net.cpp:408] conv15_2_mbox_conf_flat -> conv15_2_mbox_conf_flat
I0228 21:05:22.710052 30547 net.cpp:150] Setting up conv15_2_mbox_conf_flat
I0228 21:05:22.710062 30547 net.cpp:157] Top shape: 24 216 (5184)
I0228 21:05:22.710065 30547 net.cpp:165] Memory required for data: 3870407744
I0228 21:05:22.710070 30547 layer_factory.hpp:77] Creating layer conv15_2_mbox_priorbox
I0228 21:05:22.710079 30547 net.cpp:100] Creating Layer conv15_2_mbox_priorbox
I0228 21:05:22.710088 30547 net.cpp:434] conv15_2_mbox_priorbox <- conv15_2_conv15_2/relu_0_split_3
I0228 21:05:22.710096 30547 net.cpp:434] conv15_2_mbox_priorbox <- data_data_0_split_4
I0228 21:05:22.710108 30547 net.cpp:408] conv15_2_mbox_priorbox -> conv15_2_mbox_priorbox
I0228 21:05:22.710150 30547 net.cpp:150] Setting up conv15_2_mbox_priorbox
I0228 21:05:22.710160 30547 net.cpp:157] Top shape: 1 2 216 (432)
I0228 21:05:22.710165 30547 net.cpp:165] Memory required for data: 3870409472
I0228 21:05:22.710170 30547 layer_factory.hpp:77] Creating layer conv16_2_mbox_loc
I0228 21:05:22.710183 30547 net.cpp:100] Creating Layer conv16_2_mbox_loc
I0228 21:05:22.710191 30547 net.cpp:434] conv16_2_mbox_loc <- conv16_2_conv16_2/relu_0_split_1
I0228 21:05:22.710201 30547 net.cpp:408] conv16_2_mbox_loc -> conv16_2_mbox_loc
I0228 21:05:22.713163 30547 net.cpp:150] Setting up conv16_2_mbox_loc
I0228 21:05:22.713182 30547 net.cpp:157] Top shape: 24 24 2 2 (2304)
I0228 21:05:22.713196 30547 net.cpp:165] Memory required for data: 3870418688
I0228 21:05:22.713209 30547 layer_factory.hpp:77] Creating layer conv16_2_mbox_loc_perm
I0228 21:05:22.713222 30547 net.cpp:100] Creating Layer conv16_2_mbox_loc_perm
I0228 21:05:22.713230 30547 net.cpp:434] conv16_2_mbox_loc_perm <- conv16_2_mbox_loc
I0228 21:05:22.713239 30547 net.cpp:408] conv16_2_mbox_loc_perm -> conv16_2_mbox_loc_perm
I0228 21:05:22.713390 30547 net.cpp:150] Setting up conv16_2_mbox_loc_perm
I0228 21:05:22.713400 30547 net.cpp:157] Top shape: 24 2 2 24 (2304)
I0228 21:05:22.713405 30547 net.cpp:165] Memory required for data: 3870427904
I0228 21:05:22.713412 30547 layer_factory.hpp:77] Creating layer conv16_2_mbox_loc_flat
I0228 21:05:22.713419 30547 net.cpp:100] Creating Layer conv16_2_mbox_loc_flat
I0228 21:05:22.713426 30547 net.cpp:434] conv16_2_mbox_loc_flat <- conv16_2_mbox_loc_perm
I0228 21:05:22.713436 30547 net.cpp:408] conv16_2_mbox_loc_flat -> conv16_2_mbox_loc_flat
I0228 21:05:22.713474 30547 net.cpp:150] Setting up conv16_2_mbox_loc_flat
I0228 21:05:22.713484 30547 net.cpp:157] Top shape: 24 96 (2304)
I0228 21:05:22.713487 30547 net.cpp:165] Memory required for data: 3870437120
I0228 21:05:22.713501 30547 layer_factory.hpp:77] Creating layer conv16_2_mbox_conf_new
I0228 21:05:22.713516 30547 net.cpp:100] Creating Layer conv16_2_mbox_conf_new
I0228 21:05:22.713523 30547 net.cpp:434] conv16_2_mbox_conf_new <- conv16_2_conv16_2/relu_0_split_2
I0228 21:05:22.713534 30547 net.cpp:408] conv16_2_mbox_conf_new -> conv16_2_mbox_conf
I0228 21:05:22.716460 30547 net.cpp:150] Setting up conv16_2_mbox_conf_new
I0228 21:05:22.716480 30547 net.cpp:157] Top shape: 24 24 2 2 (2304)
I0228 21:05:22.716485 30547 net.cpp:165] Memory required for data: 3870446336
I0228 21:05:22.716495 30547 layer_factory.hpp:77] Creating layer conv16_2_mbox_conf_perm
I0228 21:05:22.716506 30547 net.cpp:100] Creating Layer conv16_2_mbox_conf_perm
I0228 21:05:22.716516 30547 net.cpp:434] conv16_2_mbox_conf_perm <- conv16_2_mbox_conf
I0228 21:05:22.716524 30547 net.cpp:408] conv16_2_mbox_conf_perm -> conv16_2_mbox_conf_perm
I0228 21:05:22.716670 30547 net.cpp:150] Setting up conv16_2_mbox_conf_perm
I0228 21:05:22.716680 30547 net.cpp:157] Top shape: 24 2 2 24 (2304)
I0228 21:05:22.716687 30547 net.cpp:165] Memory required for data: 3870455552
I0228 21:05:22.716692 30547 layer_factory.hpp:77] Creating layer conv16_2_mbox_conf_flat
I0228 21:05:22.716703 30547 net.cpp:100] Creating Layer conv16_2_mbox_conf_flat
I0228 21:05:22.716723 30547 net.cpp:434] conv16_2_mbox_conf_flat <- conv16_2_mbox_conf_perm
I0228 21:05:22.716732 30547 net.cpp:408] conv16_2_mbox_conf_flat -> conv16_2_mbox_conf_flat
I0228 21:05:22.716770 30547 net.cpp:150] Setting up conv16_2_mbox_conf_flat
I0228 21:05:22.716790 30547 net.cpp:157] Top shape: 24 96 (2304)
I0228 21:05:22.716794 30547 net.cpp:165] Memory required for data: 3870464768
I0228 21:05:22.716800 30547 layer_factory.hpp:77] Creating layer conv16_2_mbox_priorbox
I0228 21:05:22.716823 30547 net.cpp:100] Creating Layer conv16_2_mbox_priorbox
I0228 21:05:22.716831 30547 net.cpp:434] conv16_2_mbox_priorbox <- conv16_2_conv16_2/relu_0_split_3
I0228 21:05:22.716838 30547 net.cpp:434] conv16_2_mbox_priorbox <- data_data_0_split_5
I0228 21:05:22.716846 30547 net.cpp:408] conv16_2_mbox_priorbox -> conv16_2_mbox_priorbox
I0228 21:05:22.716884 30547 net.cpp:150] Setting up conv16_2_mbox_priorbox
I0228 21:05:22.716892 30547 net.cpp:157] Top shape: 1 2 96 (192)
I0228 21:05:22.716897 30547 net.cpp:165] Memory required for data: 3870465536
I0228 21:05:22.716903 30547 layer_factory.hpp:77] Creating layer conv17_2_mbox_loc
I0228 21:05:22.716915 30547 net.cpp:100] Creating Layer conv17_2_mbox_loc
I0228 21:05:22.716922 30547 net.cpp:434] conv17_2_mbox_loc <- conv17_2_conv17_2/relu_0_split_0
I0228 21:05:22.716931 30547 net.cpp:408] conv17_2_mbox_loc -> conv17_2_mbox_loc
I0228 21:05:22.719823 30547 net.cpp:150] Setting up conv17_2_mbox_loc
I0228 21:05:22.719841 30547 net.cpp:157] Top shape: 24 24 1 1 (576)
I0228 21:05:22.719846 30547 net.cpp:165] Memory required for data: 3870467840
I0228 21:05:22.719866 30547 layer_factory.hpp:77] Creating layer conv17_2_mbox_loc_perm
I0228 21:05:22.719877 30547 net.cpp:100] Creating Layer conv17_2_mbox_loc_perm
I0228 21:05:22.719882 30547 net.cpp:434] conv17_2_mbox_loc_perm <- conv17_2_mbox_loc
I0228 21:05:22.719894 30547 net.cpp:408] conv17_2_mbox_loc_perm -> conv17_2_mbox_loc_perm
I0228 21:05:22.720043 30547 net.cpp:150] Setting up conv17_2_mbox_loc_perm
I0228 21:05:22.720054 30547 net.cpp:157] Top shape: 24 1 1 24 (576)
I0228 21:05:22.720059 30547 net.cpp:165] Memory required for data: 3870470144
I0228 21:05:22.720064 30547 layer_factory.hpp:77] Creating layer conv17_2_mbox_loc_flat
I0228 21:05:22.720074 30547 net.cpp:100] Creating Layer conv17_2_mbox_loc_flat
I0228 21:05:22.720082 30547 net.cpp:434] conv17_2_mbox_loc_flat <- conv17_2_mbox_loc_perm
I0228 21:05:22.720089 30547 net.cpp:408] conv17_2_mbox_loc_flat -> conv17_2_mbox_loc_flat
I0228 21:05:22.720122 30547 net.cpp:150] Setting up conv17_2_mbox_loc_flat
I0228 21:05:22.720130 30547 net.cpp:157] Top shape: 24 24 (576)
I0228 21:05:22.720136 30547 net.cpp:165] Memory required for data: 3870472448
I0228 21:05:22.720140 30547 layer_factory.hpp:77] Creating layer conv17_2_mbox_conf_new
I0228 21:05:22.720152 30547 net.cpp:100] Creating Layer conv17_2_mbox_conf_new
I0228 21:05:22.720160 30547 net.cpp:434] conv17_2_mbox_conf_new <- conv17_2_conv17_2/relu_0_split_1
I0228 21:05:22.720170 30547 net.cpp:408] conv17_2_mbox_conf_new -> conv17_2_mbox_conf
I0228 21:05:22.722941 30547 net.cpp:150] Setting up conv17_2_mbox_conf_new
I0228 21:05:22.722959 30547 net.cpp:157] Top shape: 24 24 1 1 (576)
I0228 21:05:22.722964 30547 net.cpp:165] Memory required for data: 3870474752
I0228 21:05:22.722975 30547 layer_factory.hpp:77] Creating layer conv17_2_mbox_conf_perm
I0228 21:05:22.722996 30547 net.cpp:100] Creating Layer conv17_2_mbox_conf_perm
I0228 21:05:22.723004 30547 net.cpp:434] conv17_2_mbox_conf_perm <- conv17_2_mbox_conf
I0228 21:05:22.723012 30547 net.cpp:408] conv17_2_mbox_conf_perm -> conv17_2_mbox_conf_perm
I0228 21:05:22.723156 30547 net.cpp:150] Setting up conv17_2_mbox_conf_perm
I0228 21:05:22.723166 30547 net.cpp:157] Top shape: 24 1 1 24 (576)
I0228 21:05:22.723170 30547 net.cpp:165] Memory required for data: 3870477056
I0228 21:05:22.723176 30547 layer_factory.hpp:77] Creating layer conv17_2_mbox_conf_flat
I0228 21:05:22.723187 30547 net.cpp:100] Creating Layer conv17_2_mbox_conf_flat
I0228 21:05:22.723206 30547 net.cpp:434] conv17_2_mbox_conf_flat <- conv17_2_mbox_conf_perm
I0228 21:05:22.723214 30547 net.cpp:408] conv17_2_mbox_conf_flat -> conv17_2_mbox_conf_flat
I0228 21:05:22.723251 30547 net.cpp:150] Setting up conv17_2_mbox_conf_flat
I0228 21:05:22.723260 30547 net.cpp:157] Top shape: 24 24 (576)
I0228 21:05:22.723264 30547 net.cpp:165] Memory required for data: 3870479360
I0228 21:05:22.723270 30547 layer_factory.hpp:77] Creating layer conv17_2_mbox_priorbox
I0228 21:05:22.723279 30547 net.cpp:100] Creating Layer conv17_2_mbox_priorbox
I0228 21:05:22.723289 30547 net.cpp:434] conv17_2_mbox_priorbox <- conv17_2_conv17_2/relu_0_split_2
I0228 21:05:22.723294 30547 net.cpp:434] conv17_2_mbox_priorbox <- data_data_0_split_6
I0228 21:05:22.723302 30547 net.cpp:408] conv17_2_mbox_priorbox -> conv17_2_mbox_priorbox
I0228 21:05:22.723341 30547 net.cpp:150] Setting up conv17_2_mbox_priorbox
I0228 21:05:22.723352 30547 net.cpp:157] Top shape: 1 2 24 (48)
I0228 21:05:22.723356 30547 net.cpp:165] Memory required for data: 3870479552
I0228 21:05:22.723361 30547 layer_factory.hpp:77] Creating layer mbox_loc
I0228 21:05:22.723392 30547 net.cpp:100] Creating Layer mbox_loc
I0228 21:05:22.723400 30547 net.cpp:434] mbox_loc <- conv11_mbox_loc_flat
I0228 21:05:22.723408 30547 net.cpp:434] mbox_loc <- conv13_mbox_loc_flat
I0228 21:05:22.723417 30547 net.cpp:434] mbox_loc <- conv14_2_mbox_loc_flat
I0228 21:05:22.723423 30547 net.cpp:434] mbox_loc <- conv15_2_mbox_loc_flat
I0228 21:05:22.723429 30547 net.cpp:434] mbox_loc <- conv16_2_mbox_loc_flat
I0228 21:05:22.723434 30547 net.cpp:434] mbox_loc <- conv17_2_mbox_loc_flat
I0228 21:05:22.723441 30547 net.cpp:408] mbox_loc -> mbox_loc
I0228 21:05:22.723482 30547 net.cpp:150] Setting up mbox_loc
I0228 21:05:22.723493 30547 net.cpp:157] Top shape: 24 7668 (184032)
I0228 21:05:22.723497 30547 net.cpp:165] Memory required for data: 3871215680
I0228 21:05:22.723502 30547 layer_factory.hpp:77] Creating layer mbox_conf
I0228 21:05:22.723510 30547 net.cpp:100] Creating Layer mbox_conf
I0228 21:05:22.723517 30547 net.cpp:434] mbox_conf <- conv11_mbox_conf_flat
I0228 21:05:22.723525 30547 net.cpp:434] mbox_conf <- conv13_mbox_conf_flat
I0228 21:05:22.723531 30547 net.cpp:434] mbox_conf <- conv14_2_mbox_conf_flat
I0228 21:05:22.723538 30547 net.cpp:434] mbox_conf <- conv15_2_mbox_conf_flat
I0228 21:05:22.723544 30547 net.cpp:434] mbox_conf <- conv16_2_mbox_conf_flat
I0228 21:05:22.723551 30547 net.cpp:434] mbox_conf <- conv17_2_mbox_conf_flat
I0228 21:05:22.723557 30547 net.cpp:408] mbox_conf -> mbox_conf
I0228 21:05:22.723592 30547 net.cpp:150] Setting up mbox_conf
I0228 21:05:22.723601 30547 net.cpp:157] Top shape: 24 7668 (184032)
I0228 21:05:22.723605 30547 net.cpp:165] Memory required for data: 3871951808
I0228 21:05:22.723611 30547 layer_factory.hpp:77] Creating layer mbox_priorbox
I0228 21:05:22.723618 30547 net.cpp:100] Creating Layer mbox_priorbox
I0228 21:05:22.723625 30547 net.cpp:434] mbox_priorbox <- conv11_mbox_priorbox
I0228 21:05:22.723631 30547 net.cpp:434] mbox_priorbox <- conv13_mbox_priorbox
I0228 21:05:22.723637 30547 net.cpp:434] mbox_priorbox <- conv14_2_mbox_priorbox
I0228 21:05:22.723644 30547 net.cpp:434] mbox_priorbox <- conv15_2_mbox_priorbox
I0228 21:05:22.723649 30547 net.cpp:434] mbox_priorbox <- conv16_2_mbox_priorbox
I0228 21:05:22.723655 30547 net.cpp:434] mbox_priorbox <- conv17_2_mbox_priorbox
I0228 21:05:22.723661 30547 net.cpp:408] mbox_priorbox -> mbox_priorbox
I0228 21:05:22.723691 30547 net.cpp:150] Setting up mbox_priorbox
I0228 21:05:22.723701 30547 net.cpp:157] Top shape: 1 2 7668 (15336)
I0228 21:05:22.723706 30547 net.cpp:165] Memory required for data: 3872013152
I0228 21:05:22.723711 30547 layer_factory.hpp:77] Creating layer mbox_loss
I0228 21:05:22.723726 30547 net.cpp:100] Creating Layer mbox_loss
I0228 21:05:22.723734 30547 net.cpp:434] mbox_loss <- mbox_loc
I0228 21:05:22.723740 30547 net.cpp:434] mbox_loss <- mbox_conf
I0228 21:05:22.723747 30547 net.cpp:434] mbox_loss <- mbox_priorbox
…
name: "MobileNet-SSD"
state {
  phase: TEST
}
layer {
  name: "data"
  type: "AnnotatedData"
  top: "data"
  top: "label"
  include {
    phase: TEST
  }
  transform_param {
    scale: 0.007843
    mean_value: 127.5
    mean_value: 127.5
    mean_value: 127.5
    resize_param {
      prob: 1
      resize_mode: WARP
      height: 300
      width: 300
      interp_mode: LINEAR
    }
  }
  data_param {
    source: "test_lmdb"
    batch_size: 8
    backend: LMDB
  }
  annotated_data_param {
    batch_sampler {
    }
    label_map_file: "labelmap.prototxt"
  }
}
layer {
  name: "conv0"
  type: "Convolution"
  bottom: "data"
  top: "conv0"
  param {
    lr_mult: 1
    decay_mult: 1
  }
  convolution_param {
    num_output: 32
    bias_term: false
    pad: 1
    kernel_size: 3
    stride: 2
    weight_filler {
      type: "msra"
    }
  }
}
layer {
  name: "conv0/bn"
  type: "BatchNorm"
  bottom: "conv0"
  top: "conv0"
}
layer {
  name: "conv0/scale"
  type: "Scale"
  bottom: "conv0"
  top: "conv0"
  param {
    lr_mult: 1
    decay_mult: 0
  }
  param {
    lr_mult: 2
    decay_mult: 0
  }
  scale_param {
    filler {
      value: 1
    }
    bias_term: true
    bias_filler {
      value: 0
    }
  }
}
layer {
  name: "conv0/relu"
  type: "ReLU"
  bottom: "conv0"
  top: "conv0"
}
layer {
  name: "conv1/dw"
  type: "Convolution"
  bottom: "conv0"
  top: "conv1/dw"
  param {
    lr_mult: 1
    decay_mult: 1
  }
  convolution_param {
    num_output: 32
    bias_term: false
    pad: 1
    kernel_size: 3
    group: 32
    weight_filler {
      type: "msra"
    }
    engine: CAFFE
  }
}
layer {
  name: "conv1/dw/bn"
  type: "BatchNorm"
  bottom: "conv1/dw"
  top: "conv1/dw"
}
layer {
  name: "conv1/dw/scale"
  type: "Scale"
  bottom: "conv1/dw"
  top: "conv1/dw"
  param {
    lr_mult: 1
    decay_mult: 0
  }
  param {
    lr_mult: 2
    decay_mult: 0
  }
  scale_param {
    filler {
      value: 1
    }
    bias_term: true
    bias_filler {
      value: 0
    }
  }
}
layer {
  name: "conv1/dw/relu"
  type: "ReLU"
  bottom: "conv1/dw"
  top: "conv1/dw"
}
layer {
  name: "conv1"
  type: "Convolution"
  bottom: "conv1/dw"
  top: "conv1"
  param {
    lr_mult: 1
    decay_mult: 1
  }
  convolution_param {
    num_output: 64
    bias_term: false
    kernel_size: 1
    weight_filler {
      type: "msra"
    }
  }
}
layer {
  name: "conv1/bn"
  type: "BatchNorm"
  bottom: "conv1"
  top: "conv1"
}
layer {
  name: "conv1/scale"
  type: "Scale"
  bottom: "conv1"
  top: "conv1"
  param {
    lr_mult: 1
    decay_mult: 0
  }
  param {
    lr_mult: 2
    decay_mult: 0
  }
  scale_param {
    filler {
      value: 1
    }
    bias_term: true
    bias_filler {
      value: 0
    }
  }
}
layer {
  name: "conv1/relu"
  type: "ReLU"
  bottom: "conv1"
  top: "conv1"
}
layer {
  name: "conv2/dw"
  type: "Convolution"
  bottom: "conv1"
  top: "conv2/dw"
  param {
    lr_mult: 1
    decay_mult: 1
  }
  convolution_param {
    num_output: 64
    bias_term: false
    pad: 1
    kernel_size: 3
    group: 64
    stride: 2
    weight_filler {
      type: "msra"
    }
    engine: CAFFE
  }
}
layer {
  name: "conv2/dw/bn"
  type: "BatchNorm"
  bottom: "conv2/dw"
  top: "conv2/dw"
}
layer {
  name: "conv2/dw/scale"
  type: "Scale"
  bottom: "conv2/dw"
  top: "conv2/dw"
  param {
    lr_mult: 1
    decay_mult: 0
  }
  param {
    lr_mult: 2
    decay_mult: 0
  }
  scale_param {
    filler {
      value: 1
    }
    bias_term: true
    bias_filler {
      value: 0
    }
  }
}
layer {
  name: "conv2/dw/relu"
  type: "ReLU"
  bottom: "conv2/dw"
  top: "conv2/dw"
}
layer {
  name: "conv2"
  type: "Convolution"
  bottom: "conv2/dw"
  top: "conv2"
  param {
    lr_mult: 1
    decay_mult: 1
  }
  convolution_param {
    num_output: 128
    bias_term: false
    kernel_size: 1
    weight_filler {
      type: "msra"
    }
  }
}
layer {
  name: "conv2/bn"
  type: "BatchNorm"
  bottom: "conv2"
  top: "conv2"
}
layer {
  name: "conv2/scale"
  type: "Scale"
  bottom: "conv2"
  top: "conv2"
  param {
    lr_mult: 1
    decay_mult: 0
  }
  param {
    lr_mult: 2
    decay_mult: 0
  }
  scale_param {
    filler {
      value: 1
    }
    bias_term: true
    bias_filler {
      value: 0
    }
  }
}
layer {
  name: "conv2/relu"
  type: "ReLU"
  bottom: "conv2"
  top: "conv2"
}
layer {
  name: "conv3/dw"
  type: "Convolution"
  bottom: "conv2"
  top: "conv3/dw"
  param {
    lr_mult: 1
    decay_mult: 1
  }
  convolution_param {
    num_output: 128
    bias_term: false
    pad: 1
    kernel_size: 3
    group: 128
    weight_filler {
      type: "msra"
    }
    engine: CAFFE
  }
}
layer {
  name: "conv3/dw/bn"
  type: "BatchNorm"
  bottom: "conv3/dw"
  top: "conv3/dw"
}
layer {
  name: "conv3/dw/scale"
  type: "Scale"
  bottom: "conv3/dw"
  top: "conv3/dw"
  param {
    lr_mult: 1
    decay_mult: 0
  }
  param {
    lr_mult: 2
    decay_mult: 0
  }
  scale_param {
    filler {
      value: 1
    }
    bias_term: true
    bias_filler {
      value: 0
    }
  }
}
layer {
  name: "conv3/dw/relu"
  type: "ReLU"
  bottom: "conv3/dw"
  top: "conv3/dw"
}
layer {
  name: "conv3"
  type: "Convolution"
  bottom: "conv3/dw"
  top: "conv3"
  param {
    lr_mult: 1
    decay_mult: 1
  }
  convolution_param {
    num_output: 128
    bias_term: false
    kernel_size: 1
    weight_filler {
      type: "msra"
    }
  }
}
layer {
  name: "conv3/bn"
  type: "BatchNorm"
  bottom: "conv3"
  top: "conv3"
}
layer {
  name: "conv3/scale"
  type: "Scale"
  bottom: "conv3"
  top: "conv3"
  param {
    lr_mult: 1
    decay_mult: 0
  }
  param {
    lr_mult: 2
    decay_mult: 0
  }
  scale_param {
    filler {
      value: 1
    }
    bias_term: true
    bias_filler {
      value: 0
    }
  }
}
layer {
  name: "conv3/relu"
  type: "ReLU"
  bottom: "conv3"
  top: "conv3"
}
layer {
  name: "conv4/dw"
  type: "Convolution"
  bottom: "conv3"
  top: "conv4/dw"
  param {
    lr_mult: 1
    decay_mult: 1
  }
  convolution_param {
    num_output: 128
    bias_term: false
    pad: 1
    kernel_size: 3
    group: 128
    stride: 2
    weight_filler {
      type: "msra"
    }
    engine: CAFFE
  }
}
layer {
  name: "conv4/dw/bn"
  type: "BatchNorm"
  bottom: "conv4/dw"
  top: "conv4/dw"
}
layer {
  name: "conv4/dw/scale"
  type: "Scale"
  bottom: "conv4/dw"
  top: "conv4/dw"
  param {
    lr_mult: 1
    decay_mult: 0
  }
  param {
    lr_mult: 2
    decay_mult: 0
  }
  scale_param {
    filler {
      value: 1
    }
    bias_term: true
    bias_filler {
      value: 0
    }
  }
}
layer {
  name: "conv4/dw/relu"
  type: "ReLU"
  bottom: "conv4/dw"
  top: "conv4/dw"
}
layer {
  name: "conv4"
  type: "Convolution"
  bottom: "conv4/dw"
  top: "conv4"
  param {
    lr_mult: 1
    decay_mult: 1
  }
  convolution_param {
    num_output: 256
    bias_term: false
    kernel_size: 1
    weight_filler {
      type: "msra"
    }
  }
}
layer {
  name: "conv4/bn"
  type: "BatchNorm"
  bottom: "conv4"
  top: "conv4"
}
layer {
  name: "conv4/scale"
  type: "Scale"
  bottom: "conv4"
  top: "conv4"
  param {
    lr_mult: 1
    decay_mult: 0
  }
  param {
    lr_mult: 2
    decay_mult: 0
  }
  scale_param {
    filler {
      value: 1
    }
    bias_term: true
    bias_filler {
      value: 0
    }
  }
}
layer {
  name: "conv4/relu"
  type: "ReLU"
  bottom: "conv4"
  top: "conv4"
}
layer {
  name: "conv5/dw"
  type: "Convolution"
  bottom: "conv4"
  top: "conv5/dw"
  param {
    lr_mult: 1
    decay_mult: 1
  }
  convolution_param {
    num_output: 256
    bias_term: false
    pad: 1
    kernel_size: 3
    group: 256
    weight_filler {
      type: "msra"
    }
    engine: CAFFE
  }
}
layer {
  name: "conv5/dw/bn"
  type: "BatchNorm"
  bottom: "conv5/dw"
  top: "conv5/dw"
}
layer {
  name: "conv5/dw/scale"
  type: "Scale"
  bottom: "conv5/dw"
  top: "conv5/dw"
  param {
    lr_mult: 1
    decay_mult: 0
  }
  param {
    lr_mult: 2
    decay_mult: 0
  }
  scale_param {
    filler {
      value: 1
    }
    bias_term: true
    bias_filler {
      value: 0
    }
  }
}
layer {
  name: "conv5/dw/relu"
  type: "ReLU"
  bottom: "conv5/dw"
  top: "conv5/dw"
}
layer {
  name: "conv5"
  type: "Convolution"
  bottom: "conv5/dw"
  top: "conv5"
  param {
    lr_mult: 1
    decay_mult: 1
  }
  convolution_param {
    num_output: 256
    bias_term: false
    kernel_size: 1
    weight_filler {
      type: "msra"
    }
  }
}
layer {
  name: "conv5/bn"
  type: "BatchNorm"
  bottom: "conv5"
  top: "conv5"
}
layer {
  name: "conv5/scale"
  type: "Scale"
  bottom: "conv5"
  top: "conv5"
  param {
    lr_mult: 1
    decay_mult: 0
  }
  param {
    lr_mult: 2
    decay_mult: 0
  }
  scale_param {
    filler {
      value: 1
    }
    bias_term: true
    bias_filler {
      value: 0
    }
  }
}
layer {
  name: "conv5/relu"
  type: "ReLU"
  bottom: "conv5"
  top: "conv5"
}
layer {
  name: "conv6/dw"
  type: "Convolution"
  bottom: "conv5"
  top: "conv6/dw"
  param {
    lr_mult: 1
    decay_mult: 1
  }
  convolution_param {
    num_output: 256
    bias_term: false
    pad: 1
    kernel_size: 3
    group: 256
    stride: 2
    weight_filler {
      type: "msra"
    }
    engine: CAFFE
  }
}
layer {
  name: "conv6/dw/bn"
  type: "BatchNorm"
  bottom: "conv6/dw"
  top: "conv6/dw"
}
layer {
  name: "conv6/dw/scale"
  type: "Scale"
  bottom: "conv6/dw"
  top: "conv6/dw"
  param {
    lr_mult: 1
    decay_mult: 0
  }
  param {
    lr_mult: 2
    decay_mult: 0
  }
  scale_param {
    filler {
      value: 1
    }
    bias_term: true
    bias_filler {
      value: 0
    }
  }
}
layer {
  name: "conv6/dw/relu"
  type: "ReLU"
  bottom: "conv6/dw"
  top: "conv6/dw"
}
layer {
  name: "conv6"
  type: "Convolution"
  bottom: "conv6/dw"
  top: "conv6"
  param {
    lr_mult: 1
    decay_mult: 1
  }
  convolution_param {
    num_output: 512
    bias_term: false
    kernel_size: 1
    weight_filler {
      type: "msra"
    }
  }
}
layer {
  name: "conv6/bn"
  type: "BatchNorm"
  bottom: "conv6"
  top: "conv6"
}
layer {
  name: "conv6/scale"
  type: "Scale"
  bottom: "conv6"
  top: "conv6"
  param {
    lr_mult: 1
    decay_mult: 0
  }
  param {
    lr_mult: 2
    decay_mult: 0
  }
  scale_param {
    filler {
      value: 1
    }
    bias_term: true
    bias_filler {
      value: 0
    }
  }
}
layer {
  name: "conv6/relu"
  type: "ReLU"
  bottom: "conv6"
  top: "conv6"
}
layer {
  name: "conv7/dw"
  type: "Convolution"
  bottom: "conv6"
  top: "conv7/dw"
  param {
    lr_mult: 1
    decay_mult: 1
  }
  convolution_param {
    num_output: 512
    bias_term: false
    pad: 1
    kernel_size: 3
    group: 512
    weight_filler {
      type: "msra"
    }
    engine: CAFFE
  }
}
layer {
  name: "conv7/dw/bn"
  type: "BatchNorm"
  bottom: "conv7/dw"
  top: "conv7/dw"
}
layer {
  name: "conv7/dw/scale"
  type: "Scale"
  bottom: "conv7/dw"
  top: "conv7/dw"
  param {
    lr_mult: 1
    decay_mult: 0
  }
  param {
    lr_mult: 2
    decay_mult: 0
  }
  scale_param {
    filler {
      value: 1
    }
    bias_term: true
    bias_filler {
      value: 0
    }
  }
}
layer {
  name: "conv7/dw/relu"
  type: "ReLU"
  bottom: "conv7/dw"
  top: "conv7/dw"
}
layer {
  name: "conv7"
  type: "Convolution"
  bottom: "conv7/dw"
  top: "conv7"
  param {
    lr_mult: 1
    decay_mult: 1
  }
  convolution_param {
    num_output: 512
    bias_term: false
    kernel_size: 1
    weight_filler {
      type: "msra"
    }
  }
}
layer {
  name: "conv7/bn"
  type: "BatchNorm"
  bottom: "conv7"
  top: "conv7"
}
layer {
  name: "conv7/scale"
  type: "Scale"
  bottom: "conv7"
  top: "conv7"
  param {
    lr_mult: 1
    decay_mult: 0
  }
  param {
    lr_mult: 2
    decay_mult: 0
  }
  scale_param {
    filler {
      value: 1
    }
    bias_term: true
    bias_filler {
      value: 0
    }
  }
}
layer {
  name: "conv7/relu"
  type: "ReLU"
  bottom: "conv7"
  top: "conv7"
}
layer {
  name: "conv8/dw"
  type: "Convolution"
  bottom: "conv7"
  top: "conv8/dw"
  param {
    lr_mult: 1
    decay_mult: 1
  }
  convolution_param {
    num_output: 512
    bias_term: false
    pad: 1
    kernel_size: 3
    group: 512
    weight_filler {
      type: "msra"
    }
    engine: CAFFE
  }
}
layer {
  name: "conv8/dw/bn"
  type: "BatchNorm"
  bottom: "conv8/dw"
  top: "conv8/dw"
}
layer {
  name: "conv8/dw/scale"
  type: "Scale"
  bottom: "conv8/dw"
  top: "conv8/dw"
  param {
    lr_mult: 1
    decay_mult: 0
  }
  param {
    lr_mult: 2
    decay_mult: 0
  }
  scale_param {
    filler {
      value: 1
    }
    bias_term: true
    bias_filler {
      value: 0
    }
  }
}
layer {
  name: "conv8/dw/relu"
  type: "ReLU"
  bottom: "conv8/dw"
  top: "conv8/dw"
}
layer {
  name: "conv8"
  type: "Convolution"
  bottom: "conv8/dw"
  top: "conv8"
  param {
    lr_mult: 1
    decay_mult: 1
  }
  convolution_param {
    num_output: 512
    bias_term: false
    kernel_size: 1
    weight_filler {
      type: "msra"
    }
  }
}
layer {
  name: "conv8/bn"
  type: "BatchNorm"
  bottom: "conv8"
  top: "conv8"
}
layer {
  name: "conv8/scale"
  type: "Scale"
  bottom: "conv8"
  top: "conv8"
  param {
    lr_mult: 1
    decay_mult: 0
  }
  param {
    lr_mult: 2
    decay_mult: 0
  }
  scale_param {
    filler {
      value: 1
    }
    bias_term: true
    bias_filler {
      value: 0
    }
  }
}
layer {
  name: "conv8/relu"
  type: "ReLU"
  bottom: "conv8"
  top: "conv8"
}
layer {
  name: "conv9/dw"
  type: "Convolution"
  bottom: "conv8"
  top: "conv9/dw"
  param {
    lr_mult: 1
    decay_mult: 1
  }
  convolution_param {
    num_output: 512
    bias_term: false
    pad: 1
    kernel_size: 3
    group: 512
    weight_filler {
      type: "msra"
    }
    engine: CAFFE
  }
}
layer {
  name: "conv9/dw/bn"
  type: "BatchNorm"
  bottom: "conv9/dw"
  top: "conv9/dw"
}
layer {
  name: "conv9/dw/scale"
  type: "Scale"
  bottom: "conv9/dw"
  top: "conv9/dw"
  param {
    lr_mult: 1
    decay_mult: 0
  }
  param {
    lr_mult: 2
    decay_mult: 0
  }
  scale_param {
    filler {
      value: 1
    }
    bias_term: true
    bias_filler {
      value: 0
    }
  }
}
layer {
  name: "conv9/dw/relu"
  type: "ReLU"
  bottom: "conv9/dw"
…
I0228 21:05:23.366773 30547 layer_factory.hpp:77] Creating layer conv14_1/scale
I0228 21:05:23.366792 30547 net.cpp:100] Creating Layer conv14_1/scale
I0228 21:05:23.366809 30547 net.cpp:434] conv14_1/scale <- conv14_1
I0228 21:05:23.366820 30547 net.cpp:395] conv14_1/scale -> conv14_1 (in-place)
I0228 21:05:23.366909 30547 layer_factory.hpp:77] Creating layer conv14_1/scale
I0228 21:05:23.367112 30547 net.cpp:150] Setting up conv14_1/scale
I0228 21:05:23.367125 30547 net.cpp:157] Top shape: 8 256 10 10 (204800)
I0228 21:05:23.367132 30547 net.cpp:165] Memory required for data: 1283100704
I0228 21:05:23.367146 30547 layer_factory.hpp:77] Creating layer conv14_1/relu
I0228 21:05:23.367168 30547 net.cpp:100] Creating Layer conv14_1/relu
I0228 21:05:23.367177 30547 net.cpp:434] conv14_1/relu <- conv14_1
I0228 21:05:23.367192 30547 net.cpp:395] conv14_1/relu -> conv14_1 (in-place)
I0228 21:05:23.367888 30547 net.cpp:150] Setting up conv14_1/relu
I0228 21:05:23.367905 30547 net.cpp:157] Top shape: 8 256 10 10 (204800)
I0228 21:05:23.367913 30547 net.cpp:165] Memory required for data: 1283919904
I0228 21:05:23.367923 30547 layer_factory.hpp:77] Creating layer conv14_2
I0228 21:05:23.367945 30547 net.cpp:100] Creating Layer conv14_2
I0228 21:05:23.367961 30547 net.cpp:434] conv14_2 <- conv14_1
I0228 21:05:23.367976 30547 net.cpp:408] conv14_2 -> conv14_2
I0228 21:05:23.389271 30547 net.cpp:150] Setting up conv14_2
I0228 21:05:23.389309 30547 net.cpp:157] Top shape: 8 512 5 5 (102400)
I0228 21:05:23.389318 30547 net.cpp:165] Memory required for data: 1284329504
I0228 21:05:23.389348 30547 layer_factory.hpp:77] Creating layer conv14_2/bn
I0228 21:05:23.389366 30547 net.cpp:100] Creating Layer conv14_2/bn
I0228 21:05:23.389392 30547 net.cpp:434] conv14_2/bn <- conv14_2
I0228 21:05:23.389407 30547 net.cpp:395] conv14_2/bn -> conv14_2 (in-place)
I0228 21:05:23.389791 30547 net.cpp:150] Setting up conv14_2/bn
I0228 21:05:23.389803 30547 net.cpp:157] Top shape: 8 512 5 5 (102400)
I0228 21:05:23.389811 30547 net.cpp:165] Memory required for data: 1284739104
I0228 21:05:23.389842 30547 layer_factory.hpp:77] Creating layer conv14_2/scale
I0228 21:05:23.389858 30547 net.cpp:100] Creating Layer conv14_2/scale
I0228 21:05:23.389868 30547 net.cpp:434] conv14_2/scale <- conv14_2
I0228 21:05:23.389894 30547 net.cpp:395] conv14_2/scale -> conv14_2 (in-place)
I0228 21:05:23.389973 30547 layer_factory.hpp:77] Creating layer conv14_2/scale
I0228 21:05:23.390169 30547 net.cpp:150] Setting up conv14_2/scale
I0228 21:05:23.390197 30547 net.cpp:157] Top shape: 8 512 5 5 (102400)
I0228 21:05:23.390224 30547 net.cpp:165] Memory required for data: 1285148704
I0228 21:05:23.390239 30547 layer_factory.hpp:77] Creating layer conv14_2/relu
I0228 21:05:23.390252 30547 net.cpp:100] Creating Layer conv14_2/relu
I0228 21:05:23.390261 30547 net.cpp:434] conv14_2/relu <- conv14_2
I0228 21:05:23.390272 30547 net.cpp:395] conv14_2/relu -> conv14_2 (in-place)
I0228 21:05:23.390839 30547 net.cpp:150] Setting up conv14_2/relu
I0228 21:05:23.390856 30547 net.cpp:157] Top shape: 8 512 5 5 (102400)
I0228 21:05:23.390863 30547 net.cpp:165] Memory required for data: 1285558304
I0228 21:05:23.390872 30547 layer_factory.hpp:77] Creating layer conv14_2_conv14_2/relu_0_split
I0228 21:05:23.390887 30547 net.cpp:100] Creating Layer conv14_2_conv14_2/relu_0_split
I0228 21:05:23.390897 30547 net.cpp:434] conv14_2_conv14_2/relu_0_split <- conv14_2
I0228 21:05:23.390910 30547 net.cpp:408] conv14_2_conv14_2/relu_0_split -> conv14_2_conv14_2/relu_0_split_0
I0228 21:05:23.390928 30547 net.cpp:408] conv14_2_conv14_2/relu_0_split -> conv14_2_conv14_2/relu_0_split_1
I0228 21:05:23.390944 30547 net.cpp:408] conv14_2_conv14_2/relu_0_split -> conv14_2_conv14_2/relu_0_split_2
I0228 21:05:23.390959 30547 net.cpp:408] conv14_2_conv14_2/relu_0_split -> conv14_2_conv14_2/relu_0_split_3
I0228 21:05:23.391070 30547 net.cpp:150] Setting up conv14_2_conv14_2/relu_0_split
I0228 21:05:23.391084 30547 net.cpp:157] Top shape: 8 512 5 5 (102400)
I0228 21:05:23.391094 30547 net.cpp:157] Top shape: 8 512 5 5 (102400)
I0228 21:05:23.391103 30547 net.cpp:157] Top shape: 8 512 5 5 (102400)
I0228 21:05:23.391113 30547 net.cpp:157] Top shape: 8 512 5 5 (102400)
I0228 21:05:23.391122 30547 net.cpp:165] Memory required for data: 1287196704
I0228 21:05:23.391130 30547 layer_factory.hpp:77] Creating layer conv15_1
I0228 21:05:23.391149 30547 net.cpp:100] Creating Layer conv15_1
I0228 21:05:23.391158 30547 net.cpp:434] conv15_1 <- conv14_2_conv14_2/relu_0_split_0
I0228 21:05:23.391172 30547 net.cpp:408] conv15_1 -> conv15_1
I0228 21:05:23.394744 30547 net.cpp:150] Setting up conv15_1
I0228 21:05:23.394765 30547 net.cpp:157] Top shape: 8 128 5 5 (25600)
I0228 21:05:23.394773 30547 net.cpp:165] Memory required for data: 1287299104
I0228 21:05:23.394788 30547 layer_factory.hpp:77] Creating layer conv15_1/bn
I0228 21:05:23.394814 30547 net.cpp:100] Creating Layer conv15_1/bn
I0228 21:05:23.394825 30547 net.cpp:434] conv15_1/bn <- conv15_1
I0228 21:05:23.394837 30547 net.cpp:395] conv15_1/bn -> conv15_1 (in-place)
I0228 21:05:23.395153 30547 net.cpp:150] Setting up conv15_1/bn
I0228 21:05:23.395166 30547 net.cpp:157] Top shape: 8 128 5 5 (25600)
I0228 21:05:23.395174 30547 net.cpp:165] Memory required for data: 1287401504
I0228 21:05:23.395191 30547 layer_factory.hpp:77] Creating layer conv15_1/scale
I0228 21:05:23.395206 30547 net.cpp:100] Creating Layer conv15_1/scale
I0228 21:05:23.395215 30547 net.cpp:434] conv15_1/scale <- conv15_1
I0228 21:05:23.395228 30547 net.cpp:395] conv15_1/scale -> conv15_1 (in-place)
I0228 21:05:23.395304 30547 layer_factory.hpp:77] Creating layer conv15_1/scale
I0228 21:05:23.395489 30547 net.cpp:150] Setting up conv15_1/scale
I0228 21:05:23.395503 30547 net.cpp:157] Top shape: 8 128 5 5 (25600)
I0228 21:05:23.395510 30547 net.cpp:165] Memory required for data: 1287503904
I0228 21:05:23.395524 30547 layer_factory.hpp:77] Creating layer conv15_1/relu
I0228 21:05:23.395537 30547 net.cpp:100] Creating Layer conv15_1/relu
I0228 21:05:23.395546 30547 net.cpp:434] conv15_1/relu <- conv15_1
I0228 21:05:23.395556 30547 net.cpp:395] conv15_1/relu -> conv15_1 (in-place)
I0228 21:05:23.396860 30547 net.cpp:150] Setting up conv15_1/relu
I0228 21:05:23.396883 30547 net.cpp:157] Top shape: 8 128 5 5 (25600)
I0228 21:05:23.396891 30547 net.cpp:165] Memory required for data: 1287606304
I0228 21:05:23.396899 30547 layer_factory.hpp:77] Creating layer conv15_2
I0228 21:05:23.396929 30547 net.cpp:100] Creating Layer conv15_2
I0228 21:05:23.396940 30547 net.cpp:434] conv15_2 <- conv15_1
I0228 21:05:23.396955 30547 net.cpp:408] conv15_2 -> conv15_2
I0228 21:05:23.405086 30547 net.cpp:150] Setting up conv15_2
I0228 21:05:23.405112 30547 net.cpp:157] Top shape: 8 256 3 3 (18432)
I0228 21:05:23.405120 30547 net.cpp:165] Memory required for data: 1287680032
I0228 21:05:23.405133 30547 layer_factory.hpp:77] Creating layer conv15_2/bn
I0228 21:05:23.405150 30547 net.cpp:100] Creating Layer conv15_2/bn
I0228 21:05:23.405159 30547 net.cpp:434] conv15_2/bn <- conv15_2
I0228 21:05:23.405185 30547 net.cpp:395] conv15_2/bn -> conv15_2 (in-place)
I0228 21:05:23.405549 30547 net.cpp:150] Setting up conv15_2/bn
I0228 21:05:23.405562 30547 net.cpp:157] Top shape: 8 256 3 3 (18432)
I0228 21:05:23.405570 30547 net.cpp:165] Memory required for data: 1287753760
I0228 21:05:23.405598 30547 layer_factory.hpp:77] Creating layer conv15_2/scale
I0228 21:05:23.405613 30547 net.cpp:100] Creating Layer conv15_2/scale
I0228 21:05:23.405622 30547 net.cpp:434] conv15_2/scale <- conv15_2
I0228 21:05:23.405632 30547 net.cpp:395] conv15_2/scale -> conv15_2 (in-place)
I0228 21:05:23.405724 30547 layer_factory.hpp:77] Creating layer conv15_2/scale
I0228 21:05:23.405922 30547 net.cpp:150] Setting up conv15_2/scale
I0228 21:05:23.405949 30547 net.cpp:157] Top shape: 8 256 3 3 (18432)
I0228 21:05:23.405956 30547 net.cpp:165] Memory required for data: 1287827488
I0228 21:05:23.405971 30547 layer_factory.hpp:77] Creating layer conv15_2/relu
I0228 21:05:23.405997 30547 net.cpp:100] Creating Layer conv15_2/relu
I0228 21:05:23.406005 30547 net.cpp:434] conv15_2/relu <- conv15_2
I0228 21:05:23.406016 30547 net.cpp:395] conv15_2/relu -> conv15_2 (in-place)
I0228 21:05:23.406551 30547 net.cpp:150] Setting up conv15_2/relu
I0228 21:05:23.406568 30547 net.cpp:157] Top shape: 8 256 3 3 (18432)
I0228 21:05:23.406574 30547 net.cpp:165] Memory required for data: 1287901216
I0228 21:05:23.406584 30547 layer_factory.hpp:77] Creating layer conv15_2_conv15_2/relu_0_split
I0228 21:05:23.406610 30547 net.cpp:100] Creating Layer conv15_2_conv15_2/relu_0_split
I0228 21:05:23.406622 30547 net.cpp:434] conv15_2_conv15_2/relu_0_split <- conv15_2
I0228 21:05:23.406635 30547 net.cpp:408] conv15_2_conv15_2/relu_0_split -> conv15_2_conv15_2/relu_0_split_0
I0228 21:05:23.406651 30547 net.cpp:408] conv15_2_conv15_2/relu_0_split -> conv15_2_conv15_2/relu_0_split_1
I0228 21:05:23.406666 30547 net.cpp:408] conv15_2_conv15_2/relu_0_split -> conv15_2_conv15_2/relu_0_split_2
I0228 21:05:23.406680 30547 net.cpp:408] conv15_2_conv15_2/relu_0_split -> conv15_2_conv15_2/relu_0_split_3
I0228 21:05:23.406796 30547 net.cpp:150] Setting up conv15_2_conv15_2/relu_0_split
I0228 21:05:23.406810 30547 net.cpp:157] Top shape: 8 256 3 3 (18432)
I0228 21:05:23.406821 30547 net.cpp:157] Top shape: 8 256 3 3 (18432)
I0228 21:05:23.406831 30547 net.cpp:157] Top shape: 8 256 3 3 (18432)
I0228 21:05:23.406841 30547 net.cpp:157] Top shape: 8 256 3 3 (18432)
I0228 21:05:23.406848 30547 net.cpp:165] Memory required for data: 1288196128
I0228 21:05:23.406857 30547 layer_factory.hpp:77] Creating layer conv16_1
I0228 21:05:23.406873 30547 net.cpp:100] Creating Layer conv16_1
I0228 21:05:23.406883 30547 net.cpp:434] conv16_1 <- conv15_2_conv15_2/relu_0_split_0
I0228 21:05:23.406895 30547 net.cpp:408] conv16_1 -> conv16_1
I0228 21:05:23.410015 30547 net.cpp:150] Setting up conv16_1
I0228 21:05:23.410037 30547 net.cpp:157] Top shape: 8 128 3 3 (9216)
I0228 21:05:23.410045 30547 net.cpp:165] Memory required for data: 1288232992
I0228 21:05:23.410058 30547 layer_factory.hpp:77] Creating layer conv16_1/bn
I0228 21:05:23.410084 30547 net.cpp:100] Creating Layer conv16_1/bn
I0228 21:05:23.410095 30547 net.cpp:434] conv16_1/bn <- conv16_1
I0228 21:05:23.410107 30547 net.cpp:395] conv16_1/bn -> conv16_1 (in-place)
I0228 21:05:23.410440 30547 net.cpp:150] Setting up conv16_1/bn
I0228 21:05:23.410454 30547 net.cpp:157] Top shape: 8 128 3 3 (9216)
I0228 21:05:23.410461 30547 net.cpp:165] Memory required for data: 1288269856
I0228 21:05:23.410480 30547 layer_factory.hpp:77] Creating layer conv16_1/scale
I0228 21:05:23.410492 30547 net.cpp:100] Creating Layer conv16_1/scale
I0228 21:05:23.410521 30547 net.cpp:434] conv16_1/scale <- conv16_1
I0228 21:05:23.410534 30547 net.cpp:395] conv16_1/scale -> conv16_1 (in-place)
I0228 21:05:23.410612 30547 layer_factory.hpp:77] Creating layer conv16_1/scale
I0228 21:05:23.410799 30547 net.cpp:150] Setting up conv16_1/scale
I0228 21:05:23.410815 30547 net.cpp:157] Top shape: 8 128 3 3 (9216)
I0228 21:05:23.410823 30547 net.cpp:165] Memory required for data: 1288306720
I0228 21:05:23.410836 30547 layer_factory.hpp:77] Creating layer conv16_1/relu
I0228 21:05:23.410848 30547 net.cpp:100] Creating Layer conv16_1/relu
I0228 21:05:23.410857 30547 net.cpp:434] conv16_1/relu <- conv16_1
I0228 21:05:23.410869 30547 net.cpp:395] conv16_1/relu -> conv16_1 (in-place)
I0228 21:05:23.411392 30547 net.cpp:150] Setting up conv16_1/relu
I0228 21:05:23.411408 30547 net.cpp:157] Top shape: 8 128 3 3 (9216)
I0228 21:05:23.411417 30547 net.cpp:165] Memory required for data: 1288343584
I0228 21:05:23.411425 30547 layer_factory.hpp:77] Creating layer conv16_2
I0228 21:05:23.411443 30547 net.cpp:100] Creating Layer conv16_2
I0228 21:05:23.411453 30547 net.cpp:434] conv16_2 <- conv16_1
I0228 21:05:23.411468 30547 net.cpp:408] conv16_2 -> conv16_2
I0228 21:05:23.422027 30547 net.cpp:150] Setting up conv16_2
I0228 21:05:23.422053 30547 net.cpp:157] Top shape: 8 256 2 2 (8192)
I0228 21:05:23.422062 30547 net.cpp:165] Memory required for data: 1288376352
I0228 21:05:23.422076 30547 layer_factory.hpp:77] Creating layer conv16_2/bn
I0228 21:05:23.422093 30547 net.cpp:100] Creating Layer conv16_2/bn
I0228 21:05:23.422114 30547 net.cpp:434] conv16_2/bn <- conv16_2
I0228 21:05:23.422127 30547 net.cpp:395] conv16_2/bn -> conv16_2 (in-place)
I0228 21:05:23.422458 30547 net.cpp:150] Setting up conv16_2/bn
I0228 21:05:23.422472 30547 net.cpp:157] Top shape: 8 256 2 2 (8192)
I0228 21:05:23.422479 30547 net.cpp:165] Memory required for data: 1288409120
I0228 21:05:23.422507 30547 layer_factory.hpp:77] Creating layer conv16_2/scale
I0228 21:05:23.422521 30547 net.cpp:100] Creating Layer conv16_2/scale
I0228 21:05:23.422531 30547 net.cpp:434] conv16_2/scale <- conv16_2
I0228 21:05:23.422554 30547 net.cpp:395] conv16_2/scale -> conv16_2 (in-place)
I0228 21:05:23.422632 30547 layer_factory.hpp:77] Creating layer conv16_2/scale
I0228 21:05:23.422821 30547 net.cpp:150] Setting up conv16_2/scale
I0228 21:05:23.422834 30547 net.cpp:157] Top shape: 8 256 2 2 (8192)
I0228 21:05:23.422842 30547 net.cpp:165] Memory required for data: 1288441888
I0228 21:05:23.422855 30547 layer_factory.hpp:77] Creating layer conv16_2/relu
I0228 21:05:23.422868 30547 net.cpp:100] Creating Layer conv16_2/relu
I0228 21:05:23.422878 30547 net.cpp:434] conv16_2/relu <- conv16_2
I0228 21:05:23.422888 30547 net.cpp:395] conv16_2/relu -> conv16_2 (in-place)
I0228 21:05:23.423439 30547 net.cpp:150] Setting up conv16_2/relu
I0228 21:05:23.423455 30547 net.cpp:157] Top shape: 8 256 2 2 (8192)
I0228 21:05:23.423463 30547 net.cpp:165] Memory required for data: 1288474656
I0228 21:05:23.423471 30547 layer_factory.hpp:77] Creating layer conv16_2_conv16_2/relu_0_split
I0228 21:05:23.423486 30547 net.cpp:100] Creating Layer conv16_2_conv16_2/relu_0_split
I0228 21:05:23.423496 30547 net.cpp:434] conv16_2_conv16_2/relu_0_split <- conv16_2
I0228 21:05:23.423511 30547 net.cpp:408] conv16_2_conv16_2/relu_0_split -> conv16_2_conv16_2/relu_0_split_0
I0228 21:05:23.423527 30547 net.cpp:408] conv16_2_conv16_2/relu_0_split -> conv16_2_conv16_2/relu_0_split_1
I0228 21:05:23.423542 30547 net.cpp:408] conv16_2_conv16_2/relu_0_split -> conv16_2_conv16_2/relu_0_split_2
I0228 21:05:23.423557 30547 net.cpp:408] conv16_2_conv16_2/relu_0_split -> conv16_2_conv16_2/relu_0_split_3
I0228 21:05:23.423674 30547 net.cpp:150] Setting up conv16_2_conv16_2/relu_0_split
I0228 21:05:23.423686 30547 net.cpp:157] Top shape: 8 256 2 2 (8192)
I0228 21:05:23.423696 30547 net.cpp:157] Top shape: 8 256 2 2 (8192)
I0228 21:05:23.423705 30547 net.cpp:157] Top shape: 8 256 2 2 (8192)
I0228 21:05:23.423717 30547 net.cpp:157] Top shape: 8 256 2 2 (8192)
I0228 21:05:23.423744 30547 net.cpp:165] Memory required for data: 1288605728
I0228 21:05:23.423753 30547 layer_factory.hpp:77] Creating layer conv17_1
I0228 21:05:23.423770 30547 net.cpp:100] Creating Layer conv17_1
I0228 21:05:23.423780 30547 net.cpp:434] conv17_1 <- conv16_2_conv16_2/relu_0_split_0
I0228 21:05:23.423794 30547 net.cpp:408] conv17_1 -> conv17_1
I0228 21:05:23.426676 30547 net.cpp:150] Setting up conv17_1
I0228 21:05:23.426698 30547 net.cpp:157] Top shape: 8 64 2 2 (2048)
I0228 21:05:23.426707 30547 net.cpp:165] Memory required for data: 1288613920
I0228 21:05:23.426718 30547 layer_factory.hpp:77] Creating layer conv17_1/bn
I0228 21:05:23.426741 30547 net.cpp:100] Creating Layer conv17_1/bn
I0228 21:05:23.426753 30547 net.cpp:434] conv17_1/bn <- conv17_1
I0228 21:05:23.426765 30547 net.cpp:395] conv17_1/bn -> conv17_1 (in-place)
I0228 21:05:23.427096 30547 net.cpp:150] Setting up conv17_1/bn
I0228 21:05:23.427109 30547 net.cpp:157] Top shape: 8 64 2 2 (2048)
I0228 21:05:23.427116 30547 net.cpp:165] Memory required for data: 1288622112
I0228 21:05:23.427134 30547 layer_factory.hpp:77] Creating layer conv17_1/scale
I0228 21:05:23.427161 30547 net.cpp:100] Creating Layer conv17_1/scale
I0228 21:05:23.427170 30547 net.cpp:434] conv17_1/scale <- conv17_1
I0228 21:05:23.427182 30547 net.cpp:395] conv17_1/scale -> conv17_1 (in-place)
I0228 21:05:23.427259 30547 layer_factory.hpp:77] Creating layer conv17_1/scale
I0228 21:05:23.427453 30547 net.cpp:150] Setting up conv17_1/scale
I0228 21:05:23.427465 30547 net.cpp:157] Top shape: 8 64 2 2 (2048)
I0228 21:05:23.427472 30547 net.cpp:165] Memory required for data: 1288630304
I0228 21:05:23.427486 30547 layer_factory.hpp:77] Creating layer conv17_1/relu
I0228 21:05:23.427500 30547 net.cpp:100] Creating Layer conv17_1/relu
I0228 21:05:23.427507 30547 net.cpp:434] conv17_1/relu <- conv17_1
I0228 21:05:23.427518 30547 net.cpp:395] conv17_1/relu -> conv17_1 (in-place)
I0228 21:05:23.428807 30547 net.cpp:150] Setting up conv17_1/relu
I0228 21:05:23.428827 30547 net.cpp:157] Top shape: 8 64 2 2 (2048)
I0228 21:05:23.428833 30547 net.cpp:165] Memory required for data: 1288638496
I0228 21:05:23.428843 30547 layer_factory.hpp:77] Creating layer conv17_2
I0228 21:05:23.428871 30547 net.cpp:100] Creating Layer conv17_2
I0228 21:05:23.428882 30547 net.cpp:434] conv17_2 <- conv17_1
I0228 21:05:23.428895 30547 net.cpp:408] conv17_2 -> conv17_2
I0228 21:05:23.433573 30547 net.cpp:150] Setting up conv17_2
I0228 21:05:23.433603 30547 net.cpp:157] Top shape: 8 128 1 1 (1024)
I0228 21:05:23.433610 30547 net.cpp:165] Memory required for data: 1288642592
I0228 21:05:23.433634 30547 layer_factory.hpp:77] Creating layer conv17_2/bn
I0228 21:05:23.433650 30547 net.cpp:100] Creating Layer conv17_2/bn
I0228 21:05:23.433672 30547 net.cpp:434] conv17_2/bn <- conv17_2
I0228 21:05:23.433696 30547 net.cpp:395] conv17_2/bn -> conv17_2 (in-place)
I0228 21:05:23.434026 30547 net.cpp:150] Setting up conv17_2/bn
I0228 21:05:23.434041 30547 net.cpp:157] Top shape: 8 128 1 1 (1024)
I0228 21:05:23.434047 30547 net.cpp:165] Memory required for data: 1288646688
I0228 21:05:23.434064 30547 layer_factory.hpp:77] Creating layer conv17_2/scale
I0228 21:05:23.434079 30547 net.cpp:100] Creating Layer conv17_2/scale
I0228 21:05:23.434090 30547 net.cpp:434] conv17_2/scale <- conv17_2
I0228 21:05:23.434103 30547 net.cpp:395] conv17_2/scale -> conv17_2 (in-place)
I0228 21:05:23.434191 30547 layer_factory.hpp:77] Creating layer conv17_2/scale
I0228 21:05:23.434379 30547 net.cpp:150] Setting up conv17_2/scale
I0228 21:05:23.434392 30547 net.cpp:157] Top shape: 8 128 1 1 (1024)
I0228 21:05:23.434401 30547 net.cpp:165] Memory required for data: 1288650784
I0228 21:05:23.434413 30547 layer_factory.hpp:77] Creating layer conv17_2/relu
I0228 21:05:23.434427 30547 net.cpp:100] Creating Layer conv17_2/relu
I0228 21:05:23.434438 30547 net.cpp:434] conv17_2/relu <- conv17_2
I0228 21:05:23.434449 30547 net.cpp:395] conv17_2/relu -> conv17_2 (in-place)
I0228 21:05:23.434983 30547 net.cpp:150] Setting up conv17_2/relu
I0228 21:05:23.435016 30547 net.cpp:157] Top shape: 8 128 1 1 (1024)
I0228 21:05:23.435025 30547 net.cpp:165] Memory required for data: 1288654880
I0228 21:05:23.435034 30547 layer_factory.hpp:77] Creating layer conv17_2_conv17_2/relu_0_split
I0228 21:05:23.435048 30547 net.cpp:100] Creating Layer conv17_2_conv17_2/relu_0_split
I0228 21:05:23.435058 30547 net.cpp:434] conv17_2_conv17_2/relu_0_split <- conv17_2
I0228 21:05:23.435071 30547 net.cpp:408] conv17_2_conv17_2/relu_0_split -> conv17_2_conv17_2/relu_0_split_0
I0228 21:05:23.435103 30547 net.cpp:408] conv17_2_conv17_2/relu_0_split -> conv17_2_conv17_2/relu_0_split_1
I0228 21:05:23.435117 30547 net.cpp:408] conv17_2_conv17_2/relu_0_split -> conv17_2_conv17_2/relu_0_split_2
I0228 21:05:23.435216 30547 net.cpp:150] Setting up conv17_2_conv17_2/relu_0_split
I0228 21:05:23.435230 30547 net.cpp:157] Top shape: 8 128 1 1 (1024)
I0228 21:05:23.435241 30547 net.cpp:157] Top shape: 8 128 1 1 (1024)
I0228 21:05:23.435250 30547 net.cpp:157] Top shape: 8 128 1 1 (1024)
I0228 21:05:23.435258 30547 net.cpp:165] Memory required for data: 1288667168
I0228 21:05:23.435269 30547 layer_factory.hpp:77] Creating layer conv11_mbox_loc
I0228 21:05:23.435287 30547 net.cpp:100] Creating Layer conv11_mbox_loc
I0228 21:05:23.435297 30547 net.cpp:434] conv11_mbox_loc <- conv11_conv11/relu_0_split_1
I0228 21:05:23.435312 30547 net.cpp:408] conv11_mbox_loc -> conv11_mbox_loc
I0228 21:05:23.438172 30547 net.cpp:150] Setting up conv11_mbox_loc
I0228 21:05:23.438194 30547 net.cpp:157] Top shape: 8 12 19 19 (34656)
I0228 21:05:23.438202 30547 net.cpp:165] Memory required for data: 1288805792
I0228 21:05:23.438228 30547 layer_factory.hpp:77] Creating layer conv11_mbox_loc_perm
I0228 21:05:23.438246 30547 net.cpp:100] Creating Layer conv11_mbox_loc_perm
I0228 21:05:23.438257 30547 net.cpp:434] conv11_mbox_loc_perm <- conv11_mbox_loc
I0228 21:05:23.438271 30547 net.cpp:408] conv11_mbox_loc_perm -> conv11_mbox_loc_perm
I0228 21:05:23.438447 30547 net.cpp:150] Setting up conv11_mbox_loc_perm
I0228 21:05:23.438462 30547 net.cpp:157] Top shape: 8 19 19 12 (34656)
I0228 21:05:23.438469 30547 net.cpp:165] Memory required for data: 1288944416
I0228 21:05:23.438477 30547 layer_factory.hpp:77] Creating layer conv11_mbox_loc_flat
I0228 21:05:23.438491 30547 net.cpp:100] Creating Layer conv11_mbox_loc_flat
I0228 21:05:23.438503 30547 net.cpp:434] conv11_mbox_loc_flat <- conv11_mbox_loc_perm
I0228 21:05:23.438515 30547 net.cpp:408] conv11_mbox_loc_flat -> conv11_mbox_loc_flat
I0228 21:05:23.438566 30547 net.cpp:150] Setting up conv11_mbox_loc_flat
I0228 21:05:23.438578 30547 net.cpp:157] Top shape: 8 4332 (34656)
I0228 21:05:23.438585 30547 net.cpp:165] Memory required for data: 1289083040
I0228 21:05:23.438593 30547 layer_factory.hpp:77] Creating layer conv11_mbox_conf_new
I0228 21:05:23.438611 30547 net.cpp:100] Creating Layer conv11_mbox_conf_new
I0228 21:05:23.438621 30547 net.cpp:434] conv11_mbox_conf_new <- conv11_conv11/relu_0_split_2
I0228 21:05:23.438635 30547 net.cpp:408] conv11_mbox_conf_new -> conv11_mbox_conf
I0228 21:05:23.442334 30547 net.cpp:150] Setting up conv11_mbox_conf_new
I0228 21:05:23.442360 30547 net.cpp:157] Top shape: 8 12 19 19 (34656)
I0228 21:05:23.442368 30547 net.cpp:165] Memory required for data: 1289221664
I0228 21:05:23.442384 30547 layer_factory.hpp:77] Creating layer conv11_mbox_conf_perm
I0228 21:05:23.442414 30547 net.cpp:100] Creating Layer conv11_mbox_conf_perm
I0228 21:05:23.442438 30547 net.cpp:434] conv11_mbox_conf_perm <- conv11_mbox_conf
I0228 21:05:23.442452 30547 net.cpp:408] conv11_mbox_conf_perm -> conv11_mbox_conf_perm
I0228 21:05:23.442631 30547 net.cpp:150] Setting up conv11_mbox_conf_perm
I0228 21:05:23.442644 30547 net.cpp:157] Top shape: 8 19 19 12 (34656)
I0228 21:05:23.442651 30547 net.cpp:165] Memory required for data: 1289360288
I0228 21:05:23.442661 30547 layer_factory.hpp:77] Creating layer conv11_mbox_conf_flat
I0228 21:05:23.442675 30547 net.cpp:100] Creating Layer conv11_mbox_conf_flat
I0228 21:05:23.442687 30547 net.cpp:434] conv11_mbox_conf_flat <- conv11_mbox_conf_perm
I0228 21:05:23.442715 30547 net.cpp:408] conv11_mbox_conf_flat -> conv11_mbox_conf_flat
I0228 21:05:23.442775 30547 net.cpp:150] Setting up conv11_mbox_conf_flat
I0228 21:05:23.442788 30547 net.cpp:157] Top shape: 8 4332 (34656)
I0228 21:05:23.442795 30547 net.cpp:165] Memory required for data: 1289498912
I0228 21:05:23.442803 30547 layer_factory.hpp:77] Creating layer conv11_mbox_priorbox
I0228 21:05:23.442817 30547 net.cpp:100] Creating Layer conv11_mbox_priorbox
I0228 21:05:23.442828 30547 net.cpp:434] conv11_mbox_priorbox <- conv11_conv11/relu_0_split_3
I0228 21:05:23.442840 30547 net.cpp:434] conv11_mbox_priorbox <- data_data_0_split_1
I0228 21:05:23.442854 30547 net.cpp:408] conv11_mbox_priorbox -> conv11_mbox_priorbox
I0228 21:05:23.442908 30547 net.cpp:150] Setting up conv11_mbox_priorbox
I0228 21:05:23.442919 30547 net.cpp:157] Top shape: 1 2 4332 (8664)
I0228 21:05:23.442927 30547 net.cpp:165] Memory required for data: 1289533568
I0228 21:05:23.442935 30547 layer_factory.hpp:77] Creating layer conv13_mbox_loc
I0228 21:05:23.442953 30547 net.cpp:100] Creating Layer conv13_mbox_loc
I0228 21:05:23.442965 30547 net.cpp:434] conv13_mbox_loc <- conv13_conv13/relu_0_split_1
I0228 21:05:23.442977 30547 net.cpp:408] conv13_mbox_loc -> conv13_mbox_loc
I0228 21:05:23.446811 30547 net.cpp:150] Setting up conv13_mbox_loc
I0228 21:05:23.446833 30547 net.cpp:157] Top shape: 8 24 10 10 (19200)
I0228 21:05:23.446841 30547 net.cpp:165] Memory required for data: 1289610368
I0228 21:05:23.446868 30547 layer_factory.hpp:77] Creating layer conv13_mbox_loc_perm
I0228 21:05:23.446894 30547 net.cpp:100] Creating Layer conv13_mbox_loc_perm
I0228 21:05:23.446905 30547 net.cpp:434] conv13_mbox_loc_perm <- conv13_mbox_loc
I0228 21:05:23.446919 30547 net.cpp:408] conv13_mbox_loc_perm -> conv13_mbox_loc_perm
I0228 21:05:23.447101 30547 net.cpp:150] Setting up conv13_mbox_loc_perm
I0228 21:05:23.447114 30547 net.cpp:157] Top shape: 8 10 10 24 (19200)
I0228 21:05:23.447122 30547 net.cpp:165] Memory required for data: 1289687168
I0228 21:05:23.447131 30547 layer_factory.hpp:77] Creating layer conv13_mbox_loc_flat
I0228 21:05:23.447144 30547 net.cpp:100] Creating Layer conv13_mbox_loc_flat
I0228 21:05:23.447154 30547 net.cpp:434] conv13_mbox_loc_flat <- conv13_mbox_loc_perm
I0228 21:05:23.447165 30547 net.cpp:408] conv13_mbox_loc_flat -> conv13_mbox_loc_flat
I0228 21:05:23.447217 30547 net.cpp:150] Setting up conv13_mbox_loc_flat
I0228 21:05:23.447229 30547 net.cpp:157] Top shape: 8 2400 (19200)
I0228 21:05:23.447235 30547 net.cpp:165] Memory required for data: 1289763968
I0228 21:05:23.447243 30547 layer_factory.hpp:77] Creating layer conv13_mbox_conf_new
I0228 21:05:23.447263 30547 net.cpp:100] Creating Layer conv13_mbox_conf_new
I0228 21:05:23.447273 30547 net.cpp:434] conv13_mbox_conf_new <- conv13_conv13/relu_0_split_2
I0228 21:05:23.447286 30547 net.cpp:408] conv13_mbox_conf_new -> conv13_mbox_conf
I0228 21:05:23.450423 30547 net.cpp:150] Setting up conv13_mbox_conf_new
I0228 21:05:23.450445 30547 net.cpp:157] Top shape: 8 24 10 10 (19200)
I0228 21:05:23.450454 30547 net.cpp:165] Memory required for data: 1289840768
I0228 21:05:23.450480 30547 layer_factory.hpp:77] Creating layer conv13_mbox_conf_perm
I0228 21:05:23.450496 30547 net.cpp:100] Creating Layer conv13_mbox_conf_perm
I0228 21:05:23.450507 30547 net.cpp:434] conv13_mbox_conf_perm <- conv13_mbox_conf
I0228 21:05:23.450522 30547 net.cpp:408] conv13_mbox_conf_perm -> conv13_mbox_conf_perm
I0228 21:05:23.450702 30547 net.cpp:150] Setting up conv13_mbox_conf_perm
I0228 21:05:23.450716 30547 net.cpp:157] Top shape: 8 10 10 24 (19200)
I0228 21:05:23.450723 30547 net.cpp:165] Memory required for data: 1289917568
I0228 21:05:23.450731 30547 layer_factory.hpp:77] Creating layer conv13_mbox_conf_flat
I0228 21:05:23.450743 30547 net.cpp:100] Creating Layer conv13_mbox_conf_flat
I0228 21:05:23.450752 30547 net.cpp:434] conv13_mbox_conf_flat <- conv13_mbox_conf_perm
I0228 21:05:23.450763 30547 net.cpp:408] conv13_mbox_conf_flat -> conv13_mbox_conf_flat
I0228 21:05:23.450847 30547 net.cpp:150] Setting up conv13_mbox_conf_flat
I0228 21:05:23.450860 30547 net.cpp:157] Top shape: 8 2400 (19200)
I0228 21:05:23.450865 30547 net.cpp:165] Memory required for data: 1289994368
I0228 21:05:23.450875 30547 layer_factory.hpp:77] Creating layer conv13_mbox_priorbox
I0228 21:05:23.450889 30547 net.cpp:100] Creating Layer conv13_mbox_priorbox
I0228 21:05:23.450899 30547 net.cpp:434] conv13_mbox_priorbox <- conv13_conv13/relu_0_split_3
I0228 21:05:23.450912 30547 net.cpp:434] conv13_mbox_priorbox <- data_data_0_split_2
I0228 21:05:23.450927 30547 net.cpp:408] conv13_mbox_priorbox -> conv13_mbox_priorbox
I0228 21:05:23.450980 30547 net.cpp:150] Setting up conv13_mbox_priorbox
I0228 21:05:23.450992 30547 net.cpp:157] Top shape: 1 2 2400 (4800)
I0228 21:05:23.450999 30547 net.cpp:165] Memory required for data: 1290013568
I0228 21:05:23.451007 30547 layer_factory.hpp:77] Creating layer conv14_2_mbox_loc
I0228 21:05:23.451027 30547 net.cpp:100] Creating Layer conv14_2_mbox_loc
I0228 21:05:23.451036 30547 net.cpp:434] conv14_2_mbox_loc <- conv14_2_conv14_2/relu_0_split_1
I0228 21:05:23.451050 30547 net.cpp:408] conv14_2_mbox_loc -> conv14_2_mbox_loc
I0228 21:05:23.454159 30547 net.cpp:150] Setting up conv14_2_mbox_loc
I0228 21:05:23.454180 30547 net.cpp:157] Top shape: 8 24 5 5 (4800)
I0228 21:05:23.454187 30547 net.cpp:165] Memory required for data: 1290032768
I0228 21:05:23.454201 30547 layer_factory.hpp:77] Creating layer conv14_2_mbox_loc_perm
I0228 21:05:23.454217 30547 net.cpp:100] Creating Layer conv14_2_mbox_loc_perm
I0228 21:05:23.454241 30547 net.cpp:434] conv14_2_mbox_loc_perm <- conv14_2_mbox_loc
I0228 21:05:23.454255 30547 net.cpp:408] conv14_2_mbox_loc_perm -> conv14_2_mbox_loc_perm
I0228 21:05:23.454444 30547 net.cpp:150] Setting up conv14_2_mbox_loc_perm
I0228 21:05:23.454457 30547 net.cpp:157] Top shape: 8 5 5 24 (4800)
I0228 21:05:23.454465 30547 net.cpp:165] Memory required for data: 1290051968
I0228 21:05:23.454473 30547 layer_factory.hpp:77] Creating layer conv14_2_mbox_loc_flat
I0228 21:05:23.454485 30547 net.cpp:100] Creating Layer conv14_2_mbox_loc_flat
I0228 21:05:23.454495 30547 net.cpp:434] conv14_2_mbox_loc_flat <- conv14_2_mbox_loc_perm
I0228 21:05:23.454509 30547 net.cpp:408] conv14_2_mbox_loc_flat -> conv14_2_mbox_loc_flat
I0228 21:05:23.454576 30547 net.cpp:150] Setting up conv14_2_mbox_loc_flat
I0228 21:05:23.454586 30547 net.cpp:157] Top shape: 8 600 (4800)
I0228 21:05:23.454594 30547 net.cpp:165] Memory required for data: 1290071168
I0228 21:05:23.454602 30547 layer_factory.hpp:77] Creating layer conv14_2_mbox_conf_new
I0228 21:05:23.454622 30547 net.cpp:100] Creating Layer conv14_2_mbox_conf_new
I0228 21:05:23.454632 30547 net.cpp:434] conv14_2_mbox_conf_new <- conv14_2_conv14_2/relu_0_split_2
I0228 21:05:23.454650 30547 net.cpp:408] conv14_2_mbox_conf_new -> conv14_2_mbox_conf
I0228 21:05:23.460469 30547 net.cpp:150] Setting up conv14_2_mbox_conf_new
I0228 21:05:23.460496 30547 net.cpp:157] Top shape: 8 24 5 5 (4800)
I0228 21:05:23.460503 30547 net.cpp:165] Memory required for data: 1290090368
I0228 21:05:23.460530 30547 layer_factory.hpp:77] Creating layer conv14_2_mbox_conf_perm
I0228 21:05:23.460562 30547 net.cpp:100] Creating Layer conv14_2_mbox_conf_perm
I0228 21:05:23.460574 30547 net.cpp:434] conv14_2_mbox_conf_perm <- conv14_2_mbox_conf
I0228 21:05:23.460587 30547 net.cpp:408] conv14_2_mbox_conf_perm -> conv14_2_mbox_conf_perm
I0228 21:05:23.460806 30547 net.cpp:150] Setting up conv14_2_mbox_conf_perm
I0228 21:05:23.460824 30547 net.cpp:157] Top shape: 8 5 5 24 (4800)
I0228 21:05:23.460830 30547 net.cpp:165] Memory required for data: 1290109568
I0228 21:05:23.460839 30547 layer_factory.hpp:77] Creating layer conv14_2_mbox_conf_flat
I0228 21:05:23.460851 30547 net.cpp:100] Creating Layer conv14_2_mbox_conf_flat
I0228 21:05:23.460861 30547 net.cpp:434] conv14_2_mbox_conf_flat <- conv14_2_mbox_conf_perm
I0228 21:05:23.460875 30547 net.cpp:408] conv14_2_mbox_conf_flat -> conv14_2_mbox_conf_flat
I0228 21:05:23.460939 30547 net.cpp:150] Setting up conv14_2_mbox_conf_flat
I0228 21:05:23.460968 30547 net.cpp:157] Top shape: 8 600 (4800)
I0228 21:05:23.460973 30547 net.cpp:165] Memory required for data: 1290128768
I0228 21:05:23.460979 30547 layer_factory.hpp:77] Creating layer conv14_2_mbox_priorbox
I0228 21:05:23.460992 30547 net.cpp:100] Creating Layer conv14_2_mbox_priorbox
I0228 21:05:23.461000 30547 net.cpp:434] conv14_2_mbox_priorbox <- conv14_2_conv14_2/relu_0_split_3
I0228 21:05:23.461009 30547 net.cpp:434] conv14_2_mbox_priorbox <- data_data_0_split_3
I0228 21:05:23.461017 30547 net.cpp:408] conv14_2_mbox_priorbox -> conv14_2_mbox_priorbox
I0228 21:05:23.461069 30547 net.cpp:150] Setting up conv14_2_mbox_priorbox
I0228 21:05:23.461081 30547 net.cpp:157] Top shape: 1 2 600 (1200)
I0228 21:05:23.461086 30547 net.cpp:165] Memory required for data: 1290133568
I0228 21:05:23.461091 30547 layer_factory.hpp:77] Creating layer conv15_2_mbox_loc
I0228 21:05:23.461107 30547 net.cpp:100] Creating Layer conv15_2_mbox_loc
I0228 21:05:23.461114 30547 net.cpp:434] conv15_2_mbox_loc <- conv15_2_conv15_2/relu_0_split_1
I0228 21:05:23.461123 30547 net.cpp:408] conv15_2_mbox_loc -> conv15_2_mbox_loc
I0228 21:05:23.464426 30547 net.cpp:150] Setting up conv15_2_mbox_loc
I0228 21:05:23.464445 30547 net.cpp:157] Top shape: 8 24 3 3 (1728)
I0228 21:05:23.464452 30547 net.cpp:165] Memory required for data: 1290140480
I0228 21:05:23.464464 30547 layer_factory.hpp:77] Creating layer conv15_2_mbox_loc_perm
I0228 21:05:23.464478 30547 net.cpp:100] Creating Layer conv15_2_mbox_loc_perm
I0228 21:05:23.464486 30547 net.cpp:434] conv15_2_mbox_loc_perm <- conv15_2_mbox_loc
I0228 21:05:23.464495 30547 net.cpp:408] conv15_2_mbox_loc_perm -> conv15_2_mbox_loc_perm
I0228 21:05:23.464679 30547 net.cpp:150] Setting up conv15_2_mbox_loc_perm
I0228 21:05:23.464689 30547 net.cpp:157] Top shape: 8 3 3 24 (1728)
I0228 21:05:23.464695 30547 net.cpp:165] Memory required for data: 1290147392
I0228 21:05:23.464701 30547 layer_factory.hpp:77] Creating layer conv15_2_mbox_loc_flat
I0228 21:05:23.464711 30547 net.cpp:100] Creating Layer conv15_2_mbox_loc_flat
I0228 21:05:23.464720 30547 net.cpp:434] conv15_2_mbox_loc_flat <- conv15_2_mbox_loc_perm
I0228 21:05:23.464727 30547 net.cpp:408] conv15_2_mbox_loc_flat -> conv15_2_mbox_loc_flat
I0228 21:05:23.464768 30547 net.cpp:150] Setting up conv15_2_mbox_loc_flat
I0228 21:05:23.464777 30547 net.cpp:157] Top shape: 8 216 (1728)
I0228 21:05:23.464782 30547 net.cpp:165] Memory required for data: 1290154304
I0228 21:05:23.464788 30547 layer_factory.hpp:77] Creating layer conv15_2_mbox_conf_new
I0228 21:05:23.464804 30547 net.cpp:100] Creating Layer conv15_2_mbox_conf_new
I0228 21:05:23.464813 30547 net.cpp:434] conv15_2_mbox_conf_new <- conv15_2_conv15_2/relu_0_split_2
I0228 21:05:23.464824 30547 net.cpp:408] conv15_2_mbox_conf_new -> conv15_2_mbox_conf
I0228 21:05:23.471441 30547 net.cpp:150] Setting up conv15_2_mbox_conf_new
I0228 21:05:23.471488 30547 net.cpp:157] Top shape: 8 24 3 3 (1728)
I0228 21:05:23.471494 30547 net.cpp:165] Memory required for data: 1290161216
I0228 21:05:23.471509 30547 layer_factory.hpp:77] Creating layer conv15_2_mbox_conf_perm
I0228 21:05:23.471527 30547 net.cpp:100] Creating Layer conv15_2_mbox_conf_perm
I0228 21:05:23.471536 30547 net.cpp:434] conv15_2_mbox_conf_perm <- conv15_2_mbox_conf
I0228 21:05:23.471563 30547 net.cpp:408] conv15_2_mbox_conf_perm -> conv15_2_mbox_conf_perm
I0228 21:05:23.471756 30547 net.cpp:150] Setting up conv15_2_mbox_conf_perm
I0228 21:05:23.471768 30547 net.cpp:157] Top shape: 8 3 3 24 (1728)
I0228 21:05:23.471773 30547 net.cpp:165] Memory required for data: 1290168128
I0228 21:05:23.471779 30547 layer_factory.hpp:77] Creating layer conv15_2_mbox_conf_flat
I0228 21:05:23.471791 30547 net.cpp:100] Creating Layer conv15_2_mbox_conf_flat
I0228 21:05:23.471796 30547 net.cpp:434] conv15_2_mbox_conf_flat <- conv15_2_mbox_conf_perm
I0228 21:05:23.471807 30547 net.cpp:408] conv15_2_mbox_conf_flat -> conv15_2_mbox_conf_flat
I0228 21:05:23.471848 30547 net.cpp:150] Setting up conv15_2_mbox_conf_flat
I0228 21:05:23.471858 30547 net.cpp:157] Top shape: 8 216 (1728)
I0228 21:05:23.471882 30547 net.cpp:165] Memory required for data: 1290175040
I0228 21:05:23.471889 30547 layer_factory.hpp:77] Creating layer conv15_2_mbox_priorbox
I0228 21:05:23.471902 30547 net.cpp:100] Creating Layer conv15_2_mbox_priorbox
I0228 21:05:23.471910 30547 net.cpp:434] conv15_2_mbox_priorbox <- conv15_2_conv15_2/relu_0_split_3
I0228 21:05:23.471920 30547 net.cpp:434] conv15_2_mbox_priorbox <- data_data_0_split_4
I0228 21:05:23.471933 30547 net.cpp:408] conv15_2_mbox_priorbox -> conv15_2_mbox_priorbox
I0228 21:05:23.471985 30547 net.cpp:150] Setting up conv15_2_mbox_priorbox
I0228 21:05:23.471995 30547 net.cpp:157] Top shape: 1 2 216 (432)
I0228 21:05:23.472002 30547 net.cpp:165] Memory required for data: 1290176768
I0228 21:05:23.472012 30547 layer_factory.hpp:77] Creating layer conv16_2_mbox_loc
I0228 21:05:23.472038 30547 net.cpp:100] Creating Layer conv16_2_mbox_loc
I0228 21:05:23.472046 30547 net.cpp:434] conv16_2_mbox_loc <- conv16_2_conv16_2/relu_0_split_1
I0228 21:05:23.472056 30547 net.cpp:408] conv16_2_mbox_loc -> conv16_2_mbox_loc
I0228 21:05:23.476287 30547 net.cpp:150] Setting up conv16_2_mbox_loc
I0228 21:05:23.476315 30547 net.cpp:157] Top shape: 8 24 2 2 (768)
I0228 21:05:23.476320 30547 net.cpp:165] Memory required for data: 1290179840
I0228 21:05:23.476331 30547 layer_factory.hpp:77] Creating layer conv16_2_mbox_loc_perm
I0228 21:05:23.476378 30547 net.cpp:100] Creating Layer conv16_2_mbox_loc_perm
I0228 21:05:23.476387 30547 net.cpp:434] conv16_2_mbox_loc_perm <- conv16_2_mbox_loc
I0228 21:05:23.476398 30547 net.cpp:408] conv16_2_mbox_loc_perm -> conv16_2_mbox_loc_perm
I0228 21:05:23.476583 30547 net.cpp:150] Setting up conv16_2_mbox_loc_perm
I0228 21:05:23.476594 30547 net.cpp:157] Top shape: 8 2 2 24 (768)
I0228 21:05:23.476600 30547 net.cpp:165] Memory required for data: 1290182912
I0228 21:05:23.476606 30547 layer_factory.hpp:77] Creating layer conv16_2_mbox_loc_flat
I0228 21:05:23.476616 30547 net.cpp:100] Creating Layer conv16_2_mbox_loc_flat
I0228 21:05:23.476624 30547 net.cpp:434] conv16_2_mbox_loc_flat <- conv16_2_mbox_loc_perm
I0228 21:05:23.476634 30547 net.cpp:408] conv16_2_mbox_loc_flat -> conv16_2_mbox_loc_flat
I0228 21:05:23.476675 30547 net.cpp:150] Setting up conv16_2_mbox_loc_flat
I0228 21:05:23.476685 30547 net.cpp:157] Top shape: 8 96 (768)
I0228 21:05:23.476689 30547 net.cpp:165] Memory required for data: 1290185984
I0228 21:05:23.476696 30547 layer_factory.hpp:77] Creating layer conv16_2_mbox_conf_new
I0228 21:05:23.476714 30547 net.cpp:100] Creating Layer conv16_2_mbox_conf_new
I0228 21:05:23.476722 30547 net.cpp:434] conv16_2_mbox_conf_new <- conv16_2_conv16_2/relu_0_split_2
I0228 21:05:23.476732 30547 net.cpp:408] conv16_2_mbox_conf_new -> conv16_2_mbox_conf
I0228 21:05:23.483502 30547 net.cpp:150] Setting up conv16_2_mbox_conf_new
I0228 21:05:23.483552 30547 net.cpp:157] Top shape: 8 24 2 2 (768)
I0228 21:05:23.483561 30547 net.cpp:165] Memory required for data: 1290189056
I0228 21:05:23.483582 30547 layer_factory.hpp:77] Creating layer conv16_2_mbox_conf_perm
I0228 21:05:23.483614 30547 net.cpp:100] Creating Layer conv16_2_mbox_conf_perm
I0228 21:05:23.483638 30547 net.cpp:434] conv16_2_mbox_conf_perm <- conv16_2_mbox_conf
I0228 21:05:23.483664 30547 net.cpp:408] conv16_2_mbox_conf_perm -> conv16_2_mbox_conf_perm
I0228 21:05:23.483875 30547 net.cpp:150] Setting up conv16_2_mbox_conf_perm
I0228 21:05:23.483887 30547 net.cpp:157] Top shape: 8 2 2 24 (768)
I0228 21:05:23.483892 30547 net.cpp:165] Memory required for data: 1290192128
I0228 21:05:23.483897 30547 layer_factory.hpp:77] Creating layer conv16_2_mbox_conf_flat
I0228 21:05:23.483907 30547 net.cpp:100] Creating Layer conv16_2_mbox_conf_flat
I0228 21:05:23.483914 30547 net.cpp:434] conv16_2_mbox_conf_flat <- conv16_2_mbox_conf_perm
I0228 21:05:23.483927 30547 net.cpp:408] conv16_2_mbox_conf_flat -> conv16_2_mbox_conf_flat
I0228 21:05:23.483980 30547 net.cpp:150] Setting up conv16_2_mbox_conf_flat
I0228 21:05:23.483994 30547 net.cpp:157] Top shape: 8 96 (768)
I0228 21:05:23.484002 30547 net.cpp:165] Memory required for data: 1290195200
I0228 21:05:23.484035 30547 layer_factory.hpp:77] Creating layer conv16_2_mbox_priorbox
I0228 21:05:23.484048 30547 net.cpp:100] Creating Layer conv16_2_mbox_priorbox
I0228 21:05:23.484056 30547 net.cpp:434] conv16_2_mbox_priorbox <- conv16_2_conv16_2/relu_0_split_3
I0228 21:05:23.484066 30547 net.cpp:434] conv16_2_mbox_priorbox <- data_data_0_split_5
I0228 21:05:23.484077 30547 net.cpp:408] conv16_2_mbox_priorbox -> conv16_2_mbox_priorbox
I0228 21:05:23.484131 30547 net.cpp:150] Setting up conv16_2_mbox_priorbox
I0228 21:05:23.484143 30547 net.cpp:157] Top shape: 1 2 96 (192)
I0228 21:05:23.484153 30547 net.cpp:165] Memory required for data: 1290195968
I0228 21:05:23.484158 30547 layer_factory.hpp:77] Creating layer conv17_2_mbox_loc
I0228 21:05:23.484179 30547 net.cpp:100] Creating Layer conv17_2_mbox_loc
I0228 21:05:23.484187 30547 net.cpp:434] conv17_2_mbox_loc <- conv17_2_conv17_2/relu_0_split_0
I0228 21:05:23.484199 30547 net.cpp:408] conv17_2_mbox_loc -> conv17_2_mbox_loc
I0228 21:05:23.487823 30547 net.cpp:150] Setting up conv17_2_mbox_loc
I0228 21:05:23.487848 30547 net.cpp:157] Top shape: 8 24 1 1 (192)
I0228 21:05:23.487854 30547 net.cpp:165] Memory required for data: 1290196736
I0228 21:05:23.487869 30547 layer_factory.hpp:77] Creating layer conv17_2_mbox_loc_perm
I0228 21:05:23.487884 30547 net.cpp:100] Creating Layer conv17_2_mbox_loc_perm
I0228 21:05:23.487891 30547 net.cpp:434] conv17_2_mbox_loc_perm <- conv17_2_mbox_loc
I0228 21:05:23.487902 30547 net.cpp:408] conv17_2_mbox_loc_perm -> conv17_2_mbox_loc_perm
I0228 21:05:23.488112 30547 net.cpp:150] Setting up conv17_2_mbox_loc_perm
I0228 21:05:23.488123 30547 net.cpp:157] Top shape: 8 1 1 24 (192)
I0228 21:05:23.488128 30547 net.cpp:165] Memory required for data: 1290197504
I0228 21:05:23.488134 30547 layer_factory.hpp:77] Creating layer conv17_2_mbox_loc_flat
I0228 21:05:23.488144 30547 net.cpp:100] Creating Layer conv17_2_mbox_loc_flat
I0228 21:05:23.488154 30547 net.cpp:434] conv17_2_mbox_loc_flat <- conv17_2_mbox_loc_perm
I0228 21:05:23.488162 30547 net.cpp:408] conv17_2_mbox_loc_flat -> conv17_2_mbox_loc_flat
I0228 21:05:23.488209 30547 net.cpp:150] Setting up conv17_2_mbox_loc_flat
I0228 21:05:23.488219 30547 net.cpp:157] Top shape: 8 24 (192)
I0228 21:05:23.488224 30547 net.cpp:165] Memory required for data: 1290198272
I0228 21:05:23.488229 30547 layer_factory.hpp:77] Creating layer conv17_2_mbox_conf_new
I0228 21:05:23.488250 30547 net.cpp:100] Creating Layer conv17_2_mbox_conf_new
I0228 21:05:23.488261 30547 net.cpp:434] conv17_2_mbox_conf_new <- conv17_2_conv17_2/relu_0_split_1
I0228 21:05:23.488277 30547 net.cpp:408] conv17_2_mbox_conf_new -> conv17_2_mbox_conf
I0228 21:05:23.492207 30547 net.cpp:150] Setting up conv17_2_mbox_conf_new
I0228 21:05:23.492234 30547 net.cpp:157] Top shape: 8 24 1 1 (192)
I0228 21:05:23.492240 30547 net.cpp:165] Memory required for data: 1290199040
I0228 21:05:23.492256 30547 layer_factory.hpp:77] Creating layer conv17_2_mbox_conf_perm
I0228 21:05:23.492285 30547 net.cpp:100] Creating Layer conv17_2_mbox_conf_perm
I0228 21:05:23.492300 30547 net.cpp:434] conv17_2_mbox_conf_perm <- conv17_2_mbox_conf
I0228 21:05:23.492321 30547 net.cpp:408] conv17_2_mbox_conf_perm -> conv17_2_mbox_conf_perm
I0228 21:05:23.492588 30547 net.cpp:150] Setting up conv17_2_mbox_conf_perm
I0228 21:05:23.492606 30547 net.cpp:157] Top shape: 8 1 1 24 (192)
I0228 21:05:23.492616 30547 net.cpp:165] Memory required for data: 1290199808
I0228 21:05:23.492626 30547 layer_factory.hpp:77] Creating layer conv17_2_mbox_conf_flat
I0228 21:05:23.492642 30547 net.cpp:100] Creating Layer conv17_2_mbox_conf_flat
I0228 21:05:23.492651 30547 net.cpp:434] conv17_2_mbox_conf_flat <- conv17_2_mbox_conf_perm
I0228 21:05:23.492660 30547 net.cpp:408] conv17_2_mbox_conf_flat -> conv17_2_mbox_conf_flat
I0228 21:05:23.492713 30547 net.cpp:150] Setting up conv17_2_mbox_conf_flat
I0228 21:05:23.492723 30547 net.cpp:157] Top shape: 8 24 (192)
I0228 21:05:23.492728 30547 net.cpp:165] Memory required for data: 1290200576
I0228 21:05:23.492754 30547 layer_factory.hpp:77] Creating layer conv17_2_mbox_priorbox
I0228 21:05:23.492769 30547 net.cpp:100] Creating Layer conv17_2_mbox_priorbox
I0228 21:05:23.492776 30547 net.cpp:434] conv17_2_mbox_priorbox <- conv17_2_conv17_2/relu_0_split_2
I0228 21:05:23.492785 30547 net.cpp:434] conv17_2_mbox_priorbox <- data_data_0_split_6
I0228 21:05:23.492795 30547 net.cpp:408] conv17_2_mbox_priorbox -> conv17_2_mbox_priorbox
I0228 21:05:23.492869 30547 net.cpp:150] Setting up conv17_2_mbox_priorbox
I0228 21:05:23.492878 30547 net.cpp:157] Top shape: 1 2 24 (48)
I0228 21:05:23.492883 30547 net.cpp:165] Memory required for data: 1290200768
I0228 21:05:23.492889 30547 layer_factory.hpp:77] Creating layer mbox_loc
I0228 21:05:23.492903 30547 net.cpp:100] Creating Layer mbox_loc
I0228 21:05:23.492911 30547 net.cpp:434] mbox_loc <- conv11_mbox_loc_flat
I0228 21:05:23.492921 30547 net.cpp:434] mbox_loc <- conv13_mbox_loc_flat
I0228 21:05:23.492934 30547 net.cpp:434] mbox_loc <- conv14_2_mbox_loc_flat
I0228 21:05:23.492949 30547 net.cpp:434] mbox_loc <- conv15_2_mbox_loc_flat
I0228 21:05:23.492964 30547 net.cpp:434] mbox_loc <- conv16_2_mbox_loc_flat
I0228 21:05:23.492980 30547 net.cpp:434] mbox_loc <- conv17_2_mbox_loc_flat
I0228 21:05:23.492998 30547 net.cpp:408] mbox_loc -> mbox_loc
I0228 21:05:23.493054 30547 net.cpp:150] Setting up mbox_loc
I0228 21:05:23.493063 30547 net.cpp:157] Top shape: 8 7668 (61344)
I0228 21:05:23.493069 30547 net.cpp:165] Memory required for data: 1290446144
I0228 21:05:23.493074 30547 layer_factory.hpp:77] Creating layer mbox_conf
I0228 21:05:23.493084 30547 net.cpp:100] Creating Layer mbox_conf
I0228 21:05:23.493093 30547 net.cpp:434] mbox_conf <- conv11_mbox_conf_flat
I0228 21:05:23.493098 30547 net.cpp:434] mbox_conf <- conv13_mbox_conf_flat
I0228 21:05:23.493106 30547 net.cpp:434] mbox_conf <- conv14_2_mbox_conf_flat
I0228 21:05:23.493118 30547 net.cpp:434] mbox_conf <- conv15_2_mbox_conf_flat
I0228 21:05:23.493126 30547 net.cpp:434] mbox_conf <- conv16_2_mbox_conf_flat
I0228 21:05:23.493139 30547 net.cpp:434] mbox_conf <- conv17_2_mbox_conf_flat
I0228 21:05:23.493151 30547 net.cpp:408] mbox_conf -> mbox_conf
I0228 21:05:23.493192 30547 net.cpp:150] Setting up mbox_conf
I0228 21:05:23.493201 30547 net.cpp:157] Top shape: 8 7668 (61344)
I0228 21:05:23.493206 30547 net.cpp:165] Memory required for data: 1290691520
I0228 21:05:23.493212 30547 layer_factory.hpp:77] Creating layer mbox_priorbox
I0228 21:05:23.493221 30547 net.cpp:100] Creating Layer mbox_priorbox
I0228 21:05:23.493228 30547 net.cpp:434] mbox_priorbox <- conv11_mbox_priorbox
I0228 21:05:23.493238 30547 net.cpp:434] mbox_priorbox <- conv13_mbox_priorbox
I0228 21:05:23.493250 30547 net.cpp:434] mbox_priorbox <- conv14_2_mbox_priorbox
I0228 21:05:23.493263 30547 net.cpp:434] mbox_priorbox <- conv15_2_mbox_priorbox
I0228 21:05:23.493270 30547 net.cpp:434] mbox_priorbox <- conv16_2_mbox_priorbox
I0228 21:05:23.493278 30547 net.cpp:434] mbox_priorbox <- conv17_2_mbox_priorbox
I0228 21:05:23.493285 30547 net.cpp:408] mbox_priorbox -> mbox_priorbox
I0228 21:05:23.493324 30547 net.cpp:150] Setting up mbox_priorbox
I0228 21:05:23.493337 30547 net.cpp:157] Top shape: 1 2 7668 (15336)
I0228 21:05:23.493348 30547 net.cpp:165] Memory required for data: 1290752864
I0228 21:05:23.493357 30547 layer_factory.hpp:77] Creating layer mbox_conf_reshape
I0228 21:05:23.493371 30547 net.cpp:100] Creating Layer mbox_conf_reshape
I0228 21:05:23.493377 30547 net.cpp:434] mbox_conf_reshape <- mbox_conf
I0228 21:05:23.493387 30547 net.cpp:408] mbox_conf_reshape -> mbox_conf_reshape
I0228 21:05:23.493436 30547 net.cpp:150] Setting up mbox_conf_reshape
I0228 21:05:23.493453 30547 net.cpp:157] Top shape: 8 1917 4 (61344)
I0228 21:05:23.493463 30547 net.cpp:165] Memory required for data: 1290998240
I0228 21:05:23.493468 30547 layer_factory.hpp:77] Creating layer mbox_conf_softmax
I0228 21:05:23.493479 30547 net.cpp:100] Creating Layer mbox_conf_softmax
I0228 21:05:23.493492 30547 net.cpp:434] mbox_conf_softmax <- mbox_conf_reshape
I0228 21:05:23.493512 30547 net.cpp:408] mbox_conf_softmax -> mbox_conf_softmax
I0228 21:05:23.494273 30547 net.cpp:150] Setting up mbox_conf_softmax
I0228 21:05:23.494288 30547 net.cpp:157] Top shape: 8 1917 4 (61344)
I0228 21:05:23.494294 30547 net.cpp:165] Memory required for data: 1291243616
I0228 21:05:23.494299 30547 layer_factory.hpp:77] Creating layer mbox_conf_flatten
I0228 21:05:23.494313 30547 net.cpp:100] Creating Layer mbox_conf_flatten
I0228 21:05:23.494321 30547 net.cpp:434] mbox_conf_flatten <- mbox_conf_softmax
I0228 21:05:23.494330 30547 net.cpp:408] mbox_conf_flatten -> mbox_conf_flatten
I0228 21:05:23.494374 30547 net.cpp:150] Setting up mbox_conf_flatten
I0228 21:05:23.494384 30547 net.cpp:157] Top shape: 8 7668 (61344)
I0228 21:05:23.494388 30547 net.cpp:165] Memory required for data: 1291488992
I0228 21:05:23.494395 30547 layer_factory.hpp:77] Creating layer detection_out
I0228 21:05:23.494411 30547 net.cpp:100] Creating Layer detection_out
I0228 21:05:23.494418 30547 net.cpp:434] detection_out <- mbox_loc
I0228 21:05:23.494426 30547 net.cpp:434] detection_out <- mbox_conf_flatten
I0228 21:05:23.494434 30547 net.cpp:434] detection_out <- mbox_priorbox
I0228 21:05:23.494444 30547 net.cpp:408] detection_out -> detection_out
I0228 21:05:23.494539 30547 net.cpp:150] Setting up detection_out
I0228 21:05:23.494549 30547 net.cpp:157] Top shape: 1 1 1 7 (7)
I0228 21:05:23.494554 30547 net.cpp:165] Memory required for data: 1291489020
I0228 21:05:23.494560 30547 layer_factory.hpp:77] Creating layer detection_eval
I0228 21:05:23.494571 30547 net.cpp:100] Creating Layer detection_eval
I0228 21:05:23.494580 30547 net.cpp:434] detection_eval <- detection_out
I0228 21:05:23.494587 30547 net.cpp:434] detection_eval <- label
I0228 21:05:23.494596 30547 net.cpp:408] detection_eval -> detection_eval
I0228 21:05:23.494669 30547 net.cpp:150] Setting up detection_eval
I0228 21:05:23.494680 30547 net.cpp:157] Top shape: 1 1 4 5 (20)
I0228 21:05:23.494685 30547 net.cpp:165] Memory required for data: 1291489100
I0228 21:05:23.494691 30547 net.cpp:228] detection_eval does not need backward computation.
I0228 21:05:23.494698 30547 net.cpp:228] detection_out does not need backward computation.
I0228 21:05:23.494705 30547 net.cpp:228] mbox_conf_flatten does not need backward computation.
I0228 21:05:23.494714 30547 net.cpp:228] mbox_conf_softmax does not need backward computation.
…
