…
    batch_sampler {
      sampler {
        min_scale: 0.3
        max_scale: 1
        min_aspect_ratio: 0.5
        max_aspect_ratio: 2
      }
      sample_constraint {
        min_jaccard_overlap: 0.9
      }
      max_sample: 1
      max_trials: 50
    }
    batch_sampler {
      sampler {
        min_scale: 0.3
        max_scale: 1
        min_aspect_ratio: 0.5
        max_aspect_ratio: 2
      }
      sample_constraint {
        max_jaccard_overlap: 1
      }
      max_sample: 1
      max_trials: 50
    }
    label_map_file: "labelmap.prototxt"
  }
}
layer {
  name: "conv0"
  type: "Convolution"
  bottom: "data"
  top: "conv0"
  param {
    lr_mult: 0.1
    decay_mult: 0.1
  }
  convolution_param {
    num_output: 32
    bias_term: false
    pad: 1
    kernel_size: 3
    stride: 2
    weight_filler {
      type: "msra"
    }
  }
}
layer {
  name: "conv0/bn"
  type: "BatchNorm"
  bottom: "conv0"
  top: "conv0"
}
layer {
  name: "conv0/scale"
  type: "Scale"
  bottom: "conv0"
  top: "conv0"
  param {
    lr_mult: 0.1
    decay_mult: 0
  }
  param {
    lr_mult: 0.2
    decay_mult: 0
  }
  scale_param {
    filler {
      value: 1
    }
    bias_term: true
    bias_filler {
      value: 0
    }
  }
}
layer {
  name: "conv0/relu"
  type: "ReLU"
  bottom: "conv0"
  top: "conv0"
}
layer {
  name: "conv1/dw"
  type: "Convolution"
  bottom: "conv0"
  top: "conv1/dw"
  param {
    lr_mult: 0.1
    decay_mult: 0.1
  }
  convolution_param {
    num_output: 32
    bias_term: false
    pad: 1
    kernel_size: 3
    group: 32
    weight_filler {
      type: "msra"
    }
    engine: CAFFE
  }
}
layer {
  name: "conv1/dw/bn"
  type: "BatchNorm"
  bottom: "conv1/dw"
  top: "conv1/dw"
}
layer {
  name: "conv1/dw/scale"
  type: "Scale"
  bottom: "conv1/dw"
  top: "conv1/dw"
  param {
    lr_mult: 0.1
    decay_mult: 0
  }
  param {
    lr_mult: 0.2
    decay_mult: 0
  }
  scale_param {
    filler {
      value: 1
    }
    bias_term: true
    bias_filler {
      value: 0
    }
  }
}
layer {
  name: "conv1/dw/relu"
  type: "ReLU"
  bottom: "conv1/dw"
  top: "conv1/dw"
}
layer {
  name: "conv1"
  type: "Convolution"
  bottom: "conv1/dw"
  top: "conv1"
  param {
    lr_mult: 0.1
    decay_mult: 0.1
  }
  convolution_param {
    num_output: 64
    bias_term: false
    kernel_size: 1
    weight_filler {
      type: "msra"
    }
  }
}
layer {
  name: "conv1/bn"
  type: "BatchNorm"
  bottom: "conv1"
  top: "conv1"
}
layer {
  name: "conv1/scale"
  type: "Scale"
  bottom: "conv1"
  top: "conv1"
  param {
    lr_mult: 0.1
    decay_mult: 0
  }
  param {
    lr_mult: 0.2
    decay_mult: 0
  }
  scale_param {
    filler {
      value: 1
    }
    bias_term: true
    bias_filler {
      value: 0
    }
  }
}
layer {
  name: "conv1/relu"
  type: "ReLU"
  bottom: "conv1"
  top: "conv1"
}
layer {
  name: "conv2/dw"
  type: "Convolution"
  bottom: "conv1"
  top: "conv2/dw"
  param {
    lr_mult: 0.1
    decay_mult: 0.1
  }
  convolution_param {
    num_output: 64
    bias_term: false
    pad: 1
    kernel_size: 3
    group: 64
    stride: 2
    weight_filler {
      type: "msra"
    }
    engine: CAFFE
  }
}
layer {
  name: "conv2/dw/bn"
  type: "BatchNorm"
  bottom: "conv2/dw"
  top: "conv2/dw"
}
layer {
  name: "conv2/dw/scale"
  type: "Scale"
  bottom: "conv2/dw"
  top: "conv2/dw"
  param {
    lr_mult: 0.1
    decay_mult: 0
  }
  param {
    lr_mult: 0.2
    decay_mult: 0
  }
  scale_param {
    filler {
      value: 1
    }
    bias_term: true
    bias_filler {
      value: 0
    }
  }
}
layer {
  name: "conv2/dw/relu"
  type: "ReLU"
  bottom: "conv2/dw"
  top: "conv2/dw"
}
layer {
  name: "conv2"
  type: "Convolution"
  bottom: "conv2/dw"
  top: "conv2"
  param {
    lr_mult: 0.1
    decay_mult: 0.1
  }
  convolution_param {
    num_output: 128
    bias_term: false
    kernel_size: 1
    weight_filler {
      type: "msra"
    }
  }
}
layer {
  name: "conv2/bn"
  type: "BatchNorm"
  bottom: "conv2"
  top: "conv2"
}
layer {
  name: "conv2/scale"
  type: "Scale"
  bottom: "conv2"
  top: "conv2"
  param {
    lr_mult: 0.1
    decay_mult: 0
  }
  param {
    lr_mult: 0.2
    decay_mult: 0
  }
  scale_param {
    filler {
      value: 1
    }
    bias_term: true
    bias_filler {
      value: 0
    }
  }
}
layer {
  name: "conv2/relu"
  type: "ReLU"
  bottom: "conv2"
  top: "conv2"
}
layer {
  name: "conv3/dw"
  type: "Convolution"
  bottom: "conv2"
  top: "conv3/dw"
  param {
    lr_mult: 0.1
    decay_mult: 0.1
  }
  convolution_param {
    num_output: 128
    bias_term: false
    pad: 1
    kernel_size: 3
    group: 128
    weight_filler {
      type: "msra"
    }
    engine: CAFFE
  }
}
layer {
  name: "conv3/dw/bn"
  type: "BatchNorm"
  bottom: "conv3/dw"
  top: "conv3/dw"
}
layer {
  name: "conv3/dw/scale"
  type: "Scale"
  bottom: "conv3/dw"
  top: "conv3/dw"
  param {
    lr_mult: 0.1
    decay_mult: 0
  }
  param {
    lr_mult: 0.2
    decay_mult: 0
  }
  scale_param {
    filler {
      value: 1
    }
    bias_term: true
    bias_filler {
      value: 0
    }
  }
}
layer {
  name: "conv3/dw/relu"
  type: "ReLU"
  bottom: "conv3/dw"
  top: "conv3/dw"
}
layer {
  name: "conv3"
  type: "Convolution"
  bottom: "conv3/dw"
  top: "conv3"
  param {
    lr_mult: 0.1
    decay_mult: 0.1
  }
  convolution_param {
    num_output: 128
    bias_term: false
    kernel_size: 1
    weight_filler {
      type: "msra"
    }
  }
}
layer {
  name: "conv3/bn"
  type: "BatchNorm"
  bottom: "conv3"
  top: "conv3"
}
layer {
  name: "conv3/scale"
  type: "Scale"
  bottom: "conv3"
  top: "conv3"
  param {
    lr_mult: 0.1
    decay_mult: 0
  }
  param {
    lr_mult: 0.2
    decay_mult: 0
  }
  scale_param {
    filler {
      value: 1
    }
    bias_term: true
    bias_filler {
      value: 0
    }
  }
}
layer {
  name: "conv3/relu"
  type: "ReLU"
  bottom: "conv3"
  top: "conv3"
}
layer {
  name: "conv4/dw"
  type: "Convolution"
  bottom: "conv3"
  top: "conv4/dw"
  param {
    lr_mult: 0.1
    decay_mult: 0.1
  }
  convolution_param {
    num_output: 128
    bias_term: false
    pad: 1
    kernel_size: 3
    group: 128
    stride: 2
    weight_filler {
      type: "msra"
    }
    engine: CAFFE
  }
}
layer {
  name: "conv4/dw/bn"
  type: "BatchNorm"
  bottom: "conv4/dw"
  top: "conv4/dw"
}
layer {
  name: "conv4/dw/scale"
  type: "Scale"
  bottom: "conv4/dw"
  top: "conv4/dw"
  param {
    lr_mult: 0.1
    decay_mult: 0
  }
  param {
    lr_mult: 0.2
    decay_mult: 0
  }
  scale_param {
    filler {
      value: 1
    }
    bias_term: true
    bias_filler {
      value: 0
    }
  }
}
layer {
  name: "conv4/dw/relu"
  type: "ReLU"
  bottom: "conv4/dw"
  top: "conv4/dw"
}
layer {
  name: "conv4"
  type: "Convolution"
  bottom: "conv4/dw"
  top: "conv4"
  param {
    lr_mult: 0.1
    decay_mult: 0.1
  }
  convolution_param {
    num_output: 256
    bias_term: false
    kernel_size: 1
    weight_filler {
      type: "msra"
    }
  }
}
layer {
  name: "conv4/bn"
  type: "BatchNorm"
  bottom: "conv4"
  top: "conv4"
}
layer {
  name: "conv4/scale"
  type: "Scale"
  bottom: "conv4"
  top: "conv4"
  param {
    lr_mult: 0.1
    decay_mult: 0
  }
  param {
    lr_mult: 0.2
    decay_mult: 0
  }
  scale_param {
    filler {
      value: 1
    }
    bias_term: true
    bias_filler {
      value: 0
    }
  }
}
layer {
  name: "conv4/relu"
  type: "ReLU"
  bottom: "conv4"
  top: "conv4"
}
layer {
  name: "conv5/dw"
  type: "Convolution"
  bottom: "conv4"
  top: "conv5/dw"
  param {
    lr_mult: 0.1
    decay_mult: 0.1
  }
  convolution_param {
    num_output: 256
    bias_term: false
    pad: 1
    kernel_size: 3
    group: 256
    weight_filler {
      type: "msra"
    }
    engine: CAFFE
  }
}
layer {
  name: "conv5/dw/bn"
  type: "BatchNorm"
  bottom: "conv5/dw"
  top: "conv5/dw"
}
layer {
  name: "conv5/dw/scale"
  type: "Scale"
  bottom: "conv5/dw"
  top: "conv5/dw"
  param {
    lr_mult: 0.1
    decay_mult: 0
  }
  param {
    lr_mult: 0.2
    decay_mult: 0
  }
  scale_param {
    filler {
      value: 1
    }
    bias_term: true
    bias_filler {
      value: 0
    }
  }
}
layer {
  name: "conv5/dw/relu"
  type: "ReLU"
  bottom: "conv5/dw"
  top: "conv5/dw"
}
layer {
  name: "conv5"
  type: "Convolution"
  bottom: "conv5/dw"
  top: "conv5"
  param {
    lr_mult: 0.1
    decay_mult: 0.1
  }
  convolution_param {
    num_output: 256
    bias_term: false
    kernel_size: 1
    weight_filler {
      type: "msra"
    }
  }
}
layer {
  name: "conv5/bn"
  type: "BatchNorm"
  bottom: "conv5"
  top: "conv5"
}
layer {
  name: "conv5/scale"
  type: "Scale"
  bottom: "conv5"
  top: "conv5"
  param {
    lr_mult: 0.1
    decay_mult: 0
  }
  param {
    lr_mult: 0.2
    decay_mult: 0
  }
  scale_param {
    filler {
      value: 1
    }
    bias_term: true
    bias_filler {
      value: 0
    }
  }
}
layer {
  name: "conv5/relu"
  type: "ReLU"
  bottom: "conv5"
  top: "conv5"
}
layer {
  name: "conv6/dw"
  type: "Convolution"
  bottom: "conv5"
  top: "conv6/dw"
  param {
    lr_mult: 0.1
    decay_mult: 0.1
  }
  convolution_param {
    num_output: 256
    bias_term: false
    pad: 1
    kernel_size: 3
    group: 256
    stride: 2
    weight_filler {
      type: "msra"
    }
    engine: CAFFE
  }
}
layer {
  name: "conv6/dw/bn"
  type: "BatchNorm"
  bottom: "conv6/dw"
  top: "conv6/dw"
}
layer {
  name: "conv6/dw/scale"
  type: "Scale"
  bottom: "conv6/dw"
  top: "conv6/dw"
  param {
    lr_mult: 0.1
    decay_mult: 0
  }
  param {
    lr_mult: 0.2
    decay_mult: 0
  }
  scale_param {
    filler {
      value: 1
    }
    bias_term: true
    bias_filler {
      value: 0
    }
  }
}
layer {
  name: "conv6/dw/relu"
  type: "ReLU"
  bottom: "conv6/dw"
  top: "conv6/dw"
}
layer {
  name: "conv6"
  type: "Convolution"
  bottom: "conv6/dw"
  top: "conv6"
  param {
    lr_mult: 0.1
    decay_mult: 0.1
  }
  convolution_param {
    num_output: 512
    bias_term: false
    kernel_size: 1
    weight_filler {
      type: "msra"
    }
  }
}
layer {
  name: "conv6/bn"
  type: "BatchNorm"
  bottom: "conv6"
  top: "conv6"
}
layer {
  name: "conv6/scale"
  type: "Scale"
  bottom: "conv6"
  top: "conv6"
  param {
    lr_mult: 0.1
    decay_mult: 0
  }
  param {
    lr_mult: 0.2
    decay_mult: 0
  }
  scale_param {
    filler {
      value: 1
    }
    bias_term: true
    bias_filler {
      value: 0
    }
  }
}
layer {
  name: "conv6/relu"
  type: "ReLU"
  bottom: "conv6"
  top: "conv6"
}
layer {
  name: "conv7/dw"
  type: "Convolution"
  bottom: "conv6"
  top: "conv7/dw"
  param {
    lr_mult: 0.1
    decay_mult: 0.1
  }
  convolution_param {
    num_output: 512
    bias_term: false
    pad: 1
    kernel_size: 3
    group: 512
    weight_filler {
      type: "msra"
    }
    engine: CAFFE
  }
}
layer {
  name: "conv7/dw/bn"
  type: "BatchNorm"
  bottom: "conv7/dw"
  top: "conv7/dw"
}
layer {
  name: "conv7/dw/scale"
  type: "Scale"
  bottom: "conv7/dw"
  top: "conv7/dw"
  param {
    lr_mult: 0.1
    decay_mult: 0
  }
  param {
    lr_mult: 0.2
    decay_mult: 0
  }
  scale_param {
    filler {
      value: 1
    }
    bias_term: true
    bias_filler {
      value: 0
    }
  }
}
layer {
  name: "conv7/dw/relu"
  type: "ReLU"
  bottom: "conv7/dw"
  top: "conv7/dw"
}
layer {
  name: "conv7"
  type: "Convolution"
  bottom: "conv7/dw"
  top: "conv7"
  param {
    lr_mult: 0.1
    decay_mult: 0.1
  }
  convolution_param {
    num_output: 512
    bias_term: false
    kernel_size: 1
    weight_filler {
      type: "msra"
    }
  }
}
layer {
  name: "conv7/bn"
  type: "BatchNorm"
  bottom: "conv7"
  top: "conv7"
}
layer {
  name: "conv7/scale"
  type: "Scale"
  bottom: "conv7"
  top: "conv7"
  param {
    lr_mult: 0.1
    decay_mult: 0
  }
  param {
    lr_mult: 0.2
    decay_mult: 0
  }
  scale_param {
    filler {
      value: 1
    }
    bias_term: true
    bias_filler {
      value: 0
    }
  }
}
layer {
  name: "conv7/relu"
  type: "ReLU"
  bottom: "conv7"
  top: "conv7"
}
layer {
  name: "conv8/dw"
  type: "Convolution"
  bottom: "conv7"
  top: "conv8/dw"
  param {
    lr_mult: 0.1
    decay_mult: 0.1
  }
  convolution_param {
    num_output: 512
    bias_term: false
    pad: 1
    kernel_size: 3
    group: 512
    weight_filler {
      type: "msra"
    }
    engine: CAFFE
  }
}
layer {
  name: "conv8/dw/bn"
  type: "BatchNorm"
  bottom: "conv8/dw"
  top: "conv8/dw"
}
layer {
  name: "conv8/dw/scale"
  type: "Scale"
  bottom: "conv8/dw"
  top: "conv8/dw"
  param {
    lr_mult: 0.1
    decay_mult: 0
  }
  param {
    lr_mult: 0.2
    decay_mult: 0
  }
  scale_param {
    filler {
      value: 1
    }
    bias_term: true
    bias_filler {
      value: 0
    }
  }
}
layer {
  name: "conv8/dw/relu"
  type: "ReLU"
  bottom: "conv8/dw"
  top: "conv8/dw"
}
layer {
  name: "conv8"
  type: "Convolution"
  bottom: "conv8/dw"
  top: "conv8"
  param {
    lr_mult: 0.1
    decay_mult: 0.1
  }
  convolution_param {
    num_output: 512
    bias_term: false
    kernel_size: 1
    weight_filler {
      type: "msra"
    }
  }
}
layer {
  name: "conv8/bn"
  type: "BatchNorm"
  bottom: "conv8"
  top: "conv8"
}
layer {
  name: "conv8/scale"
  type: "Scale"
  bottom: "conv8"
  top: "conv8"
  param {
    lr_mult: 0.1
    decay_mult: 0
  }
  param {
    lr_mult: 0.2
    decay_mult: 0
  }
  scale_param {
    filler {
      value: 1
    }
    bias_term: true
    bias_filler {
      value: 0
    }
  }
}
layer {
  name: "conv8/relu"
  type: "ReLU"
  bottom: "conv8"
  top: "conv8"
}
layer {
  name: "conv9/dw"
  type: "Convolution"
  bottom: "conv8"
  top: "conv9/dw"
  param {
    lr_mult: 0.1
    decay_mult: 0.1
  }
  convolution_param {
    num_output: 512
    bias_term: false
    pad: 1
    kernel_size: 3
    group: 512
    weight_filler {
      type: "msra"
    }
    engine: CAFFE
  }
}
layer {
  name: "conv9/dw/bn"
  type: "BatchNorm"
  bottom: "conv9/dw"
  top: "conv9/dw"
}
layer {
  name: "conv9/dw/scale"
  type: "Scale"
  bottom: "conv9/dw"
  top: "conv9/dw"
  param {
    lr_mult: 0.1
    decay_mult: 0
  }
  param {
    lr_mult: 0.2
    decay_mult: 0
  }
  scale_param {
    filler {
      value: 1
    }
    bias_term: true
    bias_filler {
      value: 0
    }
  }
}
layer {
  name: "conv9/dw/relu"
  type: "ReLU"
  bottom: "conv9/dw"
  top: "conv9/dw"
}
layer {
  name: "conv9"
  type: "Convolution"
  bottom: "conv9/dw"
  top: "conv9"
  param {
    lr_mult: 0.1
    decay_mult: 0.1
  }
  convolution_param {
    num_output: 512
    bias_term: false
    kernel_size: 1
    weight_filler {
      type: "msra"
    }
  }
}
layer {
  name: "conv9/bn"
  type: "BatchNorm"
  bottom: "conv9"
  top: "conv9"
}
layer {
  name: "conv9/scale"
  type: "Scale"
  bottom: "conv9"
  top: "conv9"
  param {
    lr_mult: 0.1
    decay_mult: 0
  }
  param {
    lr_mult: 0.2
    decay_mult: 0
  }
  scale_param {
    filler {
      value: 1
    }
    bias_term: true
    bias_filler {
      value: 0
    }
  }
}
layer {
  name: "conv9/relu"
  type: "ReLU"
  bottom: "conv9"
  top: "conv9"
}
layer {
  name: "conv10/dw"
  type: "Convolution"
  bottom: "conv9"
  top: "conv10/dw"
  param {
    lr_mult: 0.1
    decay_mult: 0.1
  }
  convolution_param {
    num_output: 512
    bias_term: false
    pad: 1
    kernel_size: 3
    group: 512
    weight_filler {
      type: "msra"
    }
    engine: CAFFE
  }
}
layer {
  name: "conv10/dw/bn"
  type: "BatchNorm"
  bottom: "conv10/dw"
  top: "conv10/dw"
}
layer {
  name: "conv10/dw/scale"
  type: "Scale"
  bottom: "conv10/dw"
  top: "conv10/dw"
  param {
    lr_mult: 0.1
    decay_mult: 0
  }
  param {
    lr_mult: 0.2
    decay_mult: 0
  }
  scale_param {
    filler {
      value: 1
    }
    bias_term: true
    bias_filler {
      value: 0
    }
  }
}
layer {
  name: "conv10/dw/relu"
  type: "ReLU"
  bottom: "conv10/dw"
  top: "conv10/dw"
}
layer {
  name: "conv10"
  type: "Convolution"
  bottom: "conv10/dw"
  top: "conv10"
  param {
    lr_mult: 0.1
    decay_mult: 0.1
  }
  convolution_param {
    num_output: 512
    bias_term: false
    kernel_size: 1
    weight_filler {
      type: "msra"
    }
  }
}
layer {
  name: "conv10/bn"
  type: "BatchNorm"
  bottom: "conv10"
  top: "conv10"
}
layer {
  name: "conv10/scale"
  type: "Scale"
  bottom: "conv10"
  top: "conv10"
  param {
    lr_mult: 0.1
    decay_mult: 0
  }
  param {
    lr_mult: 0.2
    decay_mult: 0
  }
  scale_param {
    filler {
      value: 1
    }
    bias_term: true
    bias_filler {
      value: 0
    }
  }
}
layer {
  name: "conv10/relu"
  type: "ReLU"
  bottom: "conv10"
  top: "conv10"
}
layer {
  name: "conv11/dw"
  type: "Convolution"
  bottom: "conv10"
  top: "conv11/dw"
  param {
    lr_mult: 0.1
    decay_mult: 0.1
  }
  convolution_param {
    num_output: 512
    bias_term: false
    pad: 1
    kernel_size: 3
    group: 512
    weight_filler {
      type: "msra"
    }
    engine: CAFFE
  }
}
layer {
  name: "conv11/dw/bn"
  type: "BatchNorm"
  bottom: "conv11/dw"
  top: "conv11/dw"
}
layer {
  name: "conv11/dw/scale"
  type: "Scale"
  bottom: "conv11/dw"
  top: "conv11/dw"
  param {
    lr_mult: 0.1
    decay_mult: 0
  }
  param {
    lr_mult: 0.2
    decay_mult: 0
  }
  scale_param {
    filler {
      value: 1
    }
    bias_term: true
    bias_filler {
      value: 0
    }
  }
}
layer {
  name: "conv11/dw/relu"
  type: "ReLU"
  bottom: "conv11/dw"
  top: "conv11/dw"
}
layer {
  name: "conv11"
  type: "Convolution"
  bottom: "conv11/dw"
  top: "conv11"
  param {
    lr_mult: 0.1
    decay_mult: 0.1
  }
  convolution_param {
    num_output: 512
    bias_term: false
    kernel_size: 1
    weight_filler {
      type: "msra"
    }
  }
}
layer {
  name: "conv11/bn"
  type: "BatchNorm"
  bottom: "conv11"
  top: "conv11"
}
layer {
  name: "conv11/scale"
  type: "Scale"
  bottom: "conv11"
  top: "conv11"
  param {
    lr_mult: 0.1
    decay_mult: 0
  }
  param {
    lr_mult: 0.2
    decay_mult: 0
  }
  scale_param {
    filler {
      value: 1
    }
    bias_term: true
    bias_filler {
      value: 0
    }
  }
}
layer {
  name: "conv11/relu"
  type: "ReLU"
  bottom: "conv11"
  top: "conv11"
}
layer {
  name: "conv12/dw"
  type: "Convolution"
  bottom: "conv11"
  top: "conv12/dw"
  param {
    lr_mult: 0.1
    decay_mult: 0.1
  }
  convolution_param {
    num_output: 512
    bias_term: false
    pad: 1
    kernel_size: 3
    group: 512
    stride: 2
    weight_filler {
      type: "msra"
    }
    engine: CAFFE
  }
}
layer {
  name: "conv12/dw/bn"
  type: "BatchNorm"
  bottom: "conv12/dw"
  top: "conv12/dw"
}
layer {
  name: "conv12/dw/scale"
  type: "Scale"
  bottom: "conv12/dw"
  top: "conv12/dw"
  param {
    lr_mult: 0.1
    decay_mult: 0
  }
  param {
    lr_mult: 0.2
    decay_mult: 0
  }
  scale_param {
    filler {
      value: 1
    }
    bias_term: true
    bias_filler {
      value: 0
    }
  }
}
layer {
  name: "conv12/dw/relu"
  type: "ReLU"
  bottom: "conv12/dw"
  top: "conv12/dw"
}
layer {
  name: "conv12"
  type: "Convolution"
  bottom: "conv12/dw"
  top: "conv12"
  param {
    lr_mult: 0.1
    decay_mult: 0.1
  }
  convolution_param {
    num_output: 1024
    bias_term: false
    kernel_size: 1
    weight_filler {
      type: "msra"
    }
  }
}
layer {
  name: "conv12/bn"
  type: "BatchNorm"
  bottom: "conv12"
  top: "conv12"
}
layer {
  name: "conv12/scale"
  type: "Scale"
  bottom: "conv12"
  top: "conv12"
  param {
    lr_mult: 0.1
    decay_mult: 0
  }
  param {
    lr_mult: 0.2
    decay_mult: 0
  }
  scale_param {
    filler {
      value: 1
    }
    bias_term: true
    bias_filler {
      value: 0
    }
  }
}
layer {
  name: "conv12/relu"
  type: "ReLU"
  bottom: "conv12"
  top: "conv12"
}
layer {
  name: "conv13/dw"
  type: "Convolution"
  bottom: "conv12"
  top: "conv13/dw"
  param {
    lr_mult: 0.1
    decay_mult: 0.1
  }
  convolution_param {
    num_output: 1024
    bias_term: false
    pad: 1
    kernel_size: 3
    group: 1024
    weight_filler {
      type: "msra"
    }
    engine: CAFFE
  }
}
layer {
  name: "conv13/dw/bn"
  type: "BatchNorm"
  bottom: "conv13/dw"
  top: "conv13/dw"
}
layer {
  name: "conv13/dw/scale"
  type: "Scale"
  bottom: "conv13/dw"
  top: "conv13/dw"
  param {
    lr_mult: 0.1
    decay_mult: 0
  }
  param {
    lr_mult: 0.2
    decay_mult: 0
  }
  scale_param {
    filler {
      value: 1
    }
    bias_term: true
    bias_filler {
      value: 0
    }
  }
}
layer {
  name: "conv13/dw/relu"
  type: "ReLU"
  bottom: "conv13/dw"
  top: "conv13/dw"
}
layer {
  name: "conv13"
  type: "Convolution"
  bottom: "conv13/dw"
  top: "conv13"
  param {
    lr_mult: 0.1
    decay_mult: 0.1
  }
  convolution_param {
    num_output: 1024
    bias_term: false
    kernel_size: 1
    weight_filler {
      type: "msra"
    }
  }
}
layer {
  name: "conv13/bn"
  type: "BatchNorm"
  bottom: "conv13"
  top: "conv13"
}
layer {
  name: "conv13/scale"
  type: "Scale"
  bottom: "conv13"
  top: "conv13"
  param {
    lr_mult: 0.1
    decay_mult: 0
  }
  param {
    lr_mult: 0.2
    decay_mult: 0
  }
  scale_param {
    filler {
      value: 1
    }
    bias_term: true
    bias_filler {
      value: 0
    }
  }
}
layer {
  name: "conv13/relu"
  type: "ReLU"
  bottom: "conv13"
  top: "conv13"
}
layer {
  name: "conv14_1"
  type: "Convolution"
  bottom: "conv13"
  top: "conv14_1"
  param {
    lr_mult: 0.1
    decay_mult: 0.1
  }
  convolution_param {
    num_output: 256
    bias_term: false
    kernel_size: 1
    weight_filler {
      type: "msra"
    }
  }
}
layer {
  name: "conv14_1/bn"
  type: "BatchNorm"
  bottom: "conv14_1"
  top: "conv14_1"
}
layer {
  name: "conv14_1/scale"
  type: "Scale"
  bottom: "conv14_1"
  top: "conv14_1"
  param {
    lr_mult: 0.1
    decay_mult: 0
  }
  param {
    lr_mult: 0.2
    decay_mult: 0
  }
  scale_param {
    filler {
      value: 1
    }
    bias_term: true
    bias_filler {
      value: 0
    }
  }
}
layer {
  name: "conv14_1/relu"
  type: "ReLU"
  bottom: "conv14_1"
  top: "conv14_1"
}
layer {
  name: "conv14_2"
  type: "Convolution"
  bottom: "conv14_1"
  top: "conv14_2"
  param {
    lr_mult: 0.1
    decay_mult: 0.1
  }
  convolution_param {
    num_output: 512
    bias_term: false
    pad: 1
    kernel_size: 3
    stride: 2
    weight_filler {
      type: "msra"
    }
  }
}
layer {
  name: "conv14_2/bn"
  type: "BatchNorm"
  bottom: "conv14_2"
  top: "conv14_2"
}
layer {
  name: "conv14_2/scale"
  type: "Scale"
  bottom: "conv14_2"
  top: "conv14_2"
  param {
    lr_mult: 0.1
    decay_mult: 0
  }
  param {
    lr_mult: 0.2
    decay_mult: 0
  }
  scale_param {
    filler {
      value: 1
    }
    bias_term: true
    bias_filler {
      value: 0
    }
  }
}
layer {
  name: "conv14_2/relu"
  type: "ReLU"
  bottom: "conv14_2"
  top: "conv14_2"
}
layer {
  name: "conv15_1"
  type: "Convolution"
  bottom: "conv14_2"
  top: "conv15_1"
  param {
    lr_mult: 0.1
    decay_mult: 0.1
  }
  convolution_param {
    num_output: 128
    bias_term: false
    kernel_size: 1
    weight_filler {
      type: "msra"
    }
  }
}
layer {
  name: "conv15_1/bn"
  type: "BatchNorm"
  bottom: "conv15_1"
  top: "conv15_1"
}
layer {
  name: "conv15_1/scale"
  type: "Scale"
  bottom: "conv15_1"
  top: "conv15_1"
  param {
    lr_mult: 0.1
    decay_mult: 0
  }
  param {
    lr_mult: 0.2
    decay_mult: 0
  }
  scale_param {
    filler {
      value: 1
    }
    bias_term: true
    bias_filler {
      value: 0
    }
  }
}
layer {
  name: "conv15_1/relu"
  type: "ReLU"
  bottom: "conv15_1"
  top: "conv15_1"
}
layer {
  name: "conv15_2"
  type: "Convolution"
  bottom: "conv15_1"
  top: "conv15_2"
  param {
    lr_mult: 0.1
    decay_mult: 0.1
  }
  convolution_param {
    num_output: 256
    bias_term: false
    pad: 1
    kernel_size: 3
    stride: 2
    weight_filler {
      type: "msra"
    }
  }
}
layer {
  name: "conv15_2/bn"
  type: "BatchNorm"
  bottom: "conv15_2"
  top: "conv15_2"
}
layer {
  name: "conv15_2/scale"
  type: "Scale"
  bottom: "conv15_2"
  top: "conv15_2"
  param {
    lr_mult: 0.1
    decay_mult: 0
  }
  param {
    lr_mult: 0.2
    decay_mult: 0
  }
  scale_param {
    filler {
      value: 1
    }
    bias_term: true
    bias_filler {
      value: 0
    }
  }
}
layer {
  name: "conv15_2/relu"
  type: "ReLU"
  bottom: "conv15_2"
  top: "conv15_2"
}
layer {
  name: "conv16_1"
  type: "Convolution"
  bottom: "conv15_2"
  top: "conv16_1"
  param {
    lr_mult: 0.1
    decay_mult: 0.1
  }
  convolution_param {
    num_output: 128
    bias_term: false
    kernel_size: 1
    weight_filler {
      type: "msra"
    }
  }
}
layer {
  name: "conv16_1/bn"
  type: "BatchNorm"
  bottom: "conv16_1"
  top: "conv16_1"
}
layer {
  name: "conv16_1/scale"
  type: "Scale"
  bottom: "conv16_1"
  top: "conv16_1"
  param {
    lr_mult: 0.1
    decay_mult: 0
  }
  param {
    lr_mult: 0.2
    decay_mult: 0
  }
  scale_param {
    filler {
      value: 1
    }
    bias_term: true
    bias_filler {
      value: 0
    }
  }
}
layer {
  name: "conv16_1/relu"
  type: "ReLU"
  bottom: "conv16_1"
  top: "conv16_1"
}
layer {
  name: "conv16_2"
  type: "Convolution"
  bottom: "conv16_1"
  top: "conv16_2"
  param {
    lr_mult: 0.1
    decay_mult: 0.1
  }
  convolution_param {
    num_output: 256
    bias_term: false
    pad: 1
    kernel_size: 3
    stride: 2
    weight_filler {
      type: "msra"
    }
  }
}
layer {
  name: "conv16_2/bn"
  type: "BatchNorm"
  bottom: "conv16_2"
  top: "conv16_2"
}
layer {
  name: "conv16_2/scale"
  type: "Scale"
  bottom: "conv16_2"
  top: "conv16_2"
  param {
    lr_mult: 0.1
    decay_mult: 0
  }
  param {
    lr_mult: 0.2
    decay_mult: 0
  }
  scale_param {
    filler {
      value: 1
    }
    bias_term: true
    bias_filler {
      value: 0
    }
  }
}
layer {
  name: "conv16_2/relu"
  type: "ReLU"
  bottom: "conv16_2"
  top: "conv16_2"
}
layer {
  name: "conv17_1"
  type: "Convolution"
  bottom: "conv16_2"
  top: "conv17_1"
  param {
    lr_mult: 0.1
    decay_mult: 0.1
  }
  convolution_param {
    num_output: 64
    bias_term: false
    kernel_size: 1
    weight_filler {
      type: "msra"
    }
  }
}
layer {
  name: "conv17_1/bn"
  type: "BatchNorm"
  bottom: "conv17_1"
  top: "conv17_1"
}
layer {
  name: "conv17_1/scale"
  type: "Scale"
  bottom: "conv17_1"
  top: "conv17_1"
  param {
    lr_mult: 0.1
    decay_mult: 0
  }
  param {
    lr_mult: 0.2
    decay_mult: 0
  }
  scale_param {
    filler {
      value: 1
    }
    bias_term: true
    bias_filler {
      value: 0
    }
  }
}
layer {
  name: "conv17_1/relu"
  type: "ReLU"
  bottom: "conv17_1"
  top: "conv17_1"
}
layer {
  name: "conv17_2"
  type: "Convolution"
  bottom: "conv17_1"
  top: "conv17_2"
  param {
    lr_mult: 0.1
    decay_mult: 0.1
  }
  convolution_param {
    num_output: 128
    bias_term: false
    pad: 1
    kernel_size: 3
    stride: 2
    weight_filler {
      type: "msra"
    }
  }
}
layer {
  name: "conv17_2/bn"
  type: "BatchNorm"
  bottom: "conv17_2"
  top: "conv17_2"
}
layer {
  name: "conv17_2/scale"
  type: "Scale"
  bottom: "conv17_2"
  top: "conv17_2"
  param {
    lr_mult: 0.1
    decay_mult: 0
  }
  param {
    lr_mult: 0.2
    decay_mult: 0
  }
  scale_param {
    filler {
      value: 1
    }
    bias_term: true
    bias_filler {
      value: 0
    }
  }
}
layer {
  name: "conv17_2/relu"
  type: "ReLU"
  bottom: "conv17_2"
  top: "conv17_2"
}
layer {
  name: "conv11_mbox_loc"
  type: "Convolution"
  bottom: "conv11"
  top: "conv11_mbox_loc"
  param {
    lr_mult: 0.1
    decay_mult: 0.1
  }
  param {
    lr_mult: 0.2
    decay_mult: 0
  }
  convolution_param {
    num_output: 12
    kernel_size: 1
    weight_filler {
      type: "msra"
    }
    bias_filler {
      type: "constant"
      value: 0
    }
  }
}
layer {
  name: "conv11_mbox_loc_perm"
  type: "Permute"
  bottom: "conv11_mbox_loc"
  top: "conv11_mbox_loc_perm"
  permute_param {
    order: 0
    or
I0228 10:24:27.409201 12900 layer_factory.hpp:77] Creating layer data
I0228 10:24:27.409749 12900 net.cpp:100] Creating Layer data
I0228 10:24:27.409772 12900 net.cpp:408] data -> data
I0228 10:24:27.409813 12900 net.cpp:408] data -> label
I0228 10:24:27.410897 12905 db_lmdb.cpp:35] Opened lmdb trainval_lmdb/
I0228 10:24:27.437222 12900 annotated_data_layer.cpp:62] output data size: 24,3,300,300
I0228 10:24:27.479002 12900 net.cpp:150] Setting up data
I0228 10:24:27.479032 12900 net.cpp:157] Top shape: 24 3 300 300 (6480000)
I0228 10:24:27.479040 12900 net.cpp:157] Top shape: 1 1 1 8 (8)
I0228 10:24:27.479044 12900 net.cpp:165] Memory required for data: 25920032
I0228 10:24:27.479058 12900 layer_factory.hpp:77] Creating layer data_data_0_split
I0228 10:24:27.479074 12900 net.cpp:100] Creating Layer data_data_0_split
I0228 10:24:27.479081 12900 net.cpp:434] data_data_0_split <- data
I0228 10:24:27.479099 12900 net.cpp:408] data_data_0_split -> data_data_0_split_0
I0228 10:24:27.479112 12900 net.cpp:408] data_data_0_split -> data_data_0_split_1
I0228 10:24:27.479125 12900 net.cpp:408] data_data_0_split -> data_data_0_split_2
I0228 10:24:27.479135 12900 net.cpp:408] data_data_0_split -> data_data_0_split_3
I0228 10:24:27.479143 12900 net.cpp:408] data_data_0_split -> data_data_0_split_4
I0228 10:24:27.479157 12900 net.cpp:408] data_data_0_split -> data_data_0_split_5
I0228 10:24:27.479166 12900 net.cpp:408] data_data_0_split -> data_data_0_split_6
I0228 10:24:27.479321 12900 net.cpp:150] Setting up data_data_0_split
I0228 10:24:27.479331 12900 net.cpp:157] Top shape: 24 3 300 300 (6480000)
I0228 10:24:27.479337 12900 net.cpp:157] Top shape: 24 3 300 300 (6480000)
I0228 10:24:27.479343 12900 net.cpp:157] Top shape: 24 3 300 300 (6480000)
I0228 10:24:27.479369 12900 net.cpp:157] Top shape: 24 3 300 300 (6480000)
I0228 10:24:27.479375 12900 net.cpp:157] Top shape: 24 3 300 300 (6480000)
I0228 10:24:27.479382 12900 net.cpp:157] Top shape: 24 3 300 300 (6480000)
I0228 10:24:27.479388 12900 net.cpp:157] Top shape: 24 3 300 300 (6480000)
I0228 10:24:27.479393 12900 net.cpp:165] Memory required for data: 207360032
I0228 10:24:27.479398 12900 layer_factory.hpp:77] Creating layer conv0
I0228 10:24:27.479420 12900 net.cpp:100] Creating Layer conv0
I0228 10:24:27.479427 12900 net.cpp:434] conv0 <- data_data_0_split_0
I0228 10:24:27.479437 12900 net.cpp:408] conv0 -> conv0
I0228 10:24:28.160930 12900 net.cpp:150] Setting up conv0
I0228 10:24:28.160975 12900 net.cpp:157] Top shape: 24 32 150 150 (17280000)
I0228 10:24:28.160980 12900 net.cpp:165] Memory required for data: 276480032
I0228 10:24:28.160997 12900 layer_factory.hpp:77] Creating layer conv0/bn
I0228 10:24:28.161011 12900 net.cpp:100] Creating Layer conv0/bn
I0228 10:24:28.161017 12900 net.cpp:434] conv0/bn <- conv0
I0228 10:24:28.161039 12900 net.cpp:395] conv0/bn -> conv0 (in-place)
I0228 10:24:28.162433 12900 net.cpp:150] Setting up conv0/bn
I0228 10:24:28.162447 12900 net.cpp:157] Top shape: 24 32 150 150 (17280000)
I0228 10:24:28.162468 12900 net.cpp:165] Memory required for data: 345600032
I0228 10:24:28.162480 12900 layer_factory.hpp:77] Creating layer conv0/scale
I0228 10:24:28.162492 12900 net.cpp:100] Creating Layer conv0/scale
I0228 10:24:28.162497 12900 net.cpp:434] conv0/scale <- conv0
I0228 10:24:28.162521 12900 net.cpp:395] conv0/scale -> conv0 (in-place)
I0228 10:24:28.162588 12900 layer_factory.hpp:77] Creating layer conv0/scale
I0228 10:24:28.162750 12900 net.cpp:150] Setting up conv0/scale
I0228 10:24:28.162760 12900 net.cpp:157] Top shape: 24 32 150 150 (17280000)
I0228 10:24:28.162765 12900 net.cpp:165] Memory required for data: 414720032
I0228 10:24:28.162775 12900 layer_factory.hpp:77] Creating layer conv0/relu
I0228 10:24:28.162783 12900 net.cpp:100] Creating Layer conv0/relu
I0228 10:24:28.162787 12900 net.cpp:434] conv0/relu <- conv0
I0228 10:24:28.162796 12900 net.cpp:395] conv0/relu -> conv0 (in-place)
I0228 10:24:28.163305 12900 net.cpp:150] Setting up conv0/relu
I0228 10:24:28.163317 12900 net.cpp:157] Top shape: 24 32 150 150 (17280000)
I0228 10:24:28.163321 12900 net.cpp:165] Memory required for data: 483840032
I0228 10:24:28.163327 12900 layer_factory.hpp:77] Creating layer conv1/dw
I0228 10:24:28.163341 12900 net.cpp:100] Creating Layer conv1/dw
I0228 10:24:28.163347 12900 net.cpp:434] conv1/dw <- conv0
I0228 10:24:28.163355 12900 net.cpp:408] conv1/dw -> conv1/dw
I0228 10:24:28.163612 12900 net.cpp:150] Setting up conv1/dw
I0228 10:24:28.163622 12900 net.cpp:157] Top shape: 24 32 150 150 (17280000)
I0228 10:24:28.163627 12900 net.cpp:165] Memory required for data: 552960032
I0228 10:24:28.163633 12900 layer_factory.hpp:77] Creating layer conv1/dw/bn
I0228 10:24:28.163642 12900 net.cpp:100] Creating Layer conv1/dw/bn
I0228 10:24:28.163647 12900 net.cpp:434] conv1/dw/bn <- conv1/dw
I0228 10:24:28.163653 12900 net.cpp:395] conv1/dw/bn -> conv1/dw (in-place)
I0228 10:24:28.163874 12900 net.cpp:150] Setting up conv1/dw/bn
I0228 10:24:28.163884 12900 net.cpp:157] Top shape: 24 32 150 150 (17280000)
I0228 10:24:28.163888 12900 net.cpp:165] Memory required for data: 622080032
I0228 10:24:28.163898 12900 layer_factory.hpp:77] Creating layer conv1/dw/scale
I0228 10:24:28.163906 12900 net.cpp:100] Creating Layer conv1/dw/scale
I0228 10:24:28.163911 12900 net.cpp:434] conv1/dw/scale <- conv1/dw
I0228 10:24:28.163920 12900 net.cpp:395] conv1/dw/scale -> conv1/dw (in-place)
I0228 10:24:28.163961 12900 layer_factory.hpp:77] Creating layer conv1/dw/scale
I0228 10:24:28.164103 12900 net.cpp:150] Setting up conv1/dw/scale
I0228 10:24:28.164113 12900 net.cpp:157] Top shape: 24 32 150 150 (17280000)
I0228 10:24:28.164117 12900 net.cpp:165] Memory required for data: 691200032
I0228 10:24:28.164124 12900 layer_factory.hpp:77] Creating layer conv1/dw/relu
I0228 10:24:28.164149 12900 net.cpp:100] Creating Layer conv1/dw/relu
I0228 10:24:28.164155 12900 net.cpp:434] conv1/dw/relu <- conv1/dw
I0228 10:24:28.164160 12900 net.cpp:395] conv1/dw/relu -> conv1/dw (in-place)
I0228 10:24:28.164675 12900 net.cpp:150] Setting up conv1/dw/relu
I0228 10:24:28.164690 12900 net.cpp:157] Top shape: 24 32 150 150 (17280000)
I0228 10:24:28.164696 12900 net.cpp:165] Memory required for data: 760320032
I0228 10:24:28.164700 12900 layer_factory.hpp:77] Creating layer conv1
I0228 10:24:28.164726 12900 net.cpp:100] Creating Layer conv1
I0228 10:24:28.164731 12900 net.cpp:434] conv1 <- conv1/dw
I0228 10:24:28.164739 12900 net.cpp:408] conv1 -> conv1
I0228 10:24:28.167920 12900 net.cpp:150] Setting up conv1
I0228 10:24:28.167950 12900 net.cpp:157] Top shape: 24 64 150 150 (34560000)
I0228 10:24:28.167955 12900 net.cpp:165] Memory required for data: 898560032
I0228 10:24:28.167963 12900 layer_factory.hpp:77] Creating layer conv1/bn
I0228 10:24:28.167973 12900 net.cpp:100] Creating Layer conv1/bn
I0228 10:24:28.167978 12900 net.cpp:434] conv1/bn <- conv1
I0228 10:24:28.167984 12900 net.cpp:395] conv1/bn -> conv1 (in-place)
I0228 10:24:28.168190 12900 net.cpp:150] Setting up conv1/bn
I0228 10:24:28.168200 12900 net.cpp:157] Top shape: 24 64 150 150 (34560000)
I0228 10:24:28.168205 12900 net.cpp:165] Memory required for data: 1036800032
I0228 10:24:28.168212 12900 layer_factory.hpp:77] Creating layer conv1/scale
I0228 10:24:28.168220 12900 net.cpp:100] Creating Layer conv1/scale
I0228 10:24:28.168225 12900 net.cpp:434] conv1/scale <- conv1
I0228 10:24:28.168231 12900 net.cpp:395] conv1/scale -> conv1 (in-place)
I0228 10:24:28.168272 12900 layer_factory.hpp:77] Creating layer conv1/scale
I0228 10:24:28.168434 12900 net.cpp:150] Setting up conv1/scale
I0228 10:24:28.168444 12900 net.cpp:157] Top shape: 24 64 150 150 (34560000)
I0228 10:24:28.168448 12900 net.cpp:165] Memory required for data: 1175040032
I0228 10:24:28.168460 12900 layer_factory.hpp:77] Creating layer conv1/relu
I0228 10:24:28.168468 12900 net.cpp:100] Creating Layer conv1/relu
I0228 10:24:28.168474 12900 net.cpp:434] conv1/relu <- conv1
I0228 10:24:28.168480 12900 net.cpp:395] conv1/relu -> conv1 (in-place)
I0228 10:24:28.169442 12900 net.cpp:150] Setting up conv1/relu
I0228 10:24:28.169459 12900 net.cpp:157] Top shape: 24 64 150 150 (34560000)
I0228 10:24:28.169463 12900 net.cpp:165] Memory required for data: 1313280032
I0228 10:24:28.169468 12900 layer_factory.hpp:77] Creating layer conv2/dw
I0228 10:24:28.169479 12900 net.cpp:100] Creating Layer conv2/dw
I0228 10:24:28.169486 12900 net.cpp:434] conv2/dw <- conv1
I0228 10:24:28.169494 12900 net.cpp:408] conv2/dw -> conv2/dw
I0228 10:24:28.169716 12900 net.cpp:150] Setting up conv2/dw
I0228 10:24:28.169726 12900 net.cpp:157] Top shape: 24 64 75 75 (8640000)
I0228 10:24:28.169731 12900 net.cpp:165] Memory required for data: 1347840032
I0228 10:24:28.169739 12900 layer_factory.hpp:77] Creating layer conv2/dw/bn
I0228 10:24:28.169744 12900 net.cpp:100] Creating Layer conv2/dw/bn
I0228 10:24:28.169749 12900 net.cpp:434] conv2/dw/bn <- conv2/dw
I0228 10:24:28.169757 12900 net.cpp:395] conv2/dw/bn -> conv2/dw (in-place)
I0228 10:24:28.171010 12900 net.cpp:150] Setting up conv2/dw/bn
I0228 10:24:28.171025 12900 net.cpp:157] Top shape: 24 64 75 75 (8640000)
I0228 10:24:28.171030 12900 net.cpp:165] Memory required for data: 1382400032
I0228 10:24:28.171041 12900 layer_factory.hpp:77] Creating layer conv2/dw/scale
I0228 10:24:28.171051 12900 net.cpp:100] Creating Layer conv2/dw/scale
I0228 10:24:28.171056 12900 net.cpp:434] conv2/dw/scale <- conv2/dw
I0228 10:24:28.171063 12900 net.cpp:395] conv2/dw/scale -> conv2/dw (in-place)
I0228 10:24:28.171108 12900 layer_factory.hpp:77] Creating layer conv2/dw/scale
I0228 10:24:28.171231 12900 net.cpp:150] Setting up conv2/dw/scale
I0228 10:24:28.171241 12900 net.cpp:157] Top shape: 24 64 75 75 (8640000)
I0228 10:24:28.171244 12900 net.cpp:165] Memory required for data: 1416960032
I0228 10:24:28.171252 12900 layer_factory.hpp:77] Creating layer conv2/dw/relu
I0228 10:24:28.171273 12900 net.cpp:100] Creating Layer conv2/dw/relu
I0228 10:24:28.171278 12900 net.cpp:434] conv2/dw/relu <- conv2/dw
I0228 10:24:28.171284 12900 net.cpp:395] conv2/dw/relu -> conv2/dw (in-place)
I0228 10:24:28.171741 12900 net.cpp:150] Setting up conv2/dw/relu
I0228 10:24:28.171754 12900 net.cpp:157] Top shape: 24 64 75 75 (8640000)
I0228 10:24:28.171758 12900 net.cpp:165] Memory required for data: 1451520032
I0228 10:24:28.171763 12900 layer_factory.hpp:77] Creating layer conv2
I0228 10:24:28.171790 12900 net.cpp:100] Creating Layer conv2
I0228 10:24:28.171811 12900 net.cpp:434] conv2 <- conv2/dw
I0228 10:24:28.171820 12900 net.cpp:408] conv2 -> conv2
I0228 10:24:28.174561 12900 net.cpp:150] Setting up conv2
I0228 10:24:28.174577 12900 net.cpp:157] Top shape: 24 128 75 75 (17280000)
I0228 10:24:28.174593 12900 net.cpp:165] Memory required for data: 1520640032
I0228 10:24:28.174600 12900 layer_factory.hpp:77] Creating layer conv2/bn
I0228 10:24:28.174607 12900 net.cpp:100] Creating Layer conv2/bn
I0228 10:24:28.174628 12900 net.cpp:434] conv2/bn <- conv2
I0228 10:24:28.174635 12900 net.cpp:395] conv2/bn -> conv2 (in-place)
I0228 10:24:28.174837 12900 net.cpp:150] Setting up conv2/bn
I0228 10:24:28.174846 12900 net.cpp:157] Top shape: 24 128 75 75 (17280000)
I0228 10:24:28.174852 12900 net.cpp:165] Memory required for data: 1589760032
I0228 10:24:28.174860 12900 layer_factory.hpp:77] Creating layer conv2/scale
I0228 10:24:28.174868 12900 net.cpp:100] Creating Layer conv2/scale
I0228 10:24:28.174872 12900 net.cpp:434] conv2/scale <- conv2
I0228 10:24:28.174880 12900 net.cpp:395] conv2/scale -> conv2 (in-place)
I0228 10:24:28.174919 12900 layer_factory.hpp:77] Creating layer conv2/scale
I0228 10:24:28.175056 12900 net.cpp:150] Setting up conv2/scale
I0228 10:24:28.175065 12900 net.cpp:157] Top shape: 24 128 75 75 (17280000)
I0228 10:24:28.175071 12900 net.cpp:165] Memory required for data: 1658880032
I0228 10:24:28.175078 12900 layer_factory.hpp:77] Creating layer conv2/relu
I0228 10:24:28.175084 12900 net.cpp:100] Creating Layer conv2/relu
I0228 10:24:28.175089 12900 net.cpp:434] conv2/relu <- conv2
I0228 10:24:28.175096 12900 net.cpp:395] conv2/relu -> conv2 (in-place)
I0228 10:24:28.175606 12900 net.cpp:150] Setting up conv2/relu
I0228 10:24:28.175616 12900 net.cpp:157] Top shape: 24 128 75 75 (17280000)
I0228 10:24:28.175631 12900 net.cpp:165] Memory required for data: 1728000032
I0228 10:24:28.175635 12900 layer_factory.hpp:77] Creating layer conv3/dw
I0228 10:24:28.175647 12900 net.cpp:100] Creating Layer conv3/dw
I0228 10:24:28.175667 12900 net.cpp:434] conv3/dw <- conv2
I0228 10:24:28.175674 12900 net.cpp:408] conv3/dw -> conv3/dw
I0228 10:24:28.175879 12900 net.cpp:150] Setting up conv3/dw
I0228 10:24:28.175889 12900 net.cpp:157] Top shape: 24 128 75 75 (17280000)
I0228 10:24:28.175894 12900 net.cpp:165] Memory required for data: 1797120032
I0228 10:24:28.175900 12900 layer_factory.hpp:77] Creating layer conv3/dw/bn
I0228 10:24:28.175907 12900 net.cpp:100] Creating Layer conv3/dw/bn
I0228 10:24:28.175912 12900 net.cpp:434] conv3/dw/bn <- conv3/dw
I0228 10:24:28.175918 12900 net.cpp:395] conv3/dw/bn -> conv3/dw (in-place)
I0228 10:24:28.176120 12900 net.cpp:150] Setting up conv3/dw/bn
I0228 10:24:28.176131 12900 net.cpp:157] Top shape: 24 128 75 75 (17280000)
I0228 10:24:28.176134 12900 net.cpp:165] Memory required for data: 1866240032
I0228 10:24:28.176147 12900 layer_factory.hpp:77] Creating layer conv3/dw/scale
I0228 10:24:28.176156 12900 net.cpp:100] Creating Layer conv3/dw/scale
I0228 10:24:28.176160 12900 net.cpp:434] conv3/dw/scale <- conv3/dw
I0228 10:24:28.176168 12900 net.cpp:395] conv3/dw/scale -> conv3/dw (in-place)
I0228 10:24:28.176220 12900 layer_factory.hpp:77] Creating layer conv3/dw/scale
I0228 10:24:28.176336 12900 net.cpp:150] Setting up conv3/dw/scale
I0228 10:24:28.176359 12900 net.cpp:157] Top shape: 24 128 75 75 (17280000)
I0228 10:24:28.176365 12900 net.cpp:165] Memory required for data: 1935360032
I0228 10:24:28.176373 12900 layer_factory.hpp:77] Creating layer conv3/dw/relu
I0228 10:24:28.176388 12900 net.cpp:100] Creating Layer conv3/dw/relu
I0228 10:24:28.176394 12900 net.cpp:434] conv3/dw/relu <- conv3/dw
I0228 10:24:28.176403 12900 net.cpp:395] conv3/dw/relu -> conv3/dw (in-place)
I0228 10:24:28.177357 12900 net.cpp:150] Setting up conv3/dw/relu
I0228 10:24:28.177372 12900 net.cpp:157] Top shape: 24 128 75 75 (17280000)
I0228 10:24:28.177378 12900 net.cpp:165] Memory required for data: 2004480032
I0228 10:24:28.177383 12900 layer_factory.hpp:77] Creating layer conv3
I0228 10:24:28.177394 12900 net.cpp:100] Creating Layer conv3
I0228 10:24:28.177400 12900 net.cpp:434] conv3 <- conv3/dw
I0228 10:24:28.177409 12900 net.cpp:408] conv3 -> conv3
I0228 10:24:28.179703 12900 net.cpp:150] Setting up conv3
I0228 10:24:28.179718 12900 net.cpp:157] Top shape: 24 128 75 75 (17280000)
I0228 10:24:28.179734 12900 net.cpp:165] Memory required for data: 2073600032
I0228 10:24:28.179742 12900 layer_factory.hpp:77] Creating layer conv3/bn
I0228 10:24:28.179752 12900 net.cpp:100] Creating Layer conv3/bn
I0228 10:24:28.179757 12900 net.cpp:434] conv3/bn <- conv3
I0228 10:24:28.179764 12900 net.cpp:395] conv3/bn -> conv3 (in-place)
I0228 10:24:28.179980 12900 net.cpp:150] Setting up conv3/bn
I0228 10:24:28.179989 12900 net.cpp:157] Top shape: 24 128 75 75 (17280000)
I0228 10:24:28.179993 12900 net.cpp:165] Memory required for data: 2142720032
I0228 10:24:28.180001 12900 layer_factory.hpp:77] Creating layer conv3/scale
I0228 10:24:28.180011 12900 net.cpp:100] Creating Layer conv3/scale
I0228 10:24:28.180016 12900 net.cpp:434] conv3/scale <- conv3
I0228 10:24:28.180021 12900 net.cpp:395] conv3/scale -> conv3 (in-place)
I0228 10:24:28.180061 12900 layer_factory.hpp:77] Creating layer conv3/scale
I0228 10:24:28.180178 12900 net.cpp:150] Setting up conv3/scale
I0228 10:24:28.180187 12900 net.cpp:157] Top shape: 24 128 75 75 (17280000)
I0228 10:24:28.180191 12900 net.cpp:165] Memory required for data: 2211840032
I0228 10:24:28.180198 12900 layer_factory.hpp:77] Creating layer conv3/relu
I0228 10:24:28.180207 12900 net.cpp:100] Creating Layer conv3/relu
I0228 10:24:28.180212 12900 net.cpp:434] conv3/relu <- conv3
I0228 10:24:28.180217 12900 net.cpp:395] conv3/relu -> conv3 (in-place)
I0228 10:24:28.180721 12900 net.cpp:150] Setting up conv3/relu
I0228 10:24:28.180734 12900 net.cpp:157] Top shape: 24 128 75 75 (17280000)
I0228 10:24:28.180739 12900 net.cpp:165] Memory required for data: 2280960032
I0228 10:24:28.180743 12900 layer_factory.hpp:77] Creating layer conv4/dw
I0228 10:24:28.180754 12900 net.cpp:100] Creating Layer conv4/dw
I0228 10:24:28.180763 12900 net.cpp:434] conv4/dw <- conv3
I0228 10:24:28.180769 12900 net.cpp:408] conv4/dw -> conv4/dw
I0228 10:24:28.180979 12900 net.cpp:150] Setting up conv4/dw
I0228 10:24:28.180989 12900 net.cpp:157] Top shape: 24 128 38 38 (4435968)
I0228 10:24:28.181008 12900 net.cpp:165] Memory required for data: 2298703904
I0228 10:24:28.181015 12900 layer_factory.hpp:77] Creating layer conv4/dw/bn
I0228 10:24:28.181021 12900 net.cpp:100] Creating Layer conv4/dw/bn
I0228 10:24:28.181026 12900 net.cpp:434] conv4/dw/bn <- conv4/dw
I0228 10:24:28.181033 12900 net.cpp:395] conv4/dw/bn -> conv4/dw (in-place)
I0228 10:24:28.181210 12900 net.cpp:150] Setting up conv4/dw/bn
I0228 10:24:28.181218 12900 net.cpp:157] Top shape: 24 128 38 38 (4435968)
I0228 10:24:28.181222 12900 net.cpp:165] Memory required for data: 2316447776
I0228 10:24:28.181231 12900 layer_factory.hpp:77] Creating layer conv4/dw/scale
I0228 10:24:28.181241 12900 net.cpp:100] Creating Layer conv4/dw/scale
I0228 10:24:28.181246 12900 net.cpp:434] conv4/dw/scale <- conv4/dw
I0228 10:24:28.181252 12900 net.cpp:395] conv4/dw/scale -> conv4/dw (in-place)
I0228 10:24:28.181291 12900 layer_factory.hpp:77] Creating layer conv4/dw/scale
I0228 10:24:28.181417 12900 net.cpp:150] Setting up conv4/dw/scale
I0228 10:24:28.181426 12900 net.cpp:157] Top shape: 24 128 38 38 (4435968)
I0228 10:24:28.181430 12900 net.cpp:165] Memory required for data: 2334191648
I0228 10:24:28.181437 12900 layer_factory.hpp:77] Creating layer conv4/dw/relu
I0228 10:24:28.181454 12900 net.cpp:100] Creating Layer conv4/dw/relu
I0228 10:24:28.181459 12900 net.cpp:434] conv4/dw/relu <- conv4/dw
I0228 10:24:28.181466 12900 net.cpp:395] conv4/dw/relu -> conv4/dw (in-place)
I0228 10:24:28.181915 12900 net.cpp:150] Setting up conv4/dw/relu
I0228 10:24:28.181927 12900 net.cpp:157] Top shape: 24 128 38 38 (4435968)
I0228 10:24:28.181931 12900 net.cpp:165] Memory required for data: 2351935520
I0228 10:24:28.181936 12900 layer_factory.hpp:77] Creating layer conv4
I0228 10:24:28.181947 12900 net.cpp:100] Creating Layer conv4
I0228 10:24:28.181952 12900 net.cpp:434] conv4 <- conv4/dw
I0228 10:24:28.181960 12900 net.cpp:408] conv4 -> conv4
I0228 10:24:28.184403 12900 net.cpp:150] Setting up conv4
I0228 10:24:28.184422 12900 net.cpp:157] Top shape: 24 256 38 38 (8871936)
I0228 10:24:28.184427 12900 net.cpp:165] Memory required for data: 2387423264
I0228 10:24:28.184433 12900 layer_factory.hpp:77] Creating layer conv4/bn
I0228 10:24:28.184442 12900 net.cpp:100] Creating Layer conv4/bn
I0228 10:24:28.184448 12900 net.cpp:434] conv4/bn <- conv4
I0228 10:24:28.184455 12900 net.cpp:395] conv4/bn -> conv4 (in-place)
I0228 10:24:28.184667 12900 net.cpp:150] Setting up conv4/bn
I0228 10:24:28.184676 12900 net.cpp:157] Top shape: 24 256 38 38 (8871936)
I0228 10:24:28.184682 12900 net.cpp:165] Memory required for data: 2422911008
I0228 10:24:28.184691 12900 layer_factory.hpp:77] Creating layer conv4/scale
I0228 10:24:28.184700 12900 net.cpp:100] Creating Layer conv4/scale
I0228 10:24:28.184705 12900 net.cpp:434] conv4/scale <- conv4
I0228 10:24:28.184710 12900 net.cpp:395] conv4/scale -> conv4 (in-place)
I0228 10:24:28.184753 12900 layer_factory.hpp:77] Creating layer conv4/scale
I0228 10:24:28.184870 12900 net.cpp:150] Setting up conv4/scale
I0228 10:24:28.184880 12900 net.cpp:157] Top shape: 24 256 38 38 (8871936)
I0228 10:24:28.184885 12900 net.cpp:165] Memory required for data: 2458398752
I0228 10:24:28.184891 12900 layer_factory.hpp:77] Creating layer conv4/relu
I0228 10:24:28.184898 12900 net.cpp:100] Creating Layer conv4/relu
I0228 10:24:28.184902 12900 net.cpp:434] conv4/relu <- conv4
I0228 10:24:28.184911 12900 net.cpp:395] conv4/relu -> conv4 (in-place)
I0228 10:24:28.185395 12900 net.cpp:150] Setting up conv4/relu
I0228 10:24:28.185407 12900 net.cpp:157] Top shape: 24 256 38 38 (8871936)
I0228 10:24:28.185411 12900 net.cpp:165] Memory required for data: 2493886496
I0228 10:24:28.185417 12900 layer_factory.hpp:77] Creating layer conv5/dw
I0228 10:24:28.185427 12900 net.cpp:100] Creating Layer conv5/dw
I0228 10:24:28.185432 12900 net.cpp:434] conv5/dw <- conv4
I0228 10:24:28.185441 12900 net.cpp:408] conv5/dw -> conv5/dw
I0228 10:24:28.185703 12900 net.cpp:150] Setting up conv5/dw
I0228 10:24:28.185714 12900 net.cpp:157] Top shape: 24 256 38 38 (8871936)
I0228 10:24:28.185719 12900 net.cpp:165] Memory required for data: 2529374240
I0228 10:24:28.185725 12900 layer_factory.hpp:77] Creating layer conv5/dw/bn
I0228 10:24:28.185734 12900 net.cpp:100] Creating Layer conv5/dw/bn
I0228 10:24:28.185739 12900 net.cpp:434] conv5/dw/bn <- conv5/dw
I0228 10:24:28.185745 12900 net.cpp:395] conv5/dw/bn -> conv5/dw (in-place)
I0228 10:24:28.185953 12900 net.cpp:150] Setting up conv5/dw/bn
I0228 10:24:28.185963 12900 net.cpp:157] Top shape: 24 256 38 38 (8871936)
I0228 10:24:28.185967 12900 net.cpp:165] Memory required for data: 2564861984
I0228 10:24:28.185974 12900 layer_factory.hpp:77] Creating layer conv5/dw/scale
I0228 10:24:28.185983 12900 net.cpp:100] Creating Layer conv5/dw/scale
I0228 10:24:28.185989 12900 net.cpp:434] conv5/dw/scale <- conv5/dw
I0228 10:24:28.185994 12900 net.cpp:395] conv5/dw/scale -> conv5/dw (in-place)
I0228 10:24:28.186053 12900 layer_factory.hpp:77] Creating layer conv5/dw/scale
I0228 10:24:28.186172 12900 net.cpp:150] Setting up conv5/dw/scale
I0228 10:24:28.186182 12900 net.cpp:157] Top shape: 24 256 38 38 (8871936)
I0228 10:24:28.186185 12900 net.cpp:165] Memory required for data: 2600349728
I0228 10:24:28.186192 12900 layer_factory.hpp:77] Creating layer conv5/dw/relu
I0228 10:24:28.186208 12900 net.cpp:100] Creating Layer conv5/dw/relu
I0228 10:24:28.186213 12900 net.cpp:434] conv5/dw/relu <- conv5/dw
I0228 10:24:28.186220 12900 net.cpp:395] conv5/dw/relu -> conv5/dw (in-place)
I0228 10:24:28.187147 12900 net.cpp:150] Setting up conv5/dw/relu
I0228 10:24:28.187162 12900 net.cpp:157] Top shape: 24 256 38 38 (8871936)
I0228 10:24:28.187167 12900 net.cpp:165] Memory required for data: 2635837472
I0228 10:24:28.187172 12900 layer_factory.hpp:77] Creating layer conv5
I0228 10:24:28.187183 12900 net.cpp:100] Creating Layer conv5
I0228 10:24:28.187188 12900 net.cpp:434] conv5 <- conv5/dw
I0228 10:24:28.187197 12900 net.cpp:408] conv5 -> conv5
I0228 10:24:28.190028 12900 net.cpp:150] Setting up conv5
I0228 10:24:28.190045 12900 net.cpp:157] Top shape: 24 256 38 38 (8871936)
I0228 10:24:28.190050 12900 net.cpp:165] Memory required for data: 2671325216
I0228 10:24:28.190058 12900 layer_factory.hpp:77] Creating layer conv5/bn
I0228 10:24:28.190068 12900 net.cpp:100] Creating Layer conv5/bn
I0228 10:24:28.190073 12900 net.cpp:434] conv5/bn <- conv5
I0228 10:24:28.190079 12900 net.cpp:395] conv5/bn -> conv5 (in-place)
I0228 10:24:28.190299 12900 net.cpp:150] Setting up conv5/bn
I0228 10:24:28.190310 12900 net.cpp:157] Top shape: 24 256 38 38 (8871936)
I0228 10:24:28.190315 12900 net.cpp:165] Memory required for data: 2706812960
I0228 10:24:28.190323 12900 layer_factory.hpp:77] Creating layer conv5/scale
I0228 10:24:28.190335 12900 net.cpp:100] Creating Layer conv5/scale
I0228 10:24:28.190340 12900 net.cpp:434] conv5/scale <- conv5
I0228 10:24:28.190346 12900 net.cpp:395] conv5/scale -> conv5 (in-place)
I0228 10:24:28.190403 12900 layer_factory.hpp:77] Creating layer conv5/scale
I0228 10:24:28.190523 12900 net.cpp:150] Setting up conv5/scale
I0228 10:24:28.190532 12900 net.cpp:157] Top shape: 24 256 38 38 (8871936)
I0228 10:24:28.190536 12900 net.cpp:165] Memory required for data: 2742300704
I0228 10:24:28.190551 12900 layer_factory.hpp:77] Creating layer conv5/relu
I0228 10:24:28.190560 12900 net.cpp:100] Creating Layer conv5/relu
I0228 10:24:28.190564 12900 net.cpp:434] conv5/relu <- conv5
I0228 10:24:28.190570 12900 net.cpp:395] conv5/relu -> conv5 (in-place)
I0228 10:24:28.191058 12900 net.cpp:150] Setting up conv5/relu
I0228 10:24:28.191071 12900 net.cpp:157] Top shape: 24 256 38 38 (8871936)
I0228 10:24:28.191077 12900 net.cpp:165] Memory required for data: 2777788448
I0228 10:24:28.191082 12900 layer_factory.hpp:77] Creating layer conv6/dw
I0228 10:24:28.191092 12900 net.cpp:100] Creating Layer conv6/dw
I0228 10:24:28.191097 12900 net.cpp:434] conv6/dw <- conv5
I0228 10:24:28.191108 12900 net.cpp:408] conv6/dw -> conv6/dw
I0228 10:24:28.191365 12900 net.cpp:150] Setting up conv6/dw
I0228 10:24:28.191375 12900 net.cpp:157] Top shape: 24 256 19 19 (2217984)
I0228 10:24:28.191380 12900 net.cpp:165] Memory required for data: 2786660384
I0228 10:24:28.191385 12900 layer_factory.hpp:77] Creating layer conv6/dw/bn
I0228 10:24:28.191391 12900 net.cpp:100] Creating Layer conv6/dw/bn
I0228 10:24:28.191396 12900 net.cpp:434] conv6/dw/bn <- conv6/dw
I0228 10:24:28.191403 12900 net.cpp:395] conv6/dw/bn -> conv6/dw (in-place)
I0228 10:24:28.191638 12900 net.cpp:150] Setting up conv6/dw/bn
I0228 10:24:28.191648 12900 net.cpp:157] Top shape: 24 256 19 19 (2217984)
I0228 10:24:28.191651 12900 net.cpp:165] Memory required for data: 2795532320
I0228 10:24:28.191660 12900 layer_factory.hpp:77] Creating layer conv6/dw/scale
I0228 10:24:28.191668 12900 net.cpp:100] Creating Layer conv6/dw/scale
I0228 10:24:28.191673 12900 net.cpp:434] conv6/dw/scale <- conv6/dw
I0228 10:24:28.191679 12900 net.cpp:395] conv6/dw/scale -> conv6/dw (in-place)
I0228 10:24:28.191721 12900 layer_factory.hpp:77] Creating layer conv6/dw/scale
I0228 10:24:28.191849 12900 net.cpp:150] Setting up conv6/dw/scale
I0228 10:24:28.191859 12900 net.cpp:157] Top shape: 24 256 19 19 (2217984)
I0228 10:24:28.191862 12900 net.cpp:165] Memory required for data: 2804404256
I0228 10:24:28.191869 12900 layer_factory.hpp:77] Creating layer conv6/dw/relu
I0228 10:24:28.191905 12900 net.cpp:100] Creating Layer conv6/dw/relu
I0228 10:24:28.191910 12900 net.cpp:434] conv6/dw/relu <- conv6/dw
I0228 10:24:28.191916 12900 net.cpp:395] conv6/dw/relu -> conv6/dw (in-place)
I0228 10:24:28.192418 12900 net.cpp:150] Setting up conv6/dw/relu
I0228 10:24:28.192432 12900 net.cpp:157] Top shape: 24 256 19 19 (2217984)
I0228 10:24:28.192437 12900 net.cpp:165] Memory required for data: 2813276192
I0228 10:24:28.192441 12900 layer_factory.hpp:77] Creating layer conv6
I0228 10:24:28.192466 12900 net.cpp:100] Creating Layer conv6
I0228 10:24:28.192473 12900 net.cpp:434] conv6 <- conv6/dw
I0228 10:24:28.192482 12900 net.cpp:408] conv6 -> conv6
I0228 10:24:28.197180 12900 net.cpp:150] Setting up conv6
I0228 10:24:28.197197 12900 net.cpp:157] Top shape: 24 512 19 19 (4435968)
I0228 10:24:28.197202 12900 net.cpp:165] Memory required for data: 2831020064
I0228 10:24:28.197209 12900 layer_factory.hpp:77] Creating layer conv6/bn
I0228 10:24:28.197218 12900 net.cpp:100] Creating Layer conv6/bn
I0228 10:24:28.197224 12900 net.cpp:434] conv6/bn <- conv6
I0228 10:24:28.197230 12900 net.cpp:395] conv6/bn -> conv6 (in-place)
I0228 10:24:28.197470 12900 net.cpp:150] Setting up conv6/bn
I0228 10:24:28.197480 12900 net.cpp:157] Top shape: 24 512 19 19 (4435968)
I0228 10:24:28.197486 12900 net.cpp:165] Memory required for data: 2848763936
I0228 10:24:28.197496 12900 layer_factory.hpp:77] Creating layer conv6/scale
I0228 10:24:28.197505 12900 net.cpp:100] Creating Layer conv6/scale
I0228 10:24:28.197511 12900 net.cpp:434] conv6/scale <- conv6
I0228 10:24:28.197518 12900 net.cpp:395] conv6/scale -> conv6 (in-place)
I0228 10:24:28.197566 12900 layer_factory.hpp:77] Creating layer conv6/scale
I0228 10:24:28.197684 12900 net.cpp:150] Setting up conv6/scale
I0228 10:24:28.197692 12900 net.cpp:157] Top shape: 24 512 19 19 (4435968)
I0228 10:24:28.197697 12900 net.cpp:165] Memory required for data: 2866507808
I0228 10:24:28.197705 12900 layer_factory.hpp:77] Creating layer conv6/relu
I0228 10:24:28.197713 12900 net.cpp:100] Creating Layer conv6/relu
I0228 10:24:28.197717 12900 net.cpp:434] conv6/relu <- conv6
I0228 10:24:28.197724 12900 net.cpp:395] conv6/relu -> conv6 (in-place)
I0228 10:24:28.198657 12900 net.cpp:150] Setting up conv6/relu
I0228 10:24:28.198684 12900 net.cpp:157] Top shape: 24 512 19 19 (4435968)
I0228 10:24:28.198689 12900 net.cpp:165] Memory required for data: 2884251680
I0228 10:24:28.198695 12900 layer_factory.hpp:77] Creating layer conv7/dw
I0228 10:24:28.198720 12900 net.cpp:100] Creating Layer conv7/dw
I0228 10:24:28.198725 12900 net.cpp:434] conv7/dw <- conv6
I0228 10:24:28.198732 12900 net.cpp:408] conv7/dw -> conv7/dw
I0228 10:24:28.199002 12900 net.cpp:150] Setting up conv7/dw
I0228 10:24:28.199012 12900 net.cpp:157] Top shape: 24 512 19 19 (4435968)
I0228 10:24:28.199015 12900 net.cpp:165] Memory required for data: 2901995552
I0228 10:24:28.199035 12900 layer_factory.hpp:77] Creating layer conv7/dw/bn
I0228 10:24:28.199043 12900 net.cpp:100] Creating Layer conv7/dw/bn
I0228 10:24:28.199062 12900 net.cpp:434] conv7/dw/bn <- conv7/dw
I0228 10:24:28.199069 12900 net.cpp:395] conv7/dw/bn -> conv7/dw (in-place)
I0228 10:24:28.199295 12900 net.cpp:150] Setting up conv7/dw/bn
I0228 10:24:28.199304 12900 net.cpp:157] Top shape: 24 512 19 19 (4435968)
I0228 10:24:28.199309 12900 net.cpp:165] Memory required for data: 2919739424
I0228 10:24:28.199317 12900 layer_factory.hpp:77] Creating layer conv7/dw/scale
I0228 10:24:28.199324 12900 net.cpp:100] Creating Layer conv7/dw/scale
I0228 10:24:28.199331 12900 net.cpp:434] conv7/dw/scale <- conv7/dw
I0228 10:24:28.199337 12900 net.cpp:395] conv7/dw/scale -> conv7/dw (in-place)
I0228 10:24:28.199393 12900 layer_factory.hpp:77] Creating layer conv7/dw/scale
I0228 10:24:28.199525 12900 net.cpp:150] Setting up conv7/dw/scale
I0228 10:24:28.199537 12900 net.cpp:157] Top shape: 24 512 19 19 (4435968)
I0228 10:24:28.199542 12900 net.cpp:165] Memory required for data: 2937483296
I0228 10:24:28.199548 12900 layer_factory.hpp:77] Creating layer conv7/dw/relu
I0228 10:24:28.199568 12900 net.cpp:100] Creating Layer conv7/dw/relu
I0228 10:24:28.199574 12900 net.cpp:434] conv7/dw/relu <- conv7/dw
I0228 10:24:28.199580 12900 net.cpp:395] conv7/dw/relu -> conv7/dw (in-place)
I0228 10:24:28.200047 12900 net.cpp:150] Setting up conv7/dw/relu
I0228 10:24:28.200059 12900 net.cpp:157] Top shape: 24 512 19 19 (4435968)
I0228 10:24:28.200075 12900 net.cpp:165] Memory required for data: 2955227168
I0228 10:24:28.200080 12900 layer_factory.hpp:77] Creating layer conv7
I0228 10:24:28.200090 12900 net.cpp:100] Creating Layer conv7
I0228 10:24:28.200094 12900 net.cpp:434] conv7 <- conv7/dw
I0228 10:24:28.200103 12900 net.cpp:408] conv7 -> conv7
I0228 10:24:28.204969 12900 net.cpp:150] Setting up conv7
I0228 10:24:28.205000 12900 net.cpp:157] Top shape: 24 512 19 19 (4435968)
I0228 10:24:28.205005 12900 net.cpp:165] Memory required for data: 2972971040
I0228 10:24:28.205013 12900 layer_factory.hpp:77] Creating layer conv7/bn
I0228 10:24:28.205021 12900 net.cpp:100] Creating Layer conv7/bn
I0228 10:24:28.205026 12900 net.cpp:434] conv7/bn <- conv7
I0228 10:24:28.205032 12900 net.cpp:395] conv7/bn -> conv7 (in-place)
I0228 10:24:28.205263 12900 net.cpp:150] Setting up conv7/bn
I0228 10:24:28.205273 12900 net.cpp:157] Top shape: 24 512 19 19 (4435968)
I0228 10:24:28.205277 12900 net.cpp:165] Memory required for data: 2990714912
I0228 10:24:28.205286 12900 layer_factory.hpp:77] Creating layer conv7/scale
I0228 10:24:28.205296 12900 net.cpp:100] Creating Layer conv7/scale
I0228 10:24:28.205301 12900 net.cpp:434] conv7/scale <- conv7
I0228 10:24:28.205307 12900 net.cpp:395] conv7/scale -> conv7 (in-place)
I0228 10:24:28.205353 12900 layer_factory.hpp:77] Creating layer conv7/scale
I0228 10:24:28.205490 12900 net.cpp:150] Setting up conv7/scale
I0228 10:24:28.205502 12900 net.cpp:157] Top shape: 24 512 19 19 (4435968)
I0228 10:24:28.205507 12900 net.cpp:165] Memory required for data: 3008458784
I0228 10:24:28.205513 12900 layer_factory.hpp:77] Creating layer conv7/relu
I0228 10:24:28.205520 12900 net.cpp:100] Creating Layer conv7/relu
I0228 10:24:28.205525 12900 net.cpp:434] conv7/relu <- conv7
I0228 10:24:28.205530 12900 net.cpp:395] conv7/relu -> conv7 (in-place)
I0228 10:24:28.206053 12900 net.cpp:150] Setting up conv7/relu
I0228 10:24:28.206066 12900 net.cpp:157] Top shape: 24 512 19 19 (4435968)
I0228 10:24:28.206085 12900 net.cpp:165] Memory required for data: 3026202656
I0228 10:24:28.206090 12900 layer_factory.hpp:77] Creating layer conv8/dw
I0228 10:24:28.206101 12900 net.cpp:100] Creating Layer conv8/dw
I0228 10:24:28.206107 12900 net.cpp:434] conv8/dw <- conv7
I0228 10:24:28.206115 12900 net.cpp:408] conv8/dw -> conv8/dw
I0228 10:24:28.206379 12900 net.cpp:150] Setting up conv8/dw
I0228 10:24:28.206388 12900 net.cpp:157] Top shape: 24 512 19 19 (4435968)
I0228 10:24:28.206393 12900 net.cpp:165] Memory required for data: 3043946528
I0228 10:24:28.206400 12900 layer_factory.hpp:77] Creating layer conv8/dw/bn
I0228 10:24:28.206423 12900 net.cpp:100] Creating Layer conv8/dw/bn
I0228 10:24:28.206444 12900 net.cpp:434] conv8/dw/bn <- conv8/dw
I0228 10:24:28.206451 12900 net.cpp:395] conv8/dw/bn -> conv8/dw (in-place)
I0228 10:24:28.206667 12900 net.cpp:150] Setting up conv8/dw/bn
I0228 10:24:28.206676 12900 net.cpp:157] Top shape: 24 512 19 19 (4435968)
I0228 10:24:28.206681 12900 net.cpp:165] Memory required for data: 3061690400
I0228 10:24:28.206689 12900 layer_factory.hpp:77] Creating layer conv8/dw/scale
I0228 10:24:28.206704 12900 net.cpp:100] Creating Layer conv8/dw/scale
I0228 10:24:28.206725 12900 net.cpp:434] conv8/dw/scale <- conv8/dw
I0228 10:24:28.206732 12900 net.cpp:395] conv8/dw/scale -> conv8/dw (in-place)
I0228 10:24:28.206779 12900 layer_factory.hpp:77] Creating layer conv8/dw/scale
I0228 10:24:28.206917 12900 net.cpp:150] Setting up conv8/dw/scale
I0228 10:24:28.206924 12900 net.cpp:157] Top shape: 24 512 19 19 (4435968)
I0228 10:24:28.206928 12900 net.cpp:165] Memory required for data: 3079434272
I0228 10:24:28.206936 12900 layer_factory.hpp:77] Creating layer conv8/dw/relu
I0228 10:24:28.206955 12900 net.cpp:100] Creating Layer conv8/dw/relu
I0228 10:24:28.206960 12900 net.cpp:434] conv8/dw/relu <- conv8/dw
I0228 10:24:28.206969 12900 net.cpp:395] conv8/dw/relu -> conv8/dw (in-place)
I0228 10:24:28.207926 12900 net.cpp:150] Setting up conv8/dw/relu
I0228 10:24:28.207940 12900 net.cpp:157] Top shape: 24 512 19 19 (4435968)
I0228 10:24:28.207945 12900 net.cpp:165] Memory required for data: 3097178144
I0228 10:24:28.207949 12900 layer_factory.hpp:77] Creating layer conv8
I0228 10:24:28.207978 12900 net.cpp:100] Creating Layer conv8
I0228 10:24:28.207983 12900 net.cpp:434] conv8 <- conv8/dw
I0228 10:24:28.207991 12900 net.cpp:408] conv8 -> conv8
I0228 10:24:28.213856 12900 net.cpp:150] Setting up conv8
I0228 10:24:28.213891 12900 net.cpp:157] Top shape: 24 512 19 19 (4435968)
I0228 10:24:28.213896 12900 net.cpp:165] Memory required for data: 3114922016
I0228 10:24:28.213902 12900 layer_factory.hpp:77] Creating layer conv8/bn
I0228 10:24:28.213910 12900 net.cpp:100] Creating Layer conv8/bn
I0228 10:24:28.213917 12900 net.cpp:434] conv8/bn <- conv8
I0228 10:24:28.213924 12900 net.cpp:395] conv8/bn -> conv8 (in-place)
I0228 10:24:28.214148 12900 net.cpp:150] Setting up conv8/bn
I0228 10:24:28.214159 12900 net.cpp:157] Top shape: 24 512 19 19 (4435968)
I0228 10:24:28.214164 12900 net.cpp:165] Memory required for data: 3132665888
I0228 10:24:28.214171 12900 layer_factory.hpp:77] Creating layer conv8/scale
I0228 10:24:28.214179 12900 net.cpp:100] Creating Layer conv8/scale
I0228 10:24:28.214184 12900 net.cpp:434] conv8/scale <- conv8
I0228 10:24:28.214192 12900 net.cpp:395] conv8/scale -> conv8 (in-place)
I0228 10:24:28.214239 12900 layer_factory.hpp:77] Creating layer conv8/scale
I0228 10:24:28.214375 12900 net.cpp:150] Setting up conv8/scale
I0228 10:24:28.214385 12900 net.cpp:157] Top shape: 24 512 19 19 (4435968)
I0228 10:24:28.214390 12900 net.cpp:165] Memory required for data: 3150409760
I0228 10:24:28.214397 12900 layer_factory.hpp:77] Creating layer conv8/relu
I0228 10:24:28.214403 12900 net.cpp:100] Creating Layer conv8/relu
I0228 10:24:28.214408 12900 net.cpp:434] conv8/relu <- conv8
I0228 10:24:28.214417 12900 net.cpp:395] conv8/relu -> conv8 (in-place)
I0228 10:24:28.214941 12900 net.cpp:150] Setting up conv8/relu
I0228 10:24:28.214952 12900 net.cpp:157] Top shape: 24 512 19 19 (4435968)
I0228 10:24:28.214972 12900 net.cpp:165] Memory required for data: 3168153632
I0228 10:24:28.214978 12900 layer_factory.hpp:77] Creating layer conv9/dw
I0228 10:24:28.214989 12900 net.cpp:100] Creating Layer conv9/dw
I0228 10:24:28.214994 12900 net.cpp:434] conv9/dw <- conv8
I0228 10:24:28.215003 12900 net.cpp:408] conv9/dw -> conv9/dw
I0228 10:24:28.215276 12900 net.cpp:150] Setting up conv9/dw
I0228 10:24:28.215286 12900 net.cpp:157] Top shape: 24 512 19 19 (4435968)
I0228 10:24:28.215291 12900 net.cpp:165] Memory required for data: 3185897504
I0228 10:24:28.215311 12900 layer_factory.hpp:77] Creating layer conv9/dw/bn
I0228 10:24:28.215318 12900 net.cpp:100] Creating Layer conv9/dw/bn
I0228 10:24:28.215337 12900 net.cpp:434] conv9/dw/bn <- conv9/dw
I0228 10:24:28.215344 12900 net.cpp:395] conv9/dw/bn -> conv9/dw (in-place)
I0228 10:24:28.215560 12900 net.cpp:150] Setting up conv9/dw/bn
I0228 10:24:28.215570 12900 net.cpp:157] Top shape: 24 512 19 19 (4435968)
I0228 10:24:28.215574 12900 net.cpp:165] Memory required for data: 3203641376
I0228 10:24:28.215582 12900 layer_factory.hpp:77] Creating layer conv9/dw/scale
I0228 10:24:28.215589 12900 net.cpp:100] Creating Layer conv9/dw/scale
I0228 10:24:28.215595 12900 net.cpp:434] conv9/dw/scale <- conv9/dw
I0228 10:24:28.215601 12900 net.cpp:395] conv9/dw/scale -> conv9/dw (in-place)
I0228 10:24:28.215643 12900 layer_factory.hpp:77] Creating layer conv9/dw/scale
I0228 10:24:28.215760 12900 net.cpp:150] Setting up conv9/dw/scale
I0228 10:24:28.215770 12900 net.cpp:157] Top shape: 24 512 19 19 (4435968)
I0228 10:24:28.215773 12900 net.cpp:165] Memory required for data: 3221385248
I0228 10:24:28.215780 12900 layer_factory.hpp:77] Creating layer conv9/dw/relu
I0228 10:24:28.215801 12900 net.cpp:100] Creating Layer conv9/dw/relu
I0228 10:24:28.215822 12900 net.cpp:434] conv9/dw/relu <- conv9/dw
I0228 10:24:28.215829 12900 net.cpp:395] conv9/dw/relu -> conv9/dw (in-place)
I0228 10:24:28.216300 12900 net.cpp:150] Setting up conv9/dw/relu
I0228 10:24:28.216311 12900 net.cpp:157] Top shape: 24 512 19 19 (4435968)
I0228 10:24:28.216327 12900 net.cpp:165] Memory required for data: 3239129120
I0228 10:24:28.216331 12900 layer_factory.hpp:77] Creating layer conv9
I0228 10:24:28.216341 12900 net.cpp:100] Creating Layer conv9
I0228 10:24:28.216361 12900 net.cpp:434] conv9 <- conv9/dw
I0228 10:24:28.216372 12900 net.cpp:408] conv9 -> conv9
I0228 10:24:28.221246 12900 net.cpp:150] Setting up conv9
I0228 10:24:28.221262 12900 net.cpp:157] Top shape: 24 512 19 19 (4435968)
I0228 10:24:28.221266 12900 net.cpp:165] Memory required for data: 3256872992
I0228 10:24:28.221274 12900 layer_factory.hpp:77] Creating layer conv9/bn
I0228 10:24:28.221283 12900 net.cpp:100] Creating Layer conv9/bn
I0228 10:24:28.221288 12900 net.cpp:434] conv9/bn <- conv9
I0228 10:24:28.221295 12900 net.cpp:395] conv9/bn -> conv9 (in-place)
I0228 10:24:28.221536 12900 net.cpp:150] Setting up conv9/bn
I0228 10:24:28.221546 12900 net.cpp:157] Top shape: 24 512 19 19 (4435968)
I0228 10:24:28.221550 12900 net.cpp:165] Memory required for data: 3274616864
I0228 10:24:28.221560 12900 layer_factory.hpp:77] Creating layer conv9/scale
I0228 10:24:28.221585 12900 net.cpp:100] Creating Layer conv9/scale
I0228 10:24:28.221588 12900 net.cpp:434] conv9/scale <- conv9
I0228 10:24:28.221596 12900 net.cpp:395] conv9/scale -> conv9 (in-place)
I0228 10:24:28.221642 12900 layer_factory.hpp:77] Creating layer conv9/scale
I0228 10:24:28.221765 12900 net.cpp:150] Setting up conv9/scale
I0228 10:24:28.221773 12900 net.cpp:157] Top shape: 24 512 19 19 (4435968)
I0228 10:24:28.221777 12900 net.cpp:165] Memory required for data: 3292360736
I0228 10:24:28.221784 12900 layer_factory.hpp:77] Creating layer conv9/relu
I0228 10:24:28.221792 12900 net.cpp:100] Creating Layer conv9/relu
I0228 10:24:28.221797 12900 net.cpp:434] conv9/relu <- conv9
I0228 10:24:28.221802 12900 net.cpp:395] conv9/relu -> conv9 (in-place)
I0228 10:24:28.222304 12900 net.cpp:150] Setting up conv9/relu
I0228 10:24:28.222316 12900 net.cpp:157] Top shape: 24 512 19 19 (4435968)
I0228 10:24:28.222321 12900 net.cpp:165] Memory required for data: 3310104608
I0228 10:24:28.222326 12900 layer_factory.hpp:77] Creating layer conv10/dw
I0228 10:24:28.222337 12900 net.cpp:100] Creating Layer conv10/dw
I0228 10:24:28.222342 12900 net.cpp:434] conv10/dw <- conv9
I0228 10:24:28.222349 12900 net.cpp:408] conv10/dw -> conv10/dw
I0228 10:24:28.222621 12900 net.cpp:150] Setting up conv10/dw
I0228 10:24:28.222631 12900 net.cpp:157] Top shape: 24 512 19 19 (4435968)
I0228 10:24:28.222636 12900 net.cpp:165] Memory required for data: 3327848480
I0228 10:24:28.222642 12900 layer_factory.hpp:77] Creating layer conv10/dw/bn
I0228 10:24:28.222648 12900 net.cpp:100] Creating Layer conv10/dw/bn
I0228 10:24:28.222653 12900 net.cpp:434] conv10/dw/bn <- conv10/dw
I0228 10:24:28.222659 12900 net.cpp:395] conv10/dw/bn -> conv10/dw (in-place)
I0228 10:24:28.222870 12900 net.cpp:150] Setting up conv10/dw/bn
I0228 10:24:28.222879 12900 net.cpp:157] Top shape: 24 512 19 19 (4435968)
I0228 10:24:28.222883 12900 net.cpp:165] Memory required for data: 3345592352
I0228 10:24:28.222892 12900 layer_factory.hpp:77] Creating layer conv10/dw/scale
I0228 10:24:28.222898 12900 net.cpp:100] Creating Layer conv10/dw/scale
I0228 10:24:28.222903 12900 net.cpp:434] conv10/dw/scale <- conv10/dw
I0228 10:24:28.222908 12900 net.cpp:395] conv10/dw/scale -> conv10/dw (in-place)
I0228 10:24:28.222951 12900 layer_factory.hpp:77] Creating layer conv10/dw/scale
I0228 10:24:28.223080 12900 net.cpp:150] Setting up conv10/dw/scale
I0228 10:24:28.223089 12900 net.cpp:157] Top shape: 24 512 19 19 (4435968)
I0228 10:24:28.223094 12900 net.cpp:165] Memory required for data: 3363336224
I0228 10:24:28.223101 12900 layer_factory.hpp:77] Creating layer conv10/dw/relu
I0228 10:24:28.223119 12900 net.cpp:100] Creating Layer conv10/dw/relu
I0228 10:24:28.223124 12900 net.cpp:434] conv10/dw/relu <- conv10/dw
I0228 10:24:28.223129 12900 net.cpp:395] conv10/dw/relu -> conv10/dw (in-place)
I0228 10:24:28.224066 12900 net.cpp:150] Setting up conv10/dw/relu
I0228 10:24:28.224081 12900 net.cpp:157] Top shape: 24 512 19 19 (4435968)
I0228 10:24:28.224086 12900 net.cpp:165] Memory required for data: 3381080096
I0228 10:24:28.224090 12900 layer_factory.hpp:77] Creating layer conv10
I0228 10:24:28.224119 12900 net.cpp:100] Creating Layer conv10
I0228 10:24:28.224143 12900 net.cpp:434] conv10 <- conv10/dw
I0228 10:24:28.224151 12900 net.cpp:408] conv10 -> conv10
I0228 10:24:28.229892 12900 net.cpp:150] Setting up conv10
I0228 10:24:28.229925 12900 net.cpp:157] Top shape: 24 512 19 19 (4435968)
I0228 10:24:28.229930 12900 net.cpp:165] Memory required for data: 3398823968
I0228 10:24:28.229938 12900 layer_factory.hpp:77] Creating layer conv10/bn
I0228 10:24:28.229946 12900 net.cpp:100] Creating Layer conv10/bn
I0228 10:24:28.229952 12900 net.cpp:434] conv10/bn <- conv10
I0228 10:24:28.229959 12900 net.cpp:395] conv10/bn -> conv10 (in-place)
I0228 10:24:28.230170 12900 net.cpp:150] Setting up conv10/bn
I0228 10:24:28.230178 12900 net.cpp:157] Top shape: 24 512 19 19 (4435968)
I0228 10:24:28.230183 12900 net.cpp:165] Memory required for data: 3416567840
I0228 10:24:28.230192 12900 layer_factory.hpp:77] Creating layer conv10/scale
I0228 10:24:28.230199 12900 net.cpp:100] Creating Layer conv10/scale
I0228 10:24:28.230204 12900 net.cpp:434] conv10/scale <- conv10
I0228 10:24:28.230211 12900 net.cpp:395] conv10/scale -> conv10 (in-place)
I0228 10:24:28.230257 12900 layer_factory.hpp:77] Creating layer conv10/scale
I0228 10:24:28.230396 12900 net.cpp:150] Setting up conv10/scale
I0228 10:24:28.230406 12900 net.cpp:157] Top shape: 24 512 19 19 (4435968)
I0228 10:24:28.230412 12900 net.cpp:165] Memory required for data: 3434311712
I0228 10:24:28.230418 12900 layer_factory.hpp:77] Creating layer conv10/relu
I0228 10:24:28.230425 12900 net.cpp:100] Creating Layer conv10/relu
I0228 10:24:28.230430 12900 net.cpp:434] conv10/relu <- conv10
I0228 10:24:28.230437 12900 net.cpp:395] conv10/relu -> conv10 (in-place)
I0228 10:24:28.230902 12900 net.cpp:150] Setting up conv10/relu
I0228 10:24:28.230916 12900 net.cpp:157] Top shape: 24 512 19 19 (4435968)
I0228 10:24:28.230921 12900 net.cpp:165] Memory required for data: 3452055584
I0228 10:24:28.230926 12900 layer_factory.hpp:77] Creating layer conv11/dw
I0228 10:24:28.230937 12900 net.cpp:100] Creating Layer conv11/dw
I0228 10:24:28.230943 12900 net.cpp:434] conv11/dw <- conv10
I0228 10:24:28.230950 12900 net.cpp:408] conv11/dw -> conv11/dw
I0228 10:24:28.231221 12900 net.cpp:150] Setting up conv11/dw
I0228 10:24:28.231231 12900 net.cpp:157] Top shape: 24 512 19 19 (4435968)
I0228 10:24:28.231235 12900 net.cpp:165] Memory required for data: 3469799456
I0228 10:24:28.231241 12900 layer_factory.hpp:77] Creating layer conv11/dw/bn
I0228 10:24:28.231248 12900 net.cpp:100] Creating Layer conv11/dw/bn
I0228 10:24:28.231253 12900 net.cpp:434] conv11/dw/bn <- conv11/dw
I0228 10:24:28.231259 12900 net.cpp:395] conv11/dw/bn -> conv11/dw (in-place)
I0228 10:24:28.231505 12900 net.cpp:150] Setting up conv11/dw/bn
I0228 10:24:28.231515 12900 net.cpp:157] Top shape: 24 512 19 19 (4435968)
I0228 10:24:28.231519 12900 net.cpp:165] Memory required for data: 3487543328
I0228 10:24:28.231544 12900 layer_factory.hpp:77] Creating layer conv11/dw/scale
I0228 10:24:28.231556 12900 net.cpp:100] Creating Layer conv11/dw/scale
I0228 10:24:28.231561 12900 net.cpp:434] conv11/dw/scale <- conv11/dw
I0228 10:24:28.231568 12900 net.cpp:395] conv11/dw/scale -> conv11/dw (in-place)
I0228 10:24:28.231631 12900 layer_factory.hpp:77] Creating layer conv11/dw/scale
I0228 10:24:28.231750 12900 net.cpp:150] Setting up conv11/dw/scale
I0228 10:24:28.231760 12900 net.cpp:157] Top shape: 24 512 19 19 (4435968)
I0228 10:24:28.231763 12900 net.cpp:165] Memory required for data: 3505287200
I0228 10:24:28.231797 12900 layer_factory.hpp:77] Creating layer conv11/dw/relu
I0228 10:24:28.231803 12900 net.cpp:100] Creating Layer conv11/dw/relu
I0228 10:24:28.231809 12900 net.cpp:434] conv11/dw/relu <- conv11/dw
I0228 10:24:28.231815 12900 net.cpp:395] conv11/dw/relu -> conv11/dw (in-place)
I0228 10:24:28.232288 12900 net.cpp:150] Setting up conv11/dw/relu
I0228 10:24:28.232300 12900 net.cpp:157] Top shape: 24 512 19 19 (4435968)
I0228 10:24:28.232306 12900 net.cpp:165] Memory required for data: 3523031072
I0228 10:24:28.232311 12900 layer_factory.hpp:77] Creating layer conv11
I0228 10:24:28.232321 12900 net.cpp:100] Creating Layer conv11
I0228 10:24:28.232326 12900 net.cpp:434] conv11 <- conv11/dw
I0228 10:24:28.232334 12900 net.cpp:408] conv11 -> conv11
I0228 10:24:28.237272 12900 net.cpp:150] Setting up conv11
I0228 10:24:28.237289 12900 net.cpp:157] Top shape: 24 512 19 19 (4435968)
I0228 10:24:28.237309 12900 net.cpp:165] Memory required for data: 3540774944
I0228 10:24:28.237318 12900 layer_factory.hpp:77] Creating layer conv11/bn
I0228 10:24:28.237325 12900 net.cpp:100] Creating Layer conv11/bn
I0228 10:24:28.237330 12900 net.cpp:434] conv11/bn <- conv11
I0228 10:24:28.237339 12900 net.cpp:395] conv11/bn -> conv11 (in-place)
I0228 10:24:28.237557 12900 net.cpp:150] Setting up conv11/bn
I0228 10:24:28.237567 12900 net.cpp:157] Top shape: 24 512 19 19 (4435968)
I0228 10:24:28.237583 12900 net.cpp:165] Memory required for data: 3558518816
I0228 10:24:28.237591 12900 layer_factory.hpp:77] Creating layer conv11/scale
I0228 10:24:28.237601 12900 net.cpp:100] Creating Layer conv11/scale
I0228 10:24:28.237606 12900 net.cpp:434] conv11/scale <- conv11
I0228 10:24:28.237617 12900 net.cpp:395] conv11/scale -> conv11 (in-place)
I0228 10:24:28.237663 12900 layer_factory.hpp:77] Creating layer conv11/scale
I0228 10:24:28.237792 12900 net.cpp:150] Setting up conv11/scale
I0228 10:24:28.237800 12900 net.cpp:157] Top shape: 24 512 19 19 (4435968)
I0228 10:24:28.237805 12900 net.cpp:165] Memory required for data: 3576262688
I0228 10:24:28.237812 12900 layer_factory.hpp:77] Creating layer conv11/relu
I0228 10:24:28.237820 12900 net.cpp:100] Creating Layer conv11/relu
I0228 10:24:28.237824 12900 net.cpp:434] conv11/relu <- conv11
I0228 10:24:28.237833 12900 net.cpp:395] conv11/relu -> conv11 (in-place)
I0228 10:24:28.238909 12900 net.cpp:150] Setting up conv11/relu
I0228 10:24:28.238929 12900 net.cpp:157] Top shape: 24 512 19 19 (4435968)
I0228 10:24:28.238932 12900 net.cpp:165] Memory required for data: 3594006560
I0228 10:24:28.238939 12900 layer_factory.hpp:77] Creating layer conv11_conv11/relu_0_split
I0228 10:24:28.238946 12900 net.cpp:100] Creating Layer conv11_conv11/relu_0_split
I0228 10:24:28.238952 12900 net.cpp:434] conv11_conv11/relu_0_split <- conv11
I0228 10:24:28.238961 12900 net.cpp:408] conv11_conv11/relu_0_split -> conv11_conv11/relu_0_split_0
I0228 10:24:28.238977 12900 net.cpp:408] conv11_conv11/relu_0_split -> conv11_conv11/relu_0_split_1
I0228 10:24:28.238987 12900 net.cpp:408] conv11_conv11/relu_0_split -> conv11_conv11/relu_0_split_2
I0228 10:24:28.238996 12900 net.cpp:408] conv11_conv11/relu_0_split -> conv11_conv11/relu_0_split_3
I0228 10:24:28.239074 12900 net.cpp:150] Setting up conv11_conv11/relu_0_split
I0228 10:24:28.239084 12900 net.cpp:157] Top shape: 24 512 19 19 (4435968)
I0228 10:24:28.239090 12900 net.cpp:157] Top shape: 24 512 19 19 (4435968)
I0228 10:24:28.239096 12900 net.cpp:157] Top shape: 24 512 19 19 (4435968)
I0228 10:24:28.239102 12900 net.cpp:157] Top shape: 24 512 19 19 (4435968)
I0228 10:24:28.239106 12900 net.cpp:165] Memory required for data: 3664982048
I0228 10:24:28.239110 12900 layer_factory.hpp:77] Creating layer conv12/dw
I0228 10:24:28.239122 12900 net.cpp:100] Creating Layer conv12/dw
I0228 10:24:28.239131 12900 net.cpp:434] conv12/dw <- conv11_conv11/relu_0_split_0
I0228 10:24:28.239140 12900 net.cpp:408] conv12/dw -> conv12/dw
I0228 10:24:28.239401 12900 net.cpp:150] Setting up conv12/dw
I0228 10:24:28.239413 12900 net.cpp:157] Top shape: 24 512 10 10 (1228800)
I0228 10:24:28.239426 12900 net.cpp:165] Memory required for data: 3669897248
I0228 10:24:28.239435 12900 layer_factory.hpp:77] Creating layer conv12/dw/bn
I0228 10:24:28.239444 12900 net.cpp:100] Creating Layer conv12/dw/bn
I0228 10:24:28.239450 12900 net.cpp:434] conv12/dw/bn <- conv12/dw
I0228 10:24:28.239456 12900 net.cpp:395] conv12/dw/bn -> conv12/dw (in-place)
I0228 10:24:28.239701 12900 net.cpp:150] Setting up conv12/dw/bn
I0228 10:24:28.239711 12900 net.cpp:157] Top shape: 24 512 10 10 (1228800)
I0228 10:24:28.239717 12900 net.cpp:165] Memory required for data: 3674812448
I0228 10:24:28.239725 12900 layer_factory.hpp:77] Creating layer conv12/dw/scale
I0228 10:24:28.239733 12900 net.cpp:100] Creating Layer conv12/dw/scale
I0228 10:24:28.239738 12900 net.cpp:434] conv12/dw/scale <- conv12/dw
I0228 10:24:28.239747 12900 net.cpp:395] conv12/dw/scale -> conv12/dw (in-place)
I0228 10:24:28.239802 12900 layer_factory.hpp:77] Creating layer conv12/dw/scale
I0228 10:24:28.239936 12900 net.cpp:150] Setting up conv12/dw/scale
I0228 10:24:28.239945 12900 net.cpp:157] Top shape: 24 512 10 10 (1228800)
I0228 10:24:28.239950 12900 net.cpp:165] Memory required for data: 3679727648
I0228 10:24:28.239958 12900 layer_factory.hpp:77] Creating layer conv12/dw/relu
I0228 10:24:28.239964 12900 net.cpp:100] Creating Layer conv12/dw/relu
I0228 10:24:28.239967 12900 net.cpp:434] conv12/dw/relu <- conv12/dw
I0228 10:24:28.239976 12900 net.cpp:395] conv12/dw/relu -> conv12/dw (in-place)
I0228 10:24:28.240949 12900 net.cpp:150] Setting up conv12/dw/relu
I0228 10:24:28.240975 12900 net.cpp:157] Top shape: 24 512 10 10 (1228800)
I0228 10:24:28.240980 12900 net.cpp:165] Memory required for data: 3684642848
I0228 10:24:28.240988 12900 layer_factory.hpp:77] Creating layer conv12
I0228 10:24:28.240999 12900 net.cpp:100] Creating Layer conv12
I0228 10:24:28.241004 12900 net.cpp:434] conv12 <- conv12/dw
I0228 10:24:28.241014 12900 net.cpp:408] conv12 -> conv12
I0228 10:24:28.250298 12900 net.cpp:150] Setting up conv12
I0228 10:24:28.250331 12900 net.cpp:157] Top shape: 24 1024 10 10 (2457600)
I0228 10:24:28.250336 12900 net.cpp:165] Memory required for data: 3694473248
I0228 10:24:28.250344 12900 layer_factory.hpp:77] Creating layer conv12/bn
I0228 10:24:28.250351 12900 net.cpp:100] Creating Layer conv12/bn
I0228 10:24:28.250356 12900 net.cpp:434] conv12/bn <- conv12
I0228 10:24:28.250365 12900 net.cpp:395] conv12/bn -> conv12 (in-place)
I0228 10:24:28.250599 12900 net.cpp:150] Setting up conv12/bn
I0228 10:24:28.250612 12900 net.cpp:157] Top shape: 24 1024 10 10 (2457600)
I0228 10:24:28.250617 12900 net.cpp:165] Memory required for data: 3704303648
I0228 10:24:28.250624 12900 layer_factory.hpp:77] Creating layer conv12/scale
I0228 10:24:28.250633 12900 net.cpp:100] Creating Layer conv12/scale
I0228 10:24:28.250638 12900 net.cpp:434] conv12/scale <- conv12
I0228 10:24:28.250643 12900 net.cpp:395] conv12/scale -> conv12 (in-place)
I0228 10:24:28.250700 12900 layer_factory.hpp:77] Creating layer conv12/scale
I0228 10:24:28.250833 12900 net.cpp:150] Setting up conv12/scale
I0228 10:24:28.250844 12900 net.cpp:157] Top shape: 24 1024 10 10 (2457600)
I0228 10:24:28.250849 12900 net.cpp:165] Memory required for data: 3714134048
I0228 10:24:28.250871 12900 layer_factory.hpp:77] Creating layer conv12/relu
I0228 10:24:28.250880 12900 net.cpp:100] Creating Layer conv12/relu
I0228 10:24:28.250886 12900 net.cpp:434] conv12/relu <- conv12
I0228 10:24:28.250892 12900 net.cpp:395] conv12/relu -> conv12 (in-place)
I0228 10:24:28.251405 12900 net.cpp:150] Setting up conv12/relu
I0228 10:24:28.251416 12900 net.cpp:157] Top shape: 24 1024 10 10 (2457600)
I0228 10:24:28.251421 12900 net.cpp:165] Memory required for data: 3723964448
I0228 10:24:28.251426 12900 layer_factory.hpp:77] Creating layer conv13/dw
I0228 10:24:28.251436 12900 net.cpp:100] Creating Layer conv13/dw
I0228 10:24:28.251441 12900 net.cpp:434] conv13/dw <- conv12
I0228 10:24:28.251449 12900 net.cpp:408] conv13/dw -> conv13/dw
I0228 10:24:28.251817 12900 net.cpp:150] Setting up conv13/dw
I0228 10:24:28.251827 12900 net.cpp:157] Top shape: 24 1024 10 10 (2457600)
I0228 10:24:28.251840 12900 net.cpp:165] Memory required for data: 3733794848
I0228 10:24:28.251847 12900 layer_factory.hpp:77] Creating layer conv13/dw/bn
I0228 10:24:28.251855 12900 net.cpp:100] Creating Layer conv13/dw/bn
I0228 10:24:28.251860 12900 net.cpp:434] conv13/dw/bn <- conv13/dw
I0228 10:24:28.251865 12900 net.cpp:395] conv13/dw/bn -> conv13/dw (in-place)
I0228 10:24:28.252099 12900 net.cpp:150] Setting up conv13/dw/bn
I0228 10:24:28.252108 12900 net.cpp:157] Top shape: 24 1024 10 10 (2457600)
I0228 10:24:28.252112 12900 net.cpp:165] Memory required for data: 3743625248
I0228 10:24:28.252120 12900 layer_factory.hpp:77] Creating layer conv13/dw/scale
I0228 10:24:28.252130 12900 net.cpp:100] Creating Layer conv13/dw/scale
I0228 10:24:28.252135 12900 net.cpp:434] conv13/dw/scale <- conv13/dw
I0228 10:24:28.252140 12900 net.cpp:395] conv13/dw/scale -> conv13/dw (in-place)
I0228 10:24:28.252182 12900 layer_factory.hpp:77] Creating layer conv13/dw/scale
I0228 10:24:28.252315 12900 net.cpp:150] Setting up conv13/dw/scale
I0228 10:24:28.252324 12900 net.cpp:157] Top shape: 24 1024 10 10 (2457600)
I0228 10:24:28.252328 12900 net.cpp:165] Memory required for data: 3753455648
I0228 10:24:28.252336 12900 layer_factory.hpp:77] Creating layer conv13/dw/relu
I0228 10:24:28.252343 12900 net.cpp:100] Creating Layer conv13/dw/relu
I0228 10:24:28.252362 12900 net.cpp:434] conv13/dw/relu <- conv13/dw
I0228 10:24:28.252369 12900 net.cpp:395] conv13/dw/relu -> conv13/dw (in-place)
I0228 10:24:28.253415 12900 net.cpp:150] Setting up conv13/dw/relu
I0228 10:24:28.253443 12900 net.cpp:157] Top shape: 24 1024 10 10 (2457600)
I0228 10:24:28.253446 12900 net.cpp:165] Memory required for data: 3763286048
I0228 10:24:28.253451 12900 layer_factory.hpp:77] Creating layer conv13
I0228 10:24:28.253461 12900 net.cpp:100] Creating Layer conv13
I0228 10:24:28.253468 12900 net.cpp:434] conv13 <- conv13/dw
I0228 10:24:28.253476 12900 net.cpp:408] conv13 -> conv13
I0228 10:24:28.267256 12900 net.cpp:150] Setting up conv13
I0228 10:24:28.267272 12900 net.cpp:157] Top shape: 24 1024 10 10 (2457600)
I0228 10:24:28.267278 12900 net.cpp:165] Memory required for data: 3773116448
I0228 10:24:28.267284 12900 layer_factory.hpp:77] Creating layer conv13/bn
I0228 10:24:28.267293 12900 net.cpp:100] Creating Layer conv13/bn
I0228 10:24:28.267298 12900 net.cpp:434] conv13/bn <- conv13
I0228 10:24:28.267307 12900 net.cpp:395] conv13/bn -> conv13 (in-place)
I0228 10:24:28.267540 12900 net.cpp:150] Setting up conv13/bn
I0228 10:24:28.267550 12900 net.cpp:157] Top shape: 24 1024 10 10 (2457600)
I0228 10:24:28.267554 12900 net.cpp:165] Memory required for data: 3782946848
I0228 10:24:28.267563 12900 layer_factory.hpp:77] Creating layer conv13/scale
I0228 10:24:28.267573 12900 net.cpp:100] Creating Layer conv13/scale
I0228 10:24:28.267577 12900 net.cpp:434] conv13/scale <- conv13
I0228 10:24:28.267583 12900 net.cpp:395] conv13/scale -> conv13 (in-place)
I0228 10:24:28.267627 12900 layer_factory.hpp:77] Creating layer conv13/scale
I0228 10:24:28.267755 12900 net.cpp:150] Setting up conv13/scale
I0228 10:24:28.267763 12900 net.cpp:157] Top shape: 24 1024 10 10 (2457600)
I0228 10:24:28.267767 12900 net.cpp:165] Memory required for data: 3792777248
I0228 10:24:28.267776 12900 layer_factory.hpp:77] Creating layer conv13/relu
I0228 10:24:28.267783 12900 net.cpp:100] Creating Layer conv13/relu
I0228 10:24:28.267789 12900 net.cpp:434] conv13/relu <- conv13
I0228 10:24:28.267796 12900 net.cpp:395] conv13/relu -> conv13 (in-place)
I0228 10:24:28.268302 12900 net.cpp:150] Setting up conv13/relu
I0228 10:24:28.268316 12900 net.cpp:157] Top shape: 24 1024 10 10 (2457600)
I0228 10:24:28.268332 12900 net.cpp:165] Memory required for data: 3802607648
I0228 10:24:28.268335 12900 layer_factory.hpp:77] Creating layer conv13_conv13/relu_0_split
I0228 10:24:28.268359 12900 net.cpp:100] Creating Layer conv13_conv13/relu_0_split
I0228 10:24:28.268365 12900 net.cpp:434] conv13_conv13/relu_0_split <- conv13
I0228 10:24:28.268374 12900 net.cpp:408] conv13_conv13/relu_0_split -> conv13_conv13/relu_0_split_0
I0228 10:24:28.268393 12900 net.cpp:408] conv13_conv13/relu_0_split -> conv13_conv13/relu_0_split_1
I0228 10:24:28.268402 12900 net.cpp:408] conv13_conv13/relu_0_split -> conv13_conv13/relu_0_split_2
I0228 10:24:28.268410 12900 net.cpp:408] conv13_conv13/relu_0_split -> conv13_conv13/relu_0_split_3
I0228 10:24:28.268487 12900 net.cpp:150] Setting up conv13_conv13/relu_0_split
I0228 10:24:28.268496 12900 net.cpp:157] Top shape: 24 1024 10 10 (2457600)
I0228 10:24:28.268503 12900 net.cpp:157] Top shape: 24 1024 10 10 (2457600)
I0228 10:24:28.268508 12900 net.cpp:157] Top shape: 24 1024 10 10 (2457600)
I0228 10:24:28.268513 12900 net.cpp:157] Top shape: 24 1024 10 10 (2457600)
I0228 10:24:28.268517 12900 net.cpp:165] Memory required for data: 3841929248
I0228 10:24:28.268523 12900 layer_factory.hpp:77] Creating layer conv14_1
I0228 10:24:28.268534 12900 net.cpp:100] Creating Layer conv14_1
I0228 10:24:28.268539 12900 net.cpp:434] conv14_1 <- conv13_conv13/relu_0_split_0
I0228 10:24:28.268548 12900 net.cpp:408] conv14_1 -> conv14_1
I0228 10:24:28.274464 12900 net.cpp:150] Setting up conv14_1
I0228 10:24:28.274482 12900 net.cpp:157] Top shape: 24 256 10 10 (614400)
I0228 10:24:28.274502 12900 net.cpp:165] Memory required for data: 3844386848
I0228 10:24:28.274508 12900 layer_factory.hpp:77] Creating layer conv14_1/bn
I0228 10:24:28.274519 12900 net.cpp:100] Creating Layer conv14_1/bn
I0228 10:24:28.274538 12900 net.cpp:434] conv14_1/bn <- conv14_1
I0228 10:24:28.274560 12900 net.cpp:395] conv14_1/bn -> conv14_1 (in-place)
I0228 10:24:28.274775 12900 net.cpp:150] Setting up conv14_1/bn
I0228 10:24:28.274786 12900 net.cpp:157] Top shape: 24 256 10 10 (614400)
I0228 10:24:28.274791 12900 net.cpp:165] Memory required for data: 3846844448
I0228 10:24:28.274798 12900 layer_factory.hpp:77] Creating layer conv14_1/scale
I0228 10:24:28.274806 12900 net.cpp:100] Creating Layer conv14_1/scale
I0228 10:24:28.274811 12900 net.cpp:434] conv14_1/scale <- conv14_1
I0228 10:24:28.274817 12900 net.cpp:395] conv14_1/scale -> conv14_1 (in-place)
I0228 10:24:28.274863 12900 layer_factory.hpp:77] Creating layer conv14_1/scale
I0228 10:24:28.274983 12900 net.cpp:150] Setting up conv14_1/scale
I0228 10:24:28.274993 12900 net.cpp:157] Top shape: 24 256 10 10 (614400)
I0228 10:24:28.274997 12900 net.cpp:165] Memory required for data: 3849302048
I0228 10:24:28.275003 12900 layer_factory.hpp:77] Creating layer conv14_1/relu
I0228 10:24:28.275012 12900 net.cpp:100] Creating Layer conv14_1/relu
I0228 10:24:28.275017 12900 net.cpp:434] conv14_1/relu <- conv14_1
I0228 10:24:28.275022 12900 net.cpp:395] conv14_1/relu -> conv14_1 (in-place)
I0228 10:24:28.275532 12900 net.cpp:150] Setting up conv14_1/relu
I0228 10:24:28.275543 12900 net.cpp:157] Top shape: 24 256 10 10 (614400)
I0228 10:24:28.275564 12900 net.cpp:165] Memory required for data: 3851759648
I0228 10:24:28.275569 12900 layer_factory.hpp:77] Creating layer conv14_2
I0228 10:24:28.275580 12900 net.cpp:100] Creating Layer conv14_2
I0228 10:24:28.275585 12900 net.cpp:434] conv14_2 <- conv14_1
I0228 10:24:28.275594 12900 net.cpp:408] conv14_2 -> conv14_2
I0228 10:24:28.291455 12900 net.cpp:150] Setting up conv14_2
I0228 10:24:28.291473 12900 net.cpp:157] Top shape: 24 512 5 5 (307200)
I0228 10:24:28.291478 12900 net.cpp:165] Memory required for data: 3852988448
I0228 10:24:28.291486 12900 layer_factory.hpp:77] Creating layer conv14_2/bn
I0228 10:24:28.291494 12900 net.cpp:100] Creating Layer conv14_2/bn
I0228 10:24:28.291499 12900 net.cpp:434] conv14_2/bn <- conv14_2
I0228 10:24:28.291505 12900 net.cpp:395] conv14_2/bn -> conv14_2 (in-place)
I0228 10:24:28.291749 12900 net.cpp:150] Setting up conv14_2/bn
I0228 10:24:28.291759 12900 net.cpp:157] Top shape: 24 512 5 5 (307200)
I0228 10:24:28.291764 12900 net.cpp:165] Memory required for data: 3854217248
I0228 10:24:28.291771 12900 layer_factory.hpp:77] Creating layer conv14_2/scale
I0228 10:24:28.291780 12900 net.cpp:100] Creating Layer conv14_2/scale
I0228 10:24:28.291785 12900 net.cpp:434] conv14_2/scale <- conv14_2
I0228 10:24:28.291803 12900 net.cpp:395] conv14_2/scale -> conv14_2 (in-place)
I0228 10:24:28.291849 12900 layer_factory.hpp:77] Creating layer conv14_2/scale
I0228 10:24:28.291978 12900 net.cpp:150] Setting up conv14_2/scale
I0228 10:24:28.291988 12900 net.cpp:157] Top shape: 24 512 5 5 (307200)
I0228 10:24:28.291992 12900 net.cpp:165] Memory required for data: 3855446048
I0228 10:24:28.291999 12900 layer_factory.hpp:77] Creating layer conv14_2/relu
I0228 10:24:28.292008 12900 net.cpp:100] Creating Layer conv14_2/relu
I0228 10:24:28.292012 12900 net.cpp:434] conv14_2/relu <- conv14_2
I0228 10:24:28.292017 12900 net.cpp:395] conv14_2/relu -> conv14_2 (in-place)
I0228 10:24:28.292526 12900 net.cpp:150] Setting up conv14_2/relu
I0228 10:24:28.292554 12900 net.cpp:157] Top shape: 24 512 5 5 (307200)
I0228 10:24:28.292574 12900 net.cpp:165] Memory required for data: 3856674848
I0228 10:24:28.292579 12900 layer_factory.hpp:77] Creating layer conv14_2_conv14_2/relu_0_split
I0228 10:24:28.292587 12900 net.cpp:100] Creating Layer conv14_2_conv14_2/relu_0_split
I0228 10:24:28.292593 12900 net.cpp:434] conv14_2_conv14_2/relu_0_split <- conv14_2
I0228 10:24:28.292601 12900 net.cpp:408] conv14_2_conv14_2/relu_0_split -> conv14_2_conv14_2/relu_0_split_0
I0228 10:24:28.292609 12900 net.cpp:408] conv14_2_conv14_2/relu_0_split -> conv14_2_conv14_2/relu_0_split_1
I0228 10:24:28.292616 12900 net.cpp:408] conv14_2_conv14_2/relu_0_split -> conv14_2_conv14_2/relu_0_split_2
I0228 10:24:28.292624 12900 net.cpp:408] conv14_2_conv14_2/relu_0_split -> conv14_2_conv14_2/relu_0_split_3
I0228 10:24:28.292699 12900 net.cpp:150] Setting up conv14_2_conv14_2/relu_0_split
I0228 10:24:28.292707 12900 net.cpp:157] Top shape: 24 512 5 5 (307200)
I0228 10:24:28.292712 12900 net.cpp:157] Top shape: 24 512 5 5 (307200)
I0228 10:24:28.292718 12900 net.cpp:157] Top shape: 24 512 5 5 (307200)
I0228 10:24:28.292723 12900 net.cpp:157] Top shape: 24 512 5 5 (307200)
I0228 10:24:28.292727 12900 net.cpp:165] Memory required for data: 3861590048
I0228 10:24:28.292732 12900 layer_factory.hpp:77] Creating layer conv15_1
I0228 10:24:28.292743 12900 net.cpp:100] Creating Layer conv15_1
I0228 10:24:28.292748 12900 net.cpp:434] conv15_1 <- conv14_2_conv14_2/relu_0_split_0
I0228 10:24:28.292757 12900 net.cpp:408] conv15_1 -> conv15_1
I0228 10:24:28.295621 12900 net.cpp:150] Setting up conv15_1
I0228 10:24:28.295653 12900 net.cpp:157] Top shape: 24 128 5 5 (76800)
I0228 10:24:28.295661 12900 net.cpp:165] Memory required for data: 3861897248
I0228 10:24:28.295668 12900 layer_factory.hpp:77] Creating layer conv15_1/bn
I0228 10:24:28.295675 12900 net.cpp:100] Creating Layer conv15_1/bn
I0228 10:24:28.295681 12900 net.cpp:434] conv15_1/bn <- conv15_1
I0228 10:24:28.295687 12900 net.cpp:395] conv15_1/bn -> conv15_1 (in-place)
I0228 10:24:28.295923 12900 net.cpp:150] Setting up conv15_1/bn
I0228 10:24:28.295933 12900 net.cpp:157] Top shape: 24 128 5 5 (76800)
I0228 10:24:28.295938 12900 net.cpp:165] Memory required for data: 3862204448
I0228 10:24:28.295946 12900 layer_factory.hpp:77] Creating layer conv15_1/scale
I0228 10:24:28.295954 12900 net.cpp:100] Creating Layer conv15_1/scale
I0228 10:24:28.295974 12900 net.cpp:434] conv15_1/scale <- conv15_1
I0228 10:24:28.295984 12900 net.cpp:395] conv15_1/scale -> conv15_1 (in-place)
I0228 10:24:28.296032 12900 layer_factory.hpp:77] Creating layer conv15_1/scale
I0228 10:24:28.296162 12900 net.cpp:150] Setting up conv15_1/scale
I0228 10:24:28.296172 12900 net.cpp:157] Top shape: 24 128 5 5 (76800)
I0228 10:24:28.296178 12900 net.cpp:165] Memory required for data: 3862511648
I0228 10:24:28.296185 12900 layer_factory.hpp:77] Creating layer conv15_1/relu
I0228 10:24:28.296193 12900 net.cpp:100] Creating Layer conv15_1/relu
I0228 10:24:28.296198 12900 net.cpp:434] conv15_1/relu <- conv15_1
I0228 10:24:28.296205 12900 net.cpp:395] conv15_1/relu -> conv15_1 (in-place)
I0228 10:24:28.297289 12900 net.cpp:150] Setting up conv15_1/relu
I0228 10:24:28.297304 12900 net.cpp:157] Top shape: 24 128 5 5 (76800)
I0228 10:24:28.297318 12900 net.cpp:165] Memory required for data: 3862818848
I0228 10:24:28.297324 12900 layer_factory.hpp:77] Creating layer conv15_2
I0228 10:24:28.297335 12900 net.cpp:100] Creating Layer conv15_2
I0228 10:24:28.297340 12900 net.cpp:434] conv15_2 <- conv15_1
I0228 10:24:28.297348 12900 net.cpp:408] conv15_2 -> conv15_2
I0228 10:24:28.303418 12900 net.cpp:150] Setting up conv15_2
I0228 10:24:28.303436 12900 net.cpp:157] Top shape: 24 256 3 3 (55296)
I0228 10:24:28.303457 12900 net.cpp:165] Memory required for data: 3863040032
I0228 10:24:28.303463 12900 layer_factory.hpp:77] Creating layer conv15_2/bn
I0228 10:24:28.303472 12900 net.cpp:100] Creating Layer conv15_2/bn
I0228 10:24:28.303478 12900 net.cpp:434] conv15_2/bn <- conv15_2
I0228 10:24:28.303485 12900 net.cpp:395] conv15_2/bn -> conv15_2 (in-place)
I0228 10:24:28.303733 12900 net.cpp:150] Setting up conv15_2/bn
I0228 10:24:28.303745 12900 net.cpp:157] Top shape: 24 256 3 3 (55296)
I0228 10:24:28.303750 12900 net.cpp:165] Memory required for data: 3863261216
I0228 10:24:28.303757 12900 layer_factory.hpp:77] Creating layer conv15_2/scale
I0228 10:24:28.303766 12900 net.cpp:100] Creating Layer conv15_2/scale
I0228 10:24:28.303771 12900 net.cpp:434] conv15_2/scale <- conv15_2
I0228 10:24:28.303779 12900 net.cpp:395] conv15_2/scale -> conv15_2 (in-place)
I0228 10:24:28.303824 12900 layer_factory.hpp:77] Creating layer conv15_2/scale
I0228 10:24:28.303951 12900 net.cpp:150] Setting up conv15_2/scale
I0228 10:24:28.303961 12900 net.cpp:157] Top shape: 24 256 3 3 (55296)
I0228 10:24:28.303966 12900 net.cpp:165] Memory required for data: 3863482400
I0228 10:24:28.303973 12900 layer_factory.hpp:77] Creating layer conv15_2/relu
I0228 10:24:28.303997 12900 net.cpp:100] Creating Layer conv15_2/relu
I0228 10:24:28.304005 12900 net.cpp:434] conv15_2/relu <- conv15_2
I0228 10:24:28.304010 12900 net.cpp:395] conv15_2/relu -> conv15_2 (in-place)
I0228 10:24:28.304504 12900 net.cpp:150] Setting up conv15_2/relu
I0228 10:24:28.304517 12900 net.cpp:157] Top shape: 24 256 3 3 (55296)
I0228 10:24:28.304538 12900 net.cpp:165] Memory required for data: 3863703584
I0228 10:24:28.304543 12900 layer_factory.hpp:77] Creating layer conv15_2_conv15_2/relu_0_split
I0228 10:24:28.304551 12900 net.cpp:100] Creating Layer conv15_2_conv15_2/relu_0_split
I0228 10:24:28.304556 12900 net.cpp:434] conv15_2_conv15_2/relu_0_split <- conv15_2
I0228 10:24:28.304564 12900 net.cpp:408] conv15_2_conv15_2/relu_0_split -> conv15_2_conv15_2/relu_0_split_0
I0228 10:24:28.304572 12900 net.cpp:408] conv15_2_conv15_2/relu_0_split -> conv15_2_conv15_2/relu_0_split_1
I0228 10:24:28.304582 12900 net.cpp:408] conv15_2_conv15_2/relu_0_split -> conv15_2_conv15_2/relu_0_split_2
I0228 10:24:28.304589 12900 net.cpp:408] conv15_2_conv15_2/relu_0_split -> conv15_2_conv15_2/relu_0_split_3
I0228 10:24:28.304671 12900 net.cpp:150] Setting up conv15_2_conv15_2/relu_0_split
I0228 10:24:28.304678 12900 net.cpp:157] Top shape: 24 256 3 3 (55296)
I0228 10:24:28.304684 12900 net.cpp:157] Top shape: 24 256 3 3 (55296)
I0228 10:24:28.304689 12900 net.cpp:157] Top shape: 24 256 3 3 (55296)
I0228 10:24:28.304695 12900 net.cpp:157] Top shape: 24 256 3 3 (55296)
I0228 10:24:28.304699 12900 net.cpp:165] Memory required for data: 3864588320
I0228 10:24:28.304704 12900 layer_factory.hpp:77] Creating layer conv16_1
I0228 10:24:28.304718 12900 net.cpp:100] Creating Layer conv16_1
I0228 10:24:28.304725 12900 net.cpp:434] conv16_1 <- conv15_2_conv15_2/relu_0_split_0
I0228 10:24:28.304733 12900 net.cpp:408] conv16_1 -> conv16_1
I0228 10:24:28.307371 12900 net.cpp:150] Setting up conv16_1
I0228 10:24:28.307402 12900 net.cpp:157] Top shape: 24 128 3 3 (27648)
I0228 10:24:28.307409 12900 net.cpp:165] Memory required for data: 3864698912
I0228 10:24:28.307415 12900 layer_factory.hpp:77] Creating layer conv16_1/bn
I0228 10:24:28.307425 12900 net.cpp:100] Creating Layer conv16_1/bn
I0228 10:24:28.307446 12900 net.cpp:434] conv16_1/bn <- conv16_1
I0228 10:24:28.307453 12900 net.cpp:395] conv16_1/bn -> conv16_1 (in-place)
I0228 10:24:28.307714 12900 net.cpp:150] Setting up conv16_1/bn
I0228 10:24:28.307735 12900 net.cpp:157] Top shape: 24 128 3 3 (27648)
I0228 10:24:28.307739 12900 net.cpp:165] Memory required for data: 3864809504
I0228 10:24:28.307749 12900 layer_factory.hpp:77] Creating layer conv16_1/scale
I0228 10:24:28.307757 12900 net.cpp:100] Creating Layer conv16_1/scale
I0228 10:24:28.307762 12900 net.cpp:434] conv16_1/scale <- conv16_1
I0228 10:24:28.307770 12900 net.cpp:395] conv16_1/scale -> conv16_1 (in-place)
I0228 10:24:28.307821 12900 layer_factory.hpp:77] Creating layer conv16_1/scale
I0228 10:24:28.307946 12900 net.cpp:150] Setting up conv16_1/scale
I0228 10:24:28.307956 12900 net.cpp:157] Top shape: 24 128 3 3 (27648)
I0228 10:24:28.307960 12900 net.cpp:165] Memory required for data: 3864920096
I0228 10:24:28.307968 12900 layer_factory.hpp:77] Creating layer conv16_1/relu
I0228 10:24:28.307977 12900 net.cpp:100] Creating Layer conv16_1/relu
I0228 10:24:28.307982 12900 net.cpp:434] conv16_1/relu <- conv16_1
I0228 10:24:28.307988 12900 net.cpp:395] conv16_1/relu -> conv16_1 (in-place)
I0228 10:24:28.308476 12900 net.cpp:150] Setting up conv16_1/relu
I0228 10:24:28.308506 12900 net.cpp:157] Top shape: 24 128 3 3 (27648)
I0228 10:24:28.308511 12900 net.cpp:165] Memory required for data: 3865030688
I0228 10:24:28.308516 12900 layer_factory.hpp:77] Creating layer conv16_2
I0228 10:24:28.308526 12900 net.cpp:100] Creating Layer conv16_2
I0228 10:24:28.308547 12900 net.cpp:434] conv16_2 <- conv16_1
I0228 10:24:28.308555 12900 net.cpp:408] conv16_2 -> conv16_2
I0228 10:24:28.314589 12900 net.cpp:150] Setting up conv16_2
I0228 10:24:28.314605 12900 net.cpp:157] Top shape: 24 256 2 2 (24576)
I0228 10:24:28.314610 12900 net.cpp:165] Memory required for data: 3865128992
I0228 10:24:28.314616 12900 layer_factory.hpp:77] Creating layer conv16_2/bn
I0228 10:24:28.314625 12900 net.cpp:100] Creating Layer conv16_2/bn
I0228 10:24:28.314630 12900 net.cpp:434] conv16_2/bn <- conv16_2
I0228 10:24:28.314636 12900 net.cpp:395] conv16_2/bn -> conv16_2 (in-place)
I0228 10:24:28.314867 12900 net.cpp:150] Setting up conv16_2/bn
I0228 10:24:28.314877 12900 net.cpp:157] Top shape: 24 256 2 2 (24576)
I0228 10:24:28.314882 12900 net.cpp:165] Memory required for data: 3865227296
I0228 10:24:28.314890 12900 layer_factory.hpp:77] Creating layer conv16_2/scale
I0228 10:24:28.314898 12900 net.cpp:100] Creating Layer conv16_2/scale
I0228 10:24:28.314903 12900 net.cpp:434] conv16_2/scale <- conv16_2
I0228 10:24:28.314910 12900 net.cpp:395] conv16_2/scale -> conv16_2 (in-place)
I0228 10:24:28.314971 12900 layer_factory.hpp:77] Creating layer conv16_2/scale
I0228 10:24:28.315095 12900 net.cpp:150] Setting up conv16_2/scale
I0228 10:24:28.315104 12900 net.cpp:157] Top shape: 24 256 2 2 (24576)
I0228 10:24:28.315109 12900 net.cpp:165] Memory required for data: 3865325600
I0228 10:24:28.315116 12900 layer_factory.hpp:77] Creating layer conv16_2/relu
I0228 10:24:28.315124 12900 net.cpp:100] Creating Layer conv16_2/relu
I0228 10:24:28.315130 12900 net.cpp:434] conv16_2/relu <- conv16_2
I0228 10:24:28.315136 12900 net.cpp:395] conv16_2/relu -> conv16_2 (in-place)
I0228 10:24:28.316165 12900 net.cpp:150] Setting up conv16_2/relu
I0228 10:24:28.316181 12900 net.cpp:157] Top shape: 24 256 2 2 (24576)
I0228 10:24:28.316185 12900 net.cpp:165] Memory required for data: 3865423904
I0228 10:24:28.316191 12900 layer_factory.hpp:77] Creating layer conv16_2_conv16_2/relu_0_split
I0228 10:24:28.316198 12900 net.cpp:100] Creating Layer conv16_2_conv16_2/relu_0_split
I0228 10:24:28.316203 12900 net.cpp:434] conv16_2_conv16_2/relu_0_split <- conv16_2
I0228 10:24:28.316211 12900 net.cpp:408] conv16_2_conv16_2/relu_0_split -> conv16_2_conv16_2/relu_0_split_0
I0228 10:24:28.316220 12900 net.cpp:408] conv16_2_conv16_2/relu_0_split -> conv16_2_conv16_2/relu_0_split_1
I0228 10:24:28.316227 12900 net.cpp:408] conv16_2_conv16_2/relu_0_split -> conv16_2_conv16_2/relu_0_split_2
I0228 10:24:28.316236 12900 net.cpp:408] conv16_2_conv16_2/relu_0_split -> conv16_2_conv16_2/relu_0_split_3
I0228 10:24:28.316311 12900 net.cpp:150] Setting up conv16_2_conv16_2/relu_0_split
I0228 10:24:28.316361 12900 net.cpp:157] Top shape: 24 256 2 2 (24576)
I0228 10:24:28.316368 12900 net.cpp:157] Top shape: 24 256 2 2 (24576)
I0228 10:24:28.316375 12900 net.cpp:157] Top shape: 24 256 2 2 (24576)
I0228 10:24:28.316380 12900 net.cpp:157] Top shape: 24 256 2 2 (24576)
I0228 10:24:28.316385 12900 net.cpp:165] Memory required for data: 3865817120
I0228 10:24:28.316390 12900 layer_factory.hpp:77] Creating layer conv17_1
I0228 10:24:28.316401 12900 net.cpp:100] Creating Layer conv17_1
I0228 10:24:28.316406 12900 net.cpp:434] conv17_1 <- conv16_2_conv16_2/relu_0_split_0
I0228 10:24:28.316416 12900 net.cpp:408] conv17_1 -> conv17_1
I0228 10:24:28.318827 12900 net.cpp:150] Setting up conv17_1
I0228 10:24:28.318842 12900 net.cpp:157] Top shape: 24 64 2 2 (6144)
I0228 10:24:28.318862 12900 net.cpp:165] Memory required for data: 3865841696
I0228 10:24:28.318871 12900 layer_factory.hpp:77] Creating layer conv17_1/bn
I0228 10:24:28.318878 12900 net.cpp:100] Creating Layer conv17_1/bn
I0228 10:24:28.318883 12900 net.cpp:434] conv17_1/bn <- conv17_1
I0228 10:24:28.318907 12900 net.cpp:395] conv17_1/bn -> conv17_1 (in-place)
I0228 10:24:28.319144 12900 net.cpp:150] Setting up conv17_1/bn
I0228 10:24:28.319154 12900 net.cpp:157] Top shape: 24 64 2 2 (6144)
I0228 10:24:28.319159 12900 net.cpp:165] Memory required for data: 3865866272
I0228 10:24:28.319167 12900 layer_factory.hpp:77] Creating layer conv17_1/scale
I0228 10:24:28.319177 12900 net.cpp:100] Creating Layer conv17_1/scale
I0228 10:24:28.319182 12900 net.cpp:434] conv17_1/scale <- conv17_1
I0228 10:24:28.319190 12900 net.cpp:395] conv17_1/scale -> conv17_1 (in-place)
I0228 10:24:28.319237 12900 layer_factory.hpp:77] Creating layer conv17_1/scale
I0228 10:24:28.319389 12900 net.cpp:150] Setting up conv17_1/scale
I0228 10:24:28.319399 12900 net.cpp:157] Top shape: 24 64 2 2 (6144)
I0228 10:24:28.319403 12900 net.cpp:165] Memory required for data: 3865890848
I0228 10:24:28.319411 12900 layer_factory.hpp:77] Creating layer conv17_1/relu
I0228 10:24:28.319418 12900 net.cpp:100] Creating Layer conv17_1/relu
I0228 10:24:28.319423 12900 net.cpp:434] conv17_1/relu <- conv17_1
I0228 10:24:28.319432 12900 net.cpp:395] conv17_1/relu -> conv17_1 (in-place)
I0228 10:24:28.319929 12900 net.cpp:150] Setting up conv17_1/relu
I0228 10:24:28.319957 12900 net.cpp:157] Top shape: 24 64 2 2 (6144)
I0228 10:24:28.319960 12900 net.cpp:165] Memory required for data: 3865915424
I0228 10:24:28.319980 12900 layer_factory.hpp:77] Creating layer conv17_2
I0228 10:24:28.319991 12900 net.cpp:100] Creating Layer conv17_2
I0228 10:24:28.319996 12900 net.cpp:434] conv17_2 <- conv17_1
I0228 10:24:28.320005 12900 net.cpp:408] conv17_2 -> conv17_2
I0228 10:24:28.323498 12900 net.cpp:150] Setting up conv17_2
I0228 10:24:28.323514 12900 net.cpp:157] Top shape: 24 128 1 1 (3072)
I0228 10:24:28.323519 12900 net.cpp:165] Memory required for data: 3865927712
I0228 10:24:28.323526 12900 layer_factory.hpp:77] Creating layer conv17_2/bn
I0228 10:24:28.323534 12900 net.cpp:100] Creating Layer conv17_2/bn
I0228 10:24:28.323539 12900 net.cpp:434] conv17_2/bn <- conv17_2
I0228 10:24:28.323546 12900 net.cpp:395] conv17_2/bn -> conv17_2 (in-place)
I0228 10:24:28.323781 12900 net.cpp:150] Setting up conv17_2/bn
I0228 10:24:28.323791 12900 net.cpp:157] Top shape: 24 128 1 1 (3072)
I0228 10:24:28.323796 12900 net.cpp:165] Memory required for data: 3865940000
I0228 10:24:28.323804 12900 layer_factory.hpp:77] Creating layer conv17_2/scale
I0228 10:24:28.323813 12900 net.cpp:100] Creating Layer conv17_2/scale
I0228 10:24:28.323818 12900 net.cpp:434] conv17_2/scale <- conv17_2
I0228 10:24:28.323824 12900 net.cpp:395] conv17_2/scale -> conv17_2 (in-place)
I0228 10:24:28.323878 12900 layer_factory.hpp:77] Creating layer conv17_2/scale
I0228 10:24:28.324002 12900 net.cpp:150] Setting up conv17_2/scale
I0228 10:24:28.324010 12900 net.cpp:157] Top shape: 24 128 1 1 (3072)
I0228 10:24:28.324015 12900 net.cpp:165] Memory required for data: 3865952288
I0228 10:24:28.324023 12900 layer_factory.hpp:77] Creating layer conv17_2/relu
I0228 10:24:28.324039 12900 net.cpp:100] Creating Layer conv17_2/relu
I0228 10:24:28.324044 12900 net.cpp:434] conv17_2/relu <- conv17_2
I0228 10:24:28.324053 12900 net.cpp:395] conv17_2/relu -> conv17_2 (in-place)
I0228 10:24:28.324585 12900 net.cpp:150] Setting up conv17_2/relu
I0228 10:24:28.324597 12900 net.cpp:157] Top shape: 24 128 1 1 (3072)
I0228 10:24:28.324614 12900 net.cpp:165] Memory required for data: 3865964576
I0228 10:24:28.324618 12900 layer_factory.hpp:77] Creating layer conv17_2_conv17_2/relu_0_split
I0228 10:24:28.324627 12900 net.cpp:100] Creating Layer conv17_2_conv17_2/relu_0_split
I0228 10:24:28.324632 12900 net.cpp:434] conv17_2_conv17_2/relu_0_split <- conv17_2
I0228 10:24:28.324640 12900 net.cpp:408] conv17_2_conv17_2/relu_0_split -> conv17_2_conv17_2/relu_0_split_0
I0228 10:24:28.324658 12900 net.cpp:408] conv17_2_conv17_2/relu_0_split -> conv17_2_conv17_2/relu_0_split_1
I0228 10:24:28.324669 12900 net.cpp:408] conv17_2_conv17_2/relu_0_split -> conv17_2_conv17_2/relu_0_split_2
I0228 10:24:28.324746 12900 net.cpp:150] Setting up conv17_2_conv17_2/relu_0_split
I0228 10:24:28.324755 12900 net.cpp:157] Top shape: 24 128 1 1 (3072)
I0228 10:24:28.324761 12900 net.cpp:157] Top shape: 24 128 1 1 (3072)
I0228 10:24:28.324767 12900 net.cpp:157] Top shape: 24 128 1 1 (3072)
I0228 10:24:28.324771 12900 net.cpp:165] Memory required for data: 3866001440
I0228 10:24:28.324775 12900 layer_factory.hpp:77] Creating layer conv11_mbox_loc
I0228 10:24:28.324786 12900 net.cpp:100] Creating Layer conv11_mbox_loc
I0228 10:24:28.324791 12900 net.cpp:434] conv11_mbox_loc <- conv11_conv11/relu_0_split_1
I0228 10:24:28.324800 12900 net.cpp:408] conv11_mbox_loc -> conv11_mbox_loc
I0228 10:24:28.327173 12900 net.cpp:150] Setting up conv11_mbox_loc
I0228 10:24:28.327189 12900 net.cpp:157] Top shape: 24 12 19 19 (103968)
I0228 10:24:28.327196 12900 net.cpp:165] Memory required for data: 3866417312
I0228 10:24:28.327205 12900 layer_factory.hpp:77] Creating layer conv11_mbox_loc_perm
I0228 10:24:28.327214 12900 net.cpp:100] Creating Layer conv11_mbox_loc_perm
I0228 10:24:28.327221 12900 net.cpp:434] conv11_mbox_loc_perm <- conv11_mbox_loc
I0228 10:24:28.327230 12900 net.cpp:408] conv11_mbox_loc_perm -> conv11_mbox_loc_perm
I0228 10:24:28.327359 12900 net.cpp:150] Setting up conv11_mbox_loc_perm
I0228 10:24:28.327368 12900 net.cpp:157] Top shape: 24 19 19 12 (103968)
I0228 10:24:28.327373 12900 net.cpp:165] Memory required for data: 3866833184
I0228 10:24:28.327378 12900 layer_factory.hpp:77] Creating layer conv11_mbox_loc_flat
I0228 10:24:28.327386 12900 net.cpp:100] Creating Layer conv11_mbox_loc_flat
I0228 10:24:28.327391 12900 net.cpp:434] conv11_mbox_loc_flat <- conv11_mbox_loc_perm
I0228 10:24:28.327399 12900 net.cpp:408] conv11_mbox_loc_flat -> conv11_mbox_loc_flat
I0228 10:24:28.327430 12900 net.cpp:150] Setting up conv11_mbox_loc_flat
I0228 10:24:28.327438 12900 net.cpp:157] Top shape: 24 4332 (103968)
I0228 10:24:28.327442 12900 net.cpp:165] Memory required for data: 3867249056
I0228 10:24:28.327447 12900 layer_factory.hpp:77] Creating layer conv11_mbox_conf_new
I0228 10:24:28.327461 12900 net.cpp:100] Creating Layer conv11_mbox_conf_new
I0228 10:24:28.327467 12900 net.cpp:434] conv11_mbox_conf_new <- conv11_conv11/relu_0_split_2
I0228 10:24:28.327476 12900 net.cpp:408] conv11_mbox_conf_new -> conv11_mbox_conf
I0228 10:24:28.329828 12900 net.cpp:150] Setting up conv11_mbox_conf_new
I0228 10:24:28.329844 12900 net.cpp:157] Top shape: 24 12 19 19 (103968)
I0228 10:24:28.329865 12900 net.cpp:165] Memory required for data: 3867664928
I0228 10:24:28.329874 12900 layer_factory.hpp:77] Creating layer conv11_mbox_conf_perm
I0228 10:24:28.329882 12900 net.cpp:100] Creating Layer conv11_mbox_conf_perm
I0228 10:24:28.329888 12900 net.cpp:434] conv11_mbox_conf_perm <- conv11_mbox_conf
I0228 10:24:28.329897 12900 net.cpp:408] conv11_mbox_conf_perm -> conv11_mbox_conf_perm
I0228 10:24:28.330016 12900 net.cpp:150] Setting up conv11_mbox_conf_perm
I0228 10:24:28.330024 12900 net.cpp:157] Top shape: 24 19 19 12 (103968)
I0228 10:24:28.330040 12900 net.cpp:165] Memory required for data: 3868080800
I0228 10:24:28.330045 12900 layer_factory.hpp:77] Creating layer conv11_mbox_conf_flat
I0228 10:24:28.330054 12900 net.cpp:100] Creating Layer conv11_mbox_conf_flat
I0228 10:24:28.330073 12900 net.cpp:434] conv11_mbox_conf_flat <- conv11_mbox_conf_perm
I0228 10:24:28.330099 12900 net.cpp:408] conv11_mbox_conf_flat -> conv11_mbox_conf_flat
I0228 10:24:28.330132 12900 net.cpp:150] Setting up conv11_mbox_conf_flat
I0228 10:24:28.330140 12900 net.cpp:157] Top shape: 24 4332 (103968)
I0228 10:24:28.330144 12900 net.cpp:165] Memory required for data: 3868496672
I0228 10:24:28.330150 12900 layer_factory.hpp:77] Creating layer conv11_mbox_priorbox
I0228 10:24:28.330159 12900 net.cpp:100] Creating Layer conv11_mbox_priorbox
I0228 10:24:28.330164 12900 net.cpp:434] conv11_mbox_priorbox <- conv11_conv11/relu_0_split_3
I0228 10:24:28.330171 12900 net.cpp:434] conv11_mbox_priorbox <- data_data_0_split_1
I0228 10:24:28.330180 12900 net.cpp:408] conv11_mbox_priorbox -> conv11_mbox_priorbox
I0228 10:24:28.330216 12900 net.cpp:150] Setting up conv11_mbox_priorbox
I0228 10:24:28.330224 12900 net.cpp:157] Top shape: 1 2 4332 (8664)
I0228 10:24:28.330229 12900 net.cpp:165] Memory required for data: 3868531328
I0228 10:24:28.330235 12900 layer_factory.hpp:77] Creating layer conv13_mbox_loc
I0228 10:24:28.330245 12900 net.cpp:100] Creating Layer conv13_mbox_loc
I0228 10:24:28.330252 12900 net.cpp:434] conv13_mbox_loc <- conv13_conv13/relu_0_split_1
I0228 10:24:28.330261 12900 net.cpp:408] conv13_mbox_loc -> conv13_mbox_loc
I0228 10:24:28.332883 12900 net.cpp:150] Setting up conv13_mbox_loc
I0228 10:24:28.332898 12900 net.cpp:157] Top shape: 24 24 10 10 (57600)
I0228 10:24:28.332919 12900 net.cpp:165] Memory required for data: 3868761728
I0228 10:24:28.332927 12900 layer_factory.hpp:77] Creating layer conv13_mbox_loc_perm
I0228 10:24:28.332937 12900 net.cpp:100] Creating Layer conv13_mbox_loc_perm
I0228 10:24:28.332942 12900 net.cpp:434] conv13_mbox_loc_perm <- conv13_mbox_loc
I0228 10:24:28.332949 12900 net.cpp:408] conv13_mbox_loc_perm -> conv13_mbox_loc_perm
I0228 10:24:28.333070 12900 net.cpp:150] Setting up conv13_mbox_loc_perm
I0228 10:24:28.333081 12900 net.cpp:157] Top shape: 24 10 10 24 (57600)
I0228 10:24:28.333084 12900 net.cpp:165] Memory required for data: 3868992128
I0228 10:24:28.333088 12900 layer_factory.hpp:77] Creating layer conv13_mbox_loc_flat
I0228 10:24:28.333096 12900 net.cpp:100] Creating Layer conv13_mbox_loc_flat
I0228 10:24:28.333101 12900 net.cpp:434] conv13_mbox_loc_flat <- conv13_mbox_loc_perm
I0228 10:24:28.333108 12900 net.cpp:408] conv13_mbox_loc_flat -> conv13_mbox_loc_flat
I0228 10:24:28.333137 12900 net.cpp:150] Setting up conv13_mbox_loc_flat
I0228 10:24:28.333144 12900 net.cpp:157] Top shape: 24 2400 (57600)
I0228 10:24:28.333149 12900 net.cpp:165] Memory required for data: 3869222528
I0228 10:24:28.333154 12900 layer_factory.hpp:77] Creating layer conv13_mbox_conf_new
I0228 10:24:28.333165 12900 net.cpp:100] Creating Layer conv13_mbox_conf_new
I0228 10:24:28.333170 12900 net.cpp:434] conv13_mbox_conf_new <- conv13_conv13/relu_0_split_2
I0228 10:24:28.333179 12900 net.cpp:408] conv13_mbox_conf_new -> conv13_mbox_conf
I0228 10:24:28.335667 12900 net.cpp:150] Setting up conv13_mbox_conf_new
I0228 10:24:28.335683 12900 net.cpp:157] Top shape: 24 24 10 10 (57600)
I0228 10:24:28.335687 12900 net.cpp:165] Memory required for data: 3869452928
I0228 10:24:28.335696 12900 layer_factory.hpp:77] Creating layer conv13_mbox_conf_perm
I0228 10:24:28.335706 12900 net.cpp:100] Creating Layer conv13_mbox_conf_perm
I0228 10:24:28.335712 12900 net.cpp:434] conv13_mbox_conf_perm <- conv13_mbox_conf
I0228 10:24:28.335719 12900 net.cpp:408] conv13_mbox_conf_perm -> conv13_mbox_conf_perm
I0228 10:24:28.335845 12900 net.cpp:150] Setting up conv13_mbox_conf_perm
I0228 10:24:28.335855 12900 net.cpp:157] Top shape: 24 10 10 24 (57600)
I0228 10:24:28.335860 12900 net.cpp:165] Memory required for data: 3869683328
I0228 10:24:28.335876 12900 layer_factory.hpp:77] Creating layer conv13_mbox_conf_flat
I0228 10:24:28.335886 12900 net.cpp:100] Creating Layer conv13_mbox_conf_flat
I0228 10:24:28.335891 12900 net.cpp:434] conv13_mbox_conf_flat <- conv13_mbox_conf_perm
I0228 10:24:28.335897 12900 net.cpp:408] conv13_mbox_conf_flat -> conv13_mbox_conf_flat
I0228 10:24:28.335928 12900 net.cpp:150] Setting up conv13_mbox_conf_flat
I0228 10:24:28.335937 12900 net.cpp:157] Top shape: 24 2400 (57600)
I0228 10:24:28.335942 12900 net.cpp:165] Memory required for data: 3869913728
I0228 10:24:28.335947 12900 layer_factory.hpp:77] Creating layer conv13_mbox_priorbox
I0228 10:24:28.335955 12900 net.cpp:100] Creating Layer conv13_mbox_priorbox
I0228 10:24:28.335961 12900 net.cpp:434] conv13_mbox_priorbox <- conv13_conv13/relu_0_split_3
I0228 10:24:28.335968 12900 net.cpp:434] conv13_mbox_priorbox <- data_data_0_split_2
I0228 10:24:28.335974 12900 net.cpp:408] conv13_mbox_priorbox -> conv13_mbox_priorbox
I0228 10:24:28.336007 12900 net.cpp:150] Setting up conv13_mbox_priorbox
I0228 10:24:28.336016 12900 net.cpp:157] Top shape: 1 2 2400 (4800)
I0228 10:24:28.336020 12900 net.cpp:165] Memory required for data: 3869932928
I0228 10:24:28.336024 12900 layer_factory.hpp:77] Creating layer conv14_2_mbox_loc
I0228 10:24:28.336035 12900 net.cpp:100] Creating Layer conv14_2_mbox_loc
I0228 10:24:28.336042 12900 net.cpp:434] conv14_2_mbox_loc <- conv14_2_conv14_2/relu_0_split_1
I0228 10:24:28.336052 12900 net.cpp:408] conv14_2_mbox_loc -> conv14_2_mbox_loc
I0228 10:24:28.338697 12900 net.cpp:150] Setting up conv14_2_mbox_loc
I0228 10:24:28.338714 12900 net.cpp:157] Top shape: 24 24 5 5 (14400)
I0228 10:24:28.338719 12900 net.cpp:165] Memory required for data: 3869990528
I0228 10:24:28.338727 12900 layer_factory.hpp:77] Creating layer conv14_2_mbox_loc_perm
I0228 10:24:28.338737 12900 net.cpp:100] Creating Layer conv14_2_mbox_loc_perm
I0228 10:24:28.338743 12900 net.cpp:434] conv14_2_mbox_loc_perm <- conv14_2_mbox_loc
I0228 10:24:28.338752 12900 net.cpp:408] conv14_2_mbox_loc_perm -> conv14_2_mbox_loc_perm
I0228 10:24:28.338873 12900 net.cpp:150] Setting up conv14_2_mbox_loc_perm
I0228 10:24:28.338882 12900 net.cpp:157] Top shape: 24 5 5 24 (14400)
I0228 10:24:28.338886 12900 net.cpp:165] Memory required for data: 3870048128
I0228 10:24:28.338892 12900 layer_factory.hpp:77] Creating layer conv14_2_mbox_loc_flat
I0228 10:24:28.338901 12900 net.cpp:100] Creating Layer conv14_2_mbox_loc_flat
I0228 10:24:28.338907 12900 net.cpp:434] conv14_2_mbox_loc_flat <- conv14_2_mbox_loc_perm
I0228 10:24:28.338912 12900 net.cpp:408] conv14_2_mbox_loc_flat -> conv14_2_mbox_loc_flat
I0228 10:24:28.338943 12900 net.cpp:150] Setting up conv14_2_mbox_loc_flat
I0228 10:24:28.338950 12900 net.cpp:157] Top shape: 24 600 (14400)
I0228 10:24:28.338954 12900 net.cpp:165] Memory required for data: 3870105728
I0228 10:24:28.338958 12900 layer_factory.hpp:77] Creating layer conv14_2_mbox_conf_new
I0228 10:24:28.338970 12900 net.cpp:100] Creating Layer conv14_2_mbox_conf_new
I0228 10:24:28.338977 12900 net.cpp:434] conv14_2_mbox_conf_new <- conv14_2_conv14_2/relu_0_split_2
I0228 10:24:28.338985 12900 net.cpp:408] conv14_2_mbox_conf_new -> conv14_2_mbox_conf
I0228 10:24:28.341521 12900 net.cpp:150] Setting up conv14_2_mbox_conf_new
I0228 10:24:28.341552 12900 net.cpp:157] Top shape: 24 24 5 5 (14400)
I0228 10:24:28.341557 12900 net.cpp:165] Memory required for data: 3870163328
I0228 10:24:28.341565 12900 layer_factory.hpp:77] Creating layer conv14_2_mbox_conf_perm
I0228 10:24:28.341575 12900 net.cpp:100] Creating Layer conv14_2_mbox_conf_perm
I0228 10:24:28.341581 12900 net.cpp:434] conv14_2_mbox_conf_perm <- conv14_2_mbox_conf
I0228 10:24:28.341589 12900 net.cpp:408] conv14_2_mbox_conf_perm -> conv14_2_mbox_conf_perm
I0228 10:24:28.341735 12900 net.cpp:150] Setting up conv14_2_mbox_conf_perm
I0228 10:24:28.341747 12900 net.cpp:157] Top shape: 24 5 5 24 (14400)
I0228 10:24:28.341751 12900 net.cpp:165] Memory required for data: 3870220928
I0228 10:24:28.341756 12900 layer_factory.hpp:77] Creating layer conv14_2_mbox_conf_flat
I0228 10:24:28.341773 12900 net.cpp:100] Creating Layer conv14_2_mbox_conf_flat
I0228 10:24:28.341778 12900 net.cpp:434] conv14_2_mbox_conf_flat <- conv14_2_mbox_conf_perm
I0228 10:24:28.341785 12900 net.cpp:408] conv14_2_mbox_conf_flat -> conv14_2_mbox_conf_flat
I0228 10:24:28.341815 12900 net.cpp:150] Setting up conv14_2_mbox_conf_flat
I0228 10:24:28.341825 12900 net.cpp:157] Top shape: 24 600 (14400)
I0228 10:24:28.341830 12900 net.cpp:165] Memory required for data: 3870278528
I0228 10:24:28.341835 12900 layer_factory.hpp:77] Creating layer conv14_2_mbox_priorbox
I0228 10:24:28.341842 12900 net.cpp:100] Creating Layer conv14_2_mbox_priorbox
I0228 10:24:28.341847 12900 net.cpp:434] conv14_2_mbox_priorbox <- conv14_2_conv14_2/relu_0_split_3
I0228 10:24:28.341853 12900 net.cpp:434] conv14_2_mbox_priorbox <- data_data_0_split_3
I0228 10:24:28.341862 12900 net.cpp:408] conv14_2_mbox_priorbox -> conv14_2_mbox_priorbox
I0228 10:24:28.341892 12900 net.cpp:150] Setting up conv14_2_mbox_priorbox
I0228 10:24:28.341902 12900 net.cpp:157] Top shape: 1 2 600 (1200)
I0228 10:24:28.341905 12900 net.cpp:165] Memory required for data: 3870283328
I0228 10:24:28.341910 12900 layer_factory.hpp:77] Creating layer conv15_2_mbox_loc
I0228 10:24:28.341922 12900 net.cpp:100] Creating Layer conv15_2_mbox_loc
I0228 10:24:28.341928 12900 net.cpp:434] conv15_2_mbox_loc <- conv15_2_conv15_2/relu_0_split_1
I0228 10:24:28.341934 12900 net.cpp:408] conv15_2_mbox_loc -> conv15_2_mbox_loc
I0228 10:24:28.344379 12900 net.cpp:150] Setting up conv15_2_mbox_loc
I0228 10:24:28.344395 12900 net.cpp:157] Top shape: 24 24 3 3 (5184)
I0228 10:24:28.344400 12900 net.cpp:165] Memory required for data: 3870304064
I0228 10:24:28.344408 12900 layer_factory.hpp:77] Creating layer conv15_2_mbox_loc_perm
I0228 10:24:28.344416 12900 net.cpp:100] Creating Layer conv15_2_mbox_loc_perm
I0228 10:24:28.344421 12900 net.cpp:434] conv15_2_mbox_loc_perm <- conv15_2_mbox_loc
I0228 10:24:28.344429 12900 net.cpp:408] conv15_2_mbox_loc_perm -> conv15_2_mbox_loc_perm
I0228 10:24:28.344563 12900 net.cpp:150] Setting up conv15_2_mbox_loc_perm
I0228 10:24:28.344573 12900 net.cpp:157] Top shape: 24 3 3 24 (5184)
I0228 10:24:28.344578 12900 net.cpp:165] Memory required for data: 3870324800
I0228 10:24:28.344581 12900 layer_factory.hpp:77] Creating layer conv15_2_mbox_loc_flat
I0228 10:24:28.344588 12900 net.cpp:100] Creating Layer conv15_2_mbox_loc_flat
I0228 10:24:28.344594 12900 net.cpp:434] conv15_2_mbox_loc_flat <- conv15_2_mbox_loc_perm
I0228 10:24:28.344602 12900 net.cpp:408] conv15_2_mbox_loc_flat -> conv15_2_mbox_loc_flat
I0228 10:24:28.344630 12900 net.cpp:150] Setting up conv15_2_mbox_loc_flat
I0228 10:24:28.344640 12900 net.cpp:157] Top shape: 24 216 (5184)
I0228 10:24:28.344645 12900 net.cpp:165] Memory required for data: 3870345536
I0228 10:24:28.344648 12900 layer_factory.hpp:77] Creating layer conv15_2_mbox_conf_new
I0228 10:24:28.344660 12900 net.cpp:100] Creating Layer conv15_2_mbox_conf_new
I0228 10:24:28.344666 12900 net.cpp:434] conv15_2_mbox_conf_new <- conv15_2_conv15_2/relu_0_split_2
I0228 10:24:28.344676 12900 net.cpp:408] conv15_2_mbox_conf_new -> conv15_2_mbox_conf
I0228 10:24:28.347530 12900 net.cpp:150] Setting up conv15_2_mbox_conf_new
I0228 10:24:28.347545 12900 net.cpp:157] Top shape: 24 24 3 3 (5184)
I0228 10:24:28.347565 12900 net.cpp:165] Memory required for data: 3870366272
I0228 10:24:28.347574 12900 layer_factory.hpp:77] Creating layer conv15_2_mbox_conf_perm
I0228 10:24:28.347582 12900 net.cpp:100] Creating Layer conv15_2_mbox_conf_perm
I0228 10:24:28.347587 12900 net.cpp:434] conv15_2_mbox_conf_perm <- conv15_2_mbox_conf
I0228 10:24:28.347594 12900 net.cpp:408] conv15_2_mbox_conf_perm -> conv15_2_mbox_conf_perm
I0228 10:24:28.347738 12900 net.cpp:150] Setting up conv15_2_mbox_conf_perm
I0228 10:24:28.347746 12900 net.cpp:157] Top shape: 24 3 3 24 (5184)
I0228 10:24:28.347750 12900 net.cpp:165] Memory required for data: 3870387008
I0228 10:24:28.347754 12900 layer_factory.hpp:77] Creating layer conv15_2_mbox_conf_flat
I0228 10:24:28.347776 12900 net.cpp:100] Creating Layer conv15_2_mbox_conf_flat
I0228 10:24:28.347782 12900 net.cpp:434] conv15_2_mbox_conf_flat <- conv15_2_mbox_conf_perm
I0228 10:24:28.347790 12900 net.cpp:408] conv15_2_mbox_conf_flat -> conv15_2_mbox_conf_flat
I0228 10:24:28.347820 12900 net.cpp:150] Setting up conv15_2_mbox_conf_flat
I0228 10:24:28.347828 12900 net.cpp:157] Top shape: 24 216 (5184)
I0228 10:24:28.347832 12900 net.cpp:165] Memory required for data: 3870407744
I0228 10:24:28.347836 12900 layer_factory.hpp:77] Creating layer conv15_2_mbox_priorbox
I0228 10:24:28.347846 12900 net.cpp:100] Creating Layer conv15_2_mbox_priorbox
I0228 10:24:28.347851 12900 net.cpp:434] conv15_2_mbox_priorbox <- conv15_2_conv15_2/relu_0_split_3
I0228 10:24:28.347857 12900 net.cpp:434] conv15_2_mbox_priorbox <- data_data_0_split_4
I0228 10:24:28.347864 12900 net.cpp:408] conv15_2_mbox_priorbox -> conv15_2_mbox_priorbox
I0228 10:24:28.347896 12900 net.cpp:150] Setting up conv15_2_mbox_priorbox
I0228 10:24:28.347904 12900 net.cpp:157] Top shape: 1 2 216 (432)
I0228 10:24:28.347908 12900 net.cpp:165] Memory required for data: 3870409472
I0228 10:24:28.347913 12900 layer_factory.hpp:77] Creating layer conv16_2_mbox_loc
I0228 10:24:28.347923 12900 net.cpp:100] Creating Layer conv16_2_mbox_loc
I0228 10:24:28.347929 12900 net.cpp:434] conv16_2_mbox_loc <- conv16_2_conv16_2/relu_0_split_1
I0228 10:24:28.347939 12900 net.cpp:408] conv16_2_mbox_loc -> conv16_2_mbox_loc
I0228 10:24:28.350319 12900 net.cpp:150] Setting up conv16_2_mbox_loc
I0228 10:24:28.350337 12900 net.cpp:157] Top shape: 24 24 2 2 (2304)
I0228 10:24:28.350342 12900 net.cpp:165] Memory required for data: 3870418688
I0228 10:24:28.350350 12900 layer_factory.hpp:77] Creating layer conv16_2_mbox_loc_perm
I0228 10:24:28.350359 12900 net.cpp:100] Creating Layer conv16_2_mbox_loc_perm
I0228 10:24:28.350364 12900 net.cpp:434] conv16_2_mbox_loc_perm <- conv16_2_mbox_loc
I0228 10:24:28.350373 12900 net.cpp:408] conv16_2_mbox_loc_perm -> conv16_2_mbox_loc_perm
I0228 10:24:28.350505 12900 net.cpp:150] Setting up conv16_2_mbox_loc_perm
I0228 10:24:28.350514 12900 net.cpp:157] Top shape: 24 2 2 24 (2304)
I0228 10:24:28.350518 12900 net.cpp:165] Memory required for data: 3870427904
I0228 10:24:28.350524 12900 layer_factory.hpp:77] Creating layer conv16_2_mbox_loc_flat
I0228 10:24:28.350531 12900 net.cpp:100] Creating Layer conv16_2_mbox_loc_flat
I0228 10:24:28.350535 12900 net.cpp:434] conv16_2_mbox_loc_flat <- conv16_2_mbox_loc_perm
I0228 10:24:28.350543 12900 net.cpp:408] conv16_2_mbox_loc_flat -> conv16_2_mbox_loc_flat
I0228 10:24:28.350574 12900 net.cpp:150] Setting up conv16_2_mbox_loc_flat
I0228 10:24:28.350582 12900 net.cpp:157] Top shape: 24 96 (2304)
I0228 10:24:28.350586 12900 net.cpp:165] Memory required for data: 3870437120
I0228 10:24:28.350591 12900 layer_factory.hpp:77] Creating layer conv16_2_mbox_conf_new
I0228 10:24:28.350603 12900 net.cpp:100] Creating Layer conv16_2_mbox_conf_new
I0228 10:24:28.350610 12900 net.cpp:434] conv16_2_mbox_conf_new <- conv16_2_conv16_2/relu_0_split_2
I0228 10:24:28.350618 12900 net.cpp:408] conv16_2_mbox_conf_new -> conv16_2_mbox_conf
I0228 10:24:28.353199 12900 net.cpp:150] Setting up conv16_2_mbox_conf_new
I0228 10:24:28.353219 12900 net.cpp:157] Top shape: 24 24 2 2 (2304)
I0228 10:24:28.353224 12900 net.cpp:165] Memory required for data: 3870446336
I0228 10:24:28.353232 12900 layer_factory.hpp:77] Creating layer conv16_2_mbox_conf_perm
I0228 10:24:28.353242 12900 net.cpp:100] Creating Layer conv16_2_mbox_conf_perm
I0228 10:24:28.353255 12900 net.cpp:434] conv16_2_mbox_conf_perm <- conv16_2_mbox_conf
I0228 10:24:28.353262 12900 net.cpp:408] conv16_2_mbox_conf_perm -> conv16_2_mbox_conf_perm
I0228 10:24:28.353400 12900 net.cpp:150] Setting up conv16_2_mbox_conf_perm
I0228 10:24:28.353410 12900 net.cpp:157] Top shape: 24 2 2 24 (2304)
I0228 10:24:28.353415 12900 net.cpp:165] Memory required for data: 3870455552
I0228 10:24:28.353421 12900 layer_factory.hpp:77] Creating layer conv16_2_mbox_conf_flat
I0228 10:24:28.353430 12900 net.cpp:100] Creating Layer conv16_2_mbox_conf_flat
I0228 10:24:28.353454 12900 net.cpp:434] conv16_2_mbox_conf_flat <- conv16_2_mbox_conf_perm
I0228 10:24:28.353463 12900 net.cpp:408] conv16_2_mbox_conf_flat -> conv16_2_mbox_conf_flat
I0228 10:24:28.353502 12900 net.cpp:150] Setting up conv16_2_mbox_conf_flat
I0228 10:24:28.353512 12900 net.cpp:157] Top shape: 24 96 (2304)
I0228 10:24:28.353515 12900 net.cpp:165] Memory required for data: 3870464768
I0228 10:24:28.353521 12900 layer_factory.hpp:77] Creating layer conv16_2_mbox_priorbox
I0228 10:24:28.353531 12900 net.cpp:100] Creating Layer conv16_2_mbox_priorbox
I0228 10:24:28.353536 12900 net.cpp:434] conv16_2_mbox_priorbox <- conv16_2_conv16_2/relu_0_split_3
I0228 10:24:28.353544 12900 net.cpp:434] conv16_2_mbox_priorbox <- data_data_0_split_5
I0228 10:24:28.353552 12900 net.cpp:408] conv16_2_mbox_priorbox -> conv16_2_mbox_priorbox
I0228 10:24:28.353590 12900 net.cpp:150] Setting up conv16_2_mbox_priorbox
I0228 10:24:28.353597 12900 net.cpp:157] Top shape: 1 2 96 (192)
I0228 10:24:28.353602 12900 net.cpp:165] Memory required for data: 3870465536
I0228 10:24:28.353607 12900 layer_factory.hpp:77] Creating layer conv17_2_mbox_loc
I0228 10:24:28.353621 12900 net.cpp:100] Creating Layer conv17_2_mbox_loc
I0228 10:24:28.353628 12900 net.cpp:434] conv17_2_mbox_loc <- conv17_2_conv17_2/relu_0_split_0
I0228 10:24:28.353637 12900 net.cpp:408] conv17_2_mbox_loc -> conv17_2_mbox_loc
I0228 10:24:28.356452 12900 net.cpp:150] Setting up conv17_2_mbox_loc
I0228 10:24:28.356470 12900 net.cpp:157] Top shape: 24 24 1 1 (576)
I0228 10:24:28.356475 12900 net.cpp:165] Memory required for data: 3870467840
I0228 10:24:28.356485 12900 layer_factory.hpp:77] Creating layer conv17_2_mbox_loc_perm
I0228 10:24:28.356498 12900 net.cpp:100] Creating Layer conv17_2_mbox_loc_perm
I0228 10:24:28.356508 12900 net.cpp:434] conv17_2_mbox_loc_perm <- conv17_2_mbox_loc
I0228 10:24:28.356516 12900 net.cpp:408] conv17_2_mbox_loc_perm -> conv17_2_mbox_loc_perm
I0228 10:24:28.356653 12900 net.cpp:150] Setting up conv17_2_mbox_loc_perm
I0228 10:24:28.356665 12900 net.cpp:157] Top shape: 24 1 1 24 (576)
I0228 10:24:28.356669 12900 net.cpp:165] Memory required for data: 3870470144
I0228 10:24:28.356674 12900 layer_factory.hpp:77] Creating layer conv17_2_mbox_loc_flat
I0228 10:24:28.356681 12900 net.cpp:100] Creating Layer conv17_2_mbox_loc_flat
I0228 10:24:28.356688 12900 net.cpp:434] conv17_2_mbox_loc_flat <- conv17_2_mbox_loc_perm
I0228 10:24:28.356696 12900 net.cpp:408] conv17_2_mbox_loc_flat -> conv17_2_mbox_loc_flat
I0228 10:24:28.356729 12900 net.cpp:150] Setting up conv17_2_mbox_loc_flat
I0228 10:24:28.356737 12900 net.cpp:157] Top shape: 24 24 (576)
I0228 10:24:28.356743 12900 net.cpp:165] Memory required for data: 3870472448
I0228 10:24:28.356748 12900 layer_factory.hpp:77] Creating layer conv17_2_mbox_conf_new
I0228 10:24:28.356760 12900 net.cpp:100] Creating Layer conv17_2_mbox_conf_new
I0228 10:24:28.356765 12900 net.cpp:434] conv17_2_mbox_conf_new <- conv17_2_conv17_2/relu_0_split_1
I0228 10:24:28.356775 12900 net.cpp:408] conv17_2_mbox_conf_new -> conv17_2_mbox_conf
I0228 10:24:28.359205 12900 net.cpp:150] Setting up conv17_2_mbox_conf_new
I0228 10:24:28.359220 12900 net.cpp:157] Top shape: 24 24 1 1 (576)
I0228 10:24:28.359239 12900 net.cpp:165] Memory required for data: 3870474752
I0228 10:24:28.359248 12900 layer_factory.hpp:77] Creating layer conv17_2_mbox_conf_perm
I0228 10:24:28.359257 12900 net.cpp:100] Creating Layer conv17_2_mbox_conf_perm
I0228 10:24:28.359263 12900 net.cpp:434] conv17_2_mbox_conf_perm <- conv17_2_mbox_conf
I0228 10:24:28.359271 12900 net.cpp:408] conv17_2_mbox_conf_perm -> conv17_2_mbox_conf_perm
I0228 10:24:28.359388 12900 net.cpp:150] Setting up conv17_2_mbox_conf_perm
I0228 10:24:28.359397 12900 net.cpp:157] Top shape: 24 1 1 24 (576)
I0228 10:24:28.359401 12900 net.cpp:165] Memory required for data: 3870477056
I0228 10:24:28.359406 12900 layer_factory.hpp:77] Creating layer conv17_2_mbox_conf_flat
I0228 10:24:28.359414 12900 net.cpp:100] Creating Layer conv17_2_mbox_conf_flat
I0228 10:24:28.359432 12900 net.cpp:434] conv17_2_mbox_conf_flat <- conv17_2_mbox_conf_perm
I0228 10:24:28.359439 12900 net.cpp:408] conv17_2_mbox_conf_flat -> conv17_2_mbox_conf_flat
I0228 10:24:28.359472 12900 net.cpp:150] Setting up conv17_2_mbox_conf_flat
I0228 10:24:28.359480 12900 net.cpp:157] Top shape: 24 24 (576)
I0228 10:24:28.359485 12900 net.cpp:165] Memory required for data: 3870479360
I0228 10:24:28.359490 12900 layer_factory.hpp:77] Creating layer conv17_2_mbox_priorbox
I0228 10:24:28.359499 12900 net.cpp:100] Creating Layer conv17_2_mbox_priorbox
I0228 10:24:28.359504 12900 net.cpp:434] conv17_2_mbox_priorbox <- conv17_2_conv17_2/relu_0_split_2
I0228 10:24:28.359510 12900 net.cpp:434] conv17_2_mbox_priorbox <- data_data_0_split_6
I0228 10:24:28.359516 12900 net.cpp:408] conv17_2_mbox_priorbox -> conv17_2_mbox_priorbox
I0228 10:24:28.359549 12900 net.cpp:150] Setting up conv17_2_mbox_priorbox
I0228 10:24:28.359557 12900 net.cpp:157] Top shape: 1 2 24 (48)
I0228 10:24:28.359560 12900 net.cpp:165] Memory required for data: 3870479552
I0228 10:24:28.359565 12900 layer_factory.hpp:77] Creating layer mbox_loc
I0228 10:24:28.359573 12900 net.cpp:100] Creating Layer mbox_loc
I0228 10:24:28.359580 12900 net.cpp:434] mbox_loc <- conv11_mbox_loc_flat
I0228 10:24:28.359586 12900 net.cpp:434] mbox_loc <- conv13_mbox_loc_flat
I0228 10:24:28.359591 12900 net.cpp:434] mbox_loc <- conv14_2_mbox_loc_flat
I0228 10:24:28.359596 12900 net.cpp:434] mbox_loc <- conv15_2_mbox_loc_flat
I0228 10:24:28.359601 12900 net.cpp:434] mbox_loc <- conv16_2_mbox_loc_flat
I0228 10:24:28.359606 12900 net.cpp:434] mbox_loc <- conv17_2_mbox_loc_flat
I0228 10:24:28.359612 12900 net.cpp:408] mbox_loc -> mbox_loc
I0228 10:24:28.359645 12900 net.cpp:150] Setting up mbox_loc
I0228 10:24:28.359654 12900 net.cpp:157] Top shape: 24 7668 (184032)
I0228 10:24:28.359658 12900 net.cpp:165] Memory required for data: 3871215680
I0228 10:24:28.359674 12900 layer_factory.hpp:77] Creating layer mbox_conf
I0228 10:24:28.359681 12900 net.cpp:100] Creating Layer mbox_conf
I0228 10:24:28.359688 12900 net.cpp:434] mbox_conf <- conv11_mbox_conf_flat
I0228 10:24:28.359694 12900 net.cpp:434] mbox_conf <- conv13_mbox_conf_flat
I0228 10:24:28.359699 12900 net.cpp:434] mbox_conf <- conv14_2_mbox_conf_flat
I0228 10:24:28.359704 12900 net.cpp:434] mbox_conf <- conv15_2_mbox_conf_flat
I0228 10:24:28.359710 12900 net.cpp:434] mbox_conf <- conv16_2_mbox_conf_flat
I0228 10:24:28.359716 12900 net.cpp:434] mbox_conf <- conv17_2_mbox_conf_flat
I0228 10:24:28.359724 12900 net.cpp:408] mbox_conf -> mbox_conf
I0228 10:24:28.359755 12900 net.cpp:150] Setting up mbox_conf
I0228 10:24:28.359763 12900 net.cpp:157] Top shape: 24 7668 (184032)
I0228 10:24:28.359768 12900 net.cpp:165] Memory required for data: 3871951808
I0228 10:24:28.359773 12900 layer_factory.hpp:77] Creating layer mbox_priorbox
I0228 10:24:28.359779 12900 net.cpp:100] Creating Layer mbox_priorbox
I0228 10:24:28.359786 12900 net.cpp:434] mbox_priorbox <- conv11_mbox_priorbox
I0228 10:24:28.359791 12900 net.cpp:434] mbox_priorbox <- conv13_mbox_priorbox
I0228 10:24:28.359797 12900 net.cpp:434] mbox_priorbox <- conv14_2_mbox_priorbox
I0228 10:24:28.359817 12900 net.cpp:434] mbox_priorbox <- conv15_2_mbox_priorbox
I0228 10:24:28.359824 12900 net.cpp:434] mbox_priorbox <- conv16_2_mbox_priorbox
I0228 10:24:28.359830 12900 net.cpp:434] mbox_priorbox <- conv17_2_mbox_priorbox
I0228 10:24:28.359838 12900 net.cpp:408] mbox_priorbox -> mbox_priorbox
I0228 10:24:28.359866 12900 net.cpp:150] Setting up mbox_priorbox
I0228 10:24:28.359876 12900 net.cpp:157] Top shape: 1 2 7668 (15336)
I0228 10:24:28.359881 12900 net.cpp:165] Memory required for data: 3872013152
I0228 10:24:28.359885 12900 layer_factory.hpp:77] Creating layer mbox_loss
I0228 10:24:28.359897 12900 net.cpp:100] Creating Layer mbox_loss
I0228 10:24:28.359905 12900 net.cpp:434] mbox_loss <- mbox_loc
I0228 10:24:28.359910 12900 net.cpp:434] mbox_loss <- mbox_conf
I0228 10:24:28.359916 12900 net.cpp:434] mbox_loss <- mbox_priorbox
…
name: "MobileNet-SSD"
state {
  phase: TEST
}
layer {
  name: "data"
  type: "AnnotatedData"
  top: "data"
  top: "label"
  include {
    phase: TEST
  }
  transform_param {
    scale: 0.007843
    mean_value: 127.5
    mean_value: 127.5
    mean_value: 127.5
    resize_param {
      prob: 1
      resize_mode: WARP
      height: 300
      width: 300
      interp_mode: LINEAR
    }
  }
  data_param {
    source: "test_lmdb"
    batch_size: 8
    backend: LMDB
  }
  annotated_data_param {
    batch_sampler {
    }
    label_map_file: "labelmap.prototxt"
  }
}
layer {
  name: "conv0"
  type: "Convolution"
  bottom: "data"
  top: "conv0"
  param {
    lr_mult: 1
    decay_mult: 1
  }
  convolution_param {
    num_output: 32
    bias_term: false
    pad: 1
    kernel_size: 3
    stride: 2
    weight_filler {
      type: "msra"
    }
  }
}
layer {
  name: "conv0/bn"
  type: "BatchNorm"
  bottom: "conv0"
  top: "conv0"
}
layer {
  name: "conv0/scale"
  type: "Scale"
  bottom: "conv0"
  top: "conv0"
  param {
    lr_mult: 1
    decay_mult: 0
  }
  param {
    lr_mult: 2
    decay_mult: 0
  }
  scale_param {
    filler {
      value: 1
    }
    bias_term: true
    bias_filler {
      value: 0
    }
  }
}
layer {
  name: "conv0/relu"
  type: "ReLU"
  bottom: "conv0"
  top: "conv0"
}
layer {
  name: "conv1/dw"
  type: "Convolution"
  bottom: "conv0"
  top: "conv1/dw"
  param {
    lr_mult: 1
    decay_mult: 1
  }
  convolution_param {
    num_output: 32
    bias_term: false
    pad: 1
    kernel_size: 3
    group: 32
    weight_filler {
      type: "msra"
    }
    engine: CAFFE
  }
}
layer {
  name: "conv1/dw/bn"
  type: "BatchNorm"
  bottom: "conv1/dw"
  top: "conv1/dw"
}
layer {
  name: "conv1/dw/scale"
  type: "Scale"
  bottom: "conv1/dw"
  top: "conv1/dw"
  param {
    lr_mult: 1
    decay_mult: 0
  }
  param {
    lr_mult: 2
    decay_mult: 0
  }
  scale_param {
    filler {
      value: 1
    }
    bias_term: true
    bias_filler {
      value: 0
    }
  }
}
layer {
  name: "conv1/dw/relu"
  type: "ReLU"
  bottom: "conv1/dw"
  top: "conv1/dw"
}
layer {
  name: "conv1"
  type: "Convolution"
  bottom: "conv1/dw"
  top: "conv1"
  param {
    lr_mult: 1
    decay_mult: 1
  }
  convolution_param {
    num_output: 64
    bias_term: false
    kernel_size: 1
    weight_filler {
      type: "msra"
    }
  }
}
layer {
  name: "conv1/bn"
  type: "BatchNorm"
  bottom: "conv1"
  top: "conv1"
}
layer {
  name: "conv1/scale"
  type: "Scale"
  bottom: "conv1"
  top: "conv1"
  param {
    lr_mult: 1
    decay_mult: 0
  }
  param {
    lr_mult: 2
    decay_mult: 0
  }
  scale_param {
    filler {
      value: 1
    }
    bias_term: true
    bias_filler {
      value: 0
    }
  }
}
layer {
  name: "conv1/relu"
  type: "ReLU"
  bottom: "conv1"
  top: "conv1"
}
layer {
  name: "conv2/dw"
  type: "Convolution"
  bottom: "conv1"
  top: "conv2/dw"
  param {
    lr_mult: 1
    decay_mult: 1
  }
  convolution_param {
    num_output: 64
    bias_term: false
    pad: 1
    kernel_size: 3
    group: 64
    stride: 2
    weight_filler {
      type: "msra"
    }
    engine: CAFFE
  }
}
layer {
  name: "conv2/dw/bn"
  type: "BatchNorm"
  bottom: "conv2/dw"
  top: "conv2/dw"
}
layer {
  name: "conv2/dw/scale"
  type: "Scale"
  bottom: "conv2/dw"
  top: "conv2/dw"
  param {
    lr_mult: 1
    decay_mult: 0
  }
  param {
    lr_mult: 2
    decay_mult: 0
  }
  scale_param {
    filler {
      value: 1
    }
    bias_term: true
    bias_filler {
      value: 0
    }
  }
}
layer {
  name: "conv2/dw/relu"
  type: "ReLU"
  bottom: "conv2/dw"
  top: "conv2/dw"
}
layer {
  name: "conv2"
  type: "Convolution"
  bottom: "conv2/dw"
  top: "conv2"
  param {
    lr_mult: 1
    decay_mult: 1
  }
  convolution_param {
    num_output: 128
    bias_term: false
    kernel_size: 1
    weight_filler {
      type: "msra"
    }
  }
}
layer {
  name: "conv2/bn"
  type: "BatchNorm"
  bottom: "conv2"
  top: "conv2"
}
layer {
  name: "conv2/scale"
  type: "Scale"
  bottom: "conv2"
  top: "conv2"
  param {
    lr_mult: 1
    decay_mult: 0
  }
  param {
    lr_mult: 2
    decay_mult: 0
  }
  scale_param {
    filler {
      value: 1
    }
    bias_term: true
    bias_filler {
      value: 0
    }
  }
}
layer {
  name: "conv2/relu"
  type: "ReLU"
  bottom: "conv2"
  top: "conv2"
}
layer {
  name: "conv3/dw"
  type: "Convolution"
  bottom: "conv2"
  top: "conv3/dw"
  param {
    lr_mult: 1
    decay_mult: 1
  }
  convolution_param {
    num_output: 128
    bias_term: false
    pad: 1
    kernel_size: 3
    group: 128
    weight_filler {
      type: "msra"
    }
    engine: CAFFE
  }
}
layer {
  name: "conv3/dw/bn"
  type: "BatchNorm"
  bottom: "conv3/dw"
  top: "conv3/dw"
}
layer {
  name: "conv3/dw/scale"
  type: "Scale"
  bottom: "conv3/dw"
  top: "conv3/dw"
  param {
    lr_mult: 1
    decay_mult: 0
  }
  param {
    lr_mult: 2
    decay_mult: 0
  }
  scale_param {
    filler {
      value: 1
    }
    bias_term: true
    bias_filler {
      value: 0
    }
  }
}
layer {
  name: "conv3/dw/relu"
  type: "ReLU"
  bottom: "conv3/dw"
  top: "conv3/dw"
}
layer {
  name: "conv3"
  type: "Convolution"
  bottom: "conv3/dw"
  top: "conv3"
  param {
    lr_mult: 1
    decay_mult: 1
  }
  convolution_param {
    num_output: 128
    bias_term: false
    kernel_size: 1
    weight_filler {
      type: "msra"
    }
  }
}
layer {
  name: "conv3/bn"
  type: "BatchNorm"
  bottom: "conv3"
  top: "conv3"
}
layer {
  name: "conv3/scale"
  type: "Scale"
  bottom: "conv3"
  top: "conv3"
  param {
    lr_mult: 1
    decay_mult: 0
  }
  param {
    lr_mult: 2
    decay_mult: 0
  }
  scale_param {
    filler {
      value: 1
    }
    bias_term: true
    bias_filler {
      value: 0
    }
  }
}
layer {
  name: "conv3/relu"
  type: "ReLU"
  bottom: "conv3"
  top: "conv3"
}
layer {
  name: "conv4/dw"
  type: "Convolution"
  bottom: "conv3"
  top: "conv4/dw"
  param {
    lr_mult: 1
    decay_mult: 1
  }
  convolution_param {
    num_output: 128
    bias_term: false
    pad: 1
    kernel_size: 3
    group: 128
    stride: 2
    weight_filler {
      type: "msra"
    }
    engine: CAFFE
  }
}
layer {
  name: "conv4/dw/bn"
  type: "BatchNorm"
  bottom: "conv4/dw"
  top: "conv4/dw"
}
layer {
  name: "conv4/dw/scale"
  type: "Scale"
  bottom: "conv4/dw"
  top: "conv4/dw"
  param {
    lr_mult: 1
    decay_mult: 0
  }
  param {
    lr_mult: 2
    decay_mult: 0
  }
  scale_param {
    filler {
      value: 1
    }
    bias_term: true
    bias_filler {
      value: 0
    }
  }
}
layer {
  name: "conv4/dw/relu"
  type: "ReLU"
  bottom: "conv4/dw"
  top: "conv4/dw"
}
layer {
  name: "conv4"
  type: "Convolution"
  bottom: "conv4/dw"
  top: "conv4"
  param {
    lr_mult: 1
    decay_mult: 1
  }
  convolution_param {
    num_output: 256
    bias_term: false
    kernel_size: 1
    weight_filler {
      type: "msra"
    }
  }
}
layer {
  name: "conv4/bn"
  type: "BatchNorm"
  bottom: "conv4"
  top: "conv4"
}
layer {
  name: "conv4/scale"
  type: "Scale"
  bottom: "conv4"
  top: "conv4"
  param {
    lr_mult: 1
    decay_mult: 0
  }
  param {
    lr_mult: 2
    decay_mult: 0
  }
  scale_param {
    filler {
      value: 1
    }
    bias_term: true
    bias_filler {
      value: 0
    }
  }
}
layer {
  name: "conv4/relu"
  type: "ReLU"
  bottom: "conv4"
  top: "conv4"
}
layer {
  name: "conv5/dw"
  type: "Convolution"
  bottom: "conv4"
  top: "conv5/dw"
  param {
    lr_mult: 1
    decay_mult: 1
  }
  convolution_param {
    num_output: 256
    bias_term: false
    pad: 1
    kernel_size: 3
    group: 256
    weight_filler {
      type: "msra"
    }
    engine: CAFFE
  }
}
layer {
  name: "conv5/dw/bn"
  type: "BatchNorm"
  bottom: "conv5/dw"
  top: "conv5/dw"
}
layer {
  name: "conv5/dw/scale"
  type: "Scale"
  bottom: "conv5/dw"
  top: "conv5/dw"
  param {
    lr_mult: 1
    decay_mult: 0
  }
  param {
    lr_mult: 2
    decay_mult: 0
  }
  scale_param {
    filler {
      value: 1
    }
    bias_term: true
    bias_filler {
      value: 0
    }
  }
}
layer {
  name: "conv5/dw/relu"
  type: "ReLU"
  bottom: "conv5/dw"
  top: "conv5/dw"
}
layer {
  name: "conv5"
  type: "Convolution"
  bottom: "conv5/dw"
  top: "conv5"
  param {
    lr_mult: 1
    decay_mult: 1
  }
  convolution_param {
    num_output: 256
    bias_term: false
    kernel_size: 1
    weight_filler {
      type: "msra"
    }
  }
}
layer {
  name: "conv5/bn"
  type: "BatchNorm"
  bottom: "conv5"
  top: "conv5"
}
layer {
  name: "conv5/scale"
  type: "Scale"
  bottom: "conv5"
  top: "conv5"
  param {
    lr_mult: 1
    decay_mult: 0
  }
  param {
    lr_mult: 2
    decay_mult: 0
  }
  scale_param {
    filler {
      value: 1
    }
    bias_term: true
    bias_filler {
      value: 0
    }
  }
}
layer {
  name: "conv5/relu"
  type: "ReLU"
  bottom: "conv5"
  top: "conv5"
}
layer {
  name: "conv6/dw"
  type: "Convolution"
  bottom: "conv5"
  top: "conv6/dw"
  param {
    lr_mult: 1
    decay_mult: 1
  }
  convolution_param {
    num_output: 256
    bias_term: false
    pad: 1
    kernel_size: 3
    group: 256
    stride: 2
    weight_filler {
      type: "msra"
    }
    engine: CAFFE
  }
}
layer {
  name: "conv6/dw/bn"
  type: "BatchNorm"
  bottom: "conv6/dw"
  top: "conv6/dw"
}
layer {
  name: "conv6/dw/scale"
  type: "Scale"
  bottom: "conv6/dw"
  top: "conv6/dw"
  param {
    lr_mult: 1
    decay_mult: 0
  }
  param {
    lr_mult: 2
    decay_mult: 0
  }
  scale_param {
    filler {
      value: 1
    }
    bias_term: true
    bias_filler {
      value: 0
    }
  }
}
layer {
  name: "conv6/dw/relu"
  type: "ReLU"
  bottom: "conv6/dw"
  top: "conv6/dw"
}
layer {
  name: "conv6"
  type: "Convolution"
  bottom: "conv6/dw"
  top: "conv6"
  param {
    lr_mult: 1
    decay_mult: 1
  }
  convolution_param {
    num_output: 512
    bias_term: false
    kernel_size: 1
    weight_filler {
      type: "msra"
    }
  }
}
layer {
  name: "conv6/bn"
  type: "BatchNorm"
  bottom: "conv6"
  top: "conv6"
}
layer {
  name: "conv6/scale"
  type: "Scale"
  bottom: "conv6"
  top: "conv6"
  param {
    lr_mult: 1
    decay_mult: 0
  }
  param {
    lr_mult: 2
    decay_mult: 0
  }
  scale_param {
    filler {
      value: 1
    }
    bias_term: true
    bias_filler {
      value: 0
    }
  }
}
layer {
  name: "conv6/relu"
  type: "ReLU"
  bottom: "conv6"
  top: "conv6"
}
layer {
  name: "conv7/dw"
  type: "Convolution"
  bottom: "conv6"
  top: "conv7/dw"
  param {
    lr_mult: 1
    decay_mult: 1
  }
  convolution_param {
    num_output: 512
    bias_term: false
    pad: 1
    kernel_size: 3
    group: 512
    weight_filler {
      type: "msra"
    }
    engine: CAFFE
  }
}
layer {
  name: "conv7/dw/bn"
  type: "BatchNorm"
  bottom: "conv7/dw"
  top: "conv7/dw"
}
layer {
  name: "conv7/dw/scale"
  type: "Scale"
  bottom: "conv7/dw"
  top: "conv7/dw"
  param {
    lr_mult: 1
    decay_mult: 0
  }
  param {
    lr_mult: 2
    decay_mult: 0
  }
  scale_param {
    filler {
      value: 1
    }
    bias_term: true
    bias_filler {
      value: 0
    }
  }
}
layer {
  name: "conv7/dw/relu"
  type: "ReLU"
  bottom: "conv7/dw"
  top: "conv7/dw"
}
layer {
  name: "conv7"
  type: "Convolution"
  bottom: "conv7/dw"
  top: "conv7"
  param {
    lr_mult: 1
    decay_mult: 1
  }
  convolution_param {
    num_output: 512
    bias_term: false
    kernel_size: 1
    weight_filler {
      type: "msra"
    }
  }
}
layer {
  name: "conv7/bn"
  type: "BatchNorm"
  bottom: "conv7"
  top: "conv7"
}
layer {
  name: "conv7/scale"
  type: "Scale"
  bottom: "conv7"
  top: "conv7"
  param {
    lr_mult: 1
    decay_mult: 0
  }
  param {
    lr_mult: 2
    decay_mult: 0
  }
  scale_param {
    filler {
      value: 1
    }
    bias_term: true
    bias_filler {
      value: 0
    }
  }
}
layer {
  name: "conv7/relu"
  type: "ReLU"
  bottom: "conv7"
  top: "conv7"
}
layer {
  name: "conv8/dw"
  type: "Convolution"
  bottom: "conv7"
  top: "conv8/dw"
  param {
    lr_mult: 1
    decay_mult: 1
  }
  convolution_param {
    num_output: 512
    bias_term: false
    pad: 1
    kernel_size: 3
    group: 512
    weight_filler {
      type: "msra"
    }
    engine: CAFFE
  }
}
layer {
  name: "conv8/dw/bn"
  type: "BatchNorm"
  bottom: "conv8/dw"
  top: "conv8/dw"
}
layer {
  name: "conv8/dw/scale"
  type: "Scale"
  bottom: "conv8/dw"
  top: "conv8/dw"
  param {
    lr_mult: 1
    decay_mult: 0
  }
  param {
    lr_mult: 2
    decay_mult: 0
  }
  scale_param {
    filler {
      value: 1
    }
    bias_term: true
    bias_filler {
      value: 0
    }
  }
}
layer {
  name: "conv8/dw/relu"
  type: "ReLU"
  bottom: "conv8/dw"
  top: "conv8/dw"
}
layer {
  name: "conv8"
  type: "Convolution"
  bottom: "conv8/dw"
  top: "conv8"
  param {
    lr_mult: 1
    decay_mult: 1
  }
  convolution_param {
    num_output: 512
    bias_term: false
    kernel_size: 1
    weight_filler {
      type: "msra"
    }
  }
}
layer {
  name: "conv8/bn"
  type: "BatchNorm"
  bottom: "conv8"
  top: "conv8"
}
layer {
  name: "conv8/scale"
  type: "Scale"
  bottom: "conv8"
  top: "conv8"
  param {
    lr_mult: 1
    decay_mult: 0
  }
  param {
    lr_mult: 2
    decay_mult: 0
  }
  scale_param {
    filler {
      value: 1
    }
    bias_term: true
    bias_filler {
      value: 0
    }
  }
}
layer {
  name: "conv8/relu"
  type: "ReLU"
  bottom: "conv8"
  top: "conv8"
}
layer {
  name: "conv9/dw"
  type: "Convolution"
  bottom: "conv8"
  top: "conv9/dw"
  param {
    lr_mult: 1
    decay_mult: 1
  }
  convolution_param {
    num_output: 512
    bias_term: false
    pad: 1
    kernel_size: 3
    group: 512
    weight_filler {
      type: "msra"
    }
    engine: CAFFE
  }
}
layer {
  name: "conv9/dw/bn"
  type: "BatchNorm"
  bottom: "conv9/dw"
  top: "conv9/dw"
}
layer {
  name: "conv9/dw/scale"
  type: "Scale"
  bottom: "conv9/dw"
  top: "conv9/dw"
  param {
    lr_mult: 1
    decay_mult: 0
  }
  param {
    lr_mult: 2
    decay_mult: 0
  }
  scale_param {
    filler {
      value: 1
    }
    bias_term: true
    bias_filler {
      value: 0
    }
  }
}
layer {
  name: "conv9/dw/relu"
  type: "ReLU"
  bottom: "conv9/dw"
…
I0228 10:24:28.598906 12900 layer_factory.hpp:77] Creating layer conv14_1/scale
I0228 10:24:28.598913 12900 net.cpp:100] Creating Layer conv14_1/scale
I0228 10:24:28.598918 12900 net.cpp:434] conv14_1/scale <- conv14_1
I0228 10:24:28.598924 12900 net.cpp:395] conv14_1/scale -> conv14_1 (in-place)
I0228 10:24:28.598980 12900 layer_factory.hpp:77] Creating layer conv14_1/scale
I0228 10:24:28.599125 12900 net.cpp:150] Setting up conv14_1/scale
I0228 10:24:28.599138 12900 net.cpp:157] Top shape: 8 256 10 10 (204800)
I0228 10:24:28.599141 12900 net.cpp:165] Memory required for data: 1283100704
I0228 10:24:28.599149 12900 layer_factory.hpp:77] Creating layer conv14_1/relu
I0228 10:24:28.599156 12900 net.cpp:100] Creating Layer conv14_1/relu
I0228 10:24:28.599160 12900 net.cpp:434] conv14_1/relu <- conv14_1
I0228 10:24:28.599166 12900 net.cpp:395] conv14_1/relu -> conv14_1 (in-place)
I0228 10:24:28.599761 12900 net.cpp:150] Setting up conv14_1/relu
I0228 10:24:28.599773 12900 net.cpp:157] Top shape: 8 256 10 10 (204800)
I0228 10:24:28.599777 12900 net.cpp:165] Memory required for data: 1283919904
I0228 10:24:28.599782 12900 layer_factory.hpp:77] Creating layer conv14_2
I0228 10:24:28.599792 12900 net.cpp:100] Creating Layer conv14_2
I0228 10:24:28.599797 12900 net.cpp:434] conv14_2 <- conv14_1
I0228 10:24:28.599804 12900 net.cpp:408] conv14_2 -> conv14_2
I0228 10:24:28.616010 12900 net.cpp:150] Setting up conv14_2
I0228 10:24:28.616050 12900 net.cpp:157] Top shape: 8 512 5 5 (102400)
I0228 10:24:28.616055 12900 net.cpp:165] Memory required for data: 1284329504
I0228 10:24:28.616063 12900 layer_factory.hpp:77] Creating layer conv14_2/bn
I0228 10:24:28.616076 12900 net.cpp:100] Creating Layer conv14_2/bn
I0228 10:24:28.616083 12900 net.cpp:434] conv14_2/bn <- conv14_2
I0228 10:24:28.616091 12900 net.cpp:395] conv14_2/bn -> conv14_2 (in-place)
I0228 10:24:28.616457 12900 net.cpp:150] Setting up conv14_2/bn
I0228 10:24:28.616467 12900 net.cpp:157] Top shape: 8 512 5 5 (102400)
I0228 10:24:28.616488 12900 net.cpp:165] Memory required for data: 1284739104
I0228 10:24:28.616497 12900 layer_factory.hpp:77] Creating layer conv14_2/scale
I0228 10:24:28.616505 12900 net.cpp:100] Creating Layer conv14_2/scale
I0228 10:24:28.616510 12900 net.cpp:434] conv14_2/scale <- conv14_2
I0228 10:24:28.616519 12900 net.cpp:395] conv14_2/scale -> conv14_2 (in-place)
I0228 10:24:28.616575 12900 layer_factory.hpp:77] Creating layer conv14_2/scale
I0228 10:24:28.616749 12900 net.cpp:150] Setting up conv14_2/scale
I0228 10:24:28.616757 12900 net.cpp:157] Top shape: 8 512 5 5 (102400)
I0228 10:24:28.616777 12900 net.cpp:165] Memory required for data: 1285148704
I0228 10:24:28.616801 12900 layer_factory.hpp:77] Creating layer conv14_2/relu
I0228 10:24:28.616824 12900 net.cpp:100] Creating Layer conv14_2/relu
I0228 10:24:28.616830 12900 net.cpp:434] conv14_2/relu <- conv14_2
I0228 10:24:28.616837 12900 net.cpp:395] conv14_2/relu -> conv14_2 (in-place)
I0228 10:24:28.617396 12900 net.cpp:150] Setting up conv14_2/relu
I0228 10:24:28.617408 12900 net.cpp:157] Top shape: 8 512 5 5 (102400)
I0228 10:24:28.617429 12900 net.cpp:165] Memory required for data: 1285558304
I0228 10:24:28.617434 12900 layer_factory.hpp:77] Creating layer conv14_2_conv14_2/relu_0_split
I0228 10:24:28.617442 12900 net.cpp:100] Creating Layer conv14_2_conv14_2/relu_0_split
I0228 10:24:28.617447 12900 net.cpp:434] conv14_2_conv14_2/relu_0_split <- conv14_2
I0228 10:24:28.617456 12900 net.cpp:408] conv14_2_conv14_2/relu_0_split -> conv14_2_conv14_2/relu_0_split_0
I0228 10:24:28.617467 12900 net.cpp:408] conv14_2_conv14_2/relu_0_split -> conv14_2_conv14_2/relu_0_split_1
I0228 10:24:28.617489 12900 net.cpp:408] conv14_2_conv14_2/relu_0_split -> conv14_2_conv14_2/relu_0_split_2
I0228 10:24:28.617497 12900 net.cpp:408] conv14_2_conv14_2/relu_0_split -> conv14_2_conv14_2/relu_0_split_3
I0228 10:24:28.617601 12900 net.cpp:150] Setting up conv14_2_conv14_2/relu_0_split
I0228 10:24:28.617611 12900 net.cpp:157] Top shape: 8 512 5 5 (102400)
I0228 10:24:28.617616 12900 net.cpp:157] Top shape: 8 512 5 5 (102400)
I0228 10:24:28.617621 12900 net.cpp:157] Top shape: 8 512 5 5 (102400)
I0228 10:24:28.617626 12900 net.cpp:157] Top shape: 8 512 5 5 (102400)
I0228 10:24:28.617631 12900 net.cpp:165] Memory required for data: 1287196704
I0228 10:24:28.617636 12900 layer_factory.hpp:77] Creating layer conv15_1
I0228 10:24:28.617648 12900 net.cpp:100] Creating Layer conv15_1
I0228 10:24:28.617653 12900 net.cpp:434] conv15_1 <- conv14_2_conv14_2/relu_0_split_0
I0228 10:24:28.617662 12900 net.cpp:408] conv15_1 -> conv15_1
I0228 10:24:28.621527 12900 net.cpp:150] Setting up conv15_1
I0228 10:24:28.621564 12900 net.cpp:157] Top shape: 8 128 5 5 (25600)
I0228 10:24:28.621569 12900 net.cpp:165] Memory required for data: 1287299104
I0228 10:24:28.621578 12900 layer_factory.hpp:77] Creating layer conv15_1/bn
I0228 10:24:28.621587 12900 net.cpp:100] Creating Layer conv15_1/bn
I0228 10:24:28.621593 12900 net.cpp:434] conv15_1/bn <- conv15_1
I0228 10:24:28.621610 12900 net.cpp:395] conv15_1/bn -> conv15_1 (in-place)
I0228 10:24:28.621908 12900 net.cpp:150] Setting up conv15_1/bn
I0228 10:24:28.621918 12900 net.cpp:157] Top shape: 8 128 5 5 (25600)
I0228 10:24:28.621922 12900 net.cpp:165] Memory required for data: 1287401504
I0228 10:24:28.621932 12900 layer_factory.hpp:77] Creating layer conv15_1/scale
I0228 10:24:28.621943 12900 net.cpp:100] Creating Layer conv15_1/scale
I0228 10:24:28.621948 12900 net.cpp:434] conv15_1/scale <- conv15_1
I0228 10:24:28.621954 12900 net.cpp:395] conv15_1/scale -> conv15_1 (in-place)
I0228 10:24:28.622014 12900 layer_factory.hpp:77] Creating layer conv15_1/scale
I0228 10:24:28.622172 12900 net.cpp:150] Setting up conv15_1/scale
I0228 10:24:28.622182 12900 net.cpp:157] Top shape: 8 128 5 5 (25600)
I0228 10:24:28.622186 12900 net.cpp:165] Memory required for data: 1287503904
I0228 10:24:28.622195 12900 layer_factory.hpp:77] Creating layer conv15_1/relu
I0228 10:24:28.622202 12900 net.cpp:100] Creating Layer conv15_1/relu
I0228 10:24:28.622208 12900 net.cpp:434] conv15_1/relu <- conv15_1
I0228 10:24:28.622217 12900 net.cpp:395] conv15_1/relu -> conv15_1 (in-place)
I0228 10:24:28.623432 12900 net.cpp:150] Setting up conv15_1/relu
I0228 10:24:28.623450 12900 net.cpp:157] Top shape: 8 128 5 5 (25600)
I0228 10:24:28.623453 12900 net.cpp:165] Memory required for data: 1287606304
I0228 10:24:28.623458 12900 layer_factory.hpp:77] Creating layer conv15_2
I0228 10:24:28.623487 12900 net.cpp:100] Creating Layer conv15_2
I0228 10:24:28.623495 12900 net.cpp:434] conv15_2 <- conv15_1
I0228 10:24:28.623522 12900 net.cpp:408] conv15_2 -> conv15_2
I0228 10:24:28.630203 12900 net.cpp:150] Setting up conv15_2
I0228 10:24:28.630223 12900 net.cpp:157] Top shape: 8 256 3 3 (18432)
I0228 10:24:28.630228 12900 net.cpp:165] Memory required for data: 1287680032
I0228 10:24:28.630250 12900 layer_factory.hpp:77] Creating layer conv15_2/bn
I0228 10:24:28.630259 12900 net.cpp:100] Creating Layer conv15_2/bn
I0228 10:24:28.630264 12900 net.cpp:434] conv15_2/bn <- conv15_2
I0228 10:24:28.630272 12900 net.cpp:395] conv15_2/bn -> conv15_2 (in-place)
I0228 10:24:28.630578 12900 net.cpp:150] Setting up conv15_2/bn
I0228 10:24:28.630602 12900 net.cpp:157] Top shape: 8 256 3 3 (18432)
I0228 10:24:28.630621 12900 net.cpp:165] Memory required for data: 1287753760
I0228 10:24:28.630630 12900 layer_factory.hpp:77] Creating layer conv15_2/scale
I0228 10:24:28.630638 12900 net.cpp:100] Creating Layer conv15_2/scale
I0228 10:24:28.630643 12900 net.cpp:434] conv15_2/scale <- conv15_2
I0228 10:24:28.630648 12900 net.cpp:395] conv15_2/scale -> conv15_2 (in-place)
I0228 10:24:28.630703 12900 layer_factory.hpp:77] Creating layer conv15_2/scale
I0228 10:24:28.630865 12900 net.cpp:150] Setting up conv15_2/scale
I0228 10:24:28.630875 12900 net.cpp:157] Top shape: 8 256 3 3 (18432)
I0228 10:24:28.630879 12900 net.cpp:165] Memory required for data: 1287827488
I0228 10:24:28.630887 12900 layer_factory.hpp:77] Creating layer conv15_2/relu
I0228 10:24:28.630908 12900 net.cpp:100] Creating Layer conv15_2/relu
I0228 10:24:28.630915 12900 net.cpp:434] conv15_2/relu <- conv15_2
I0228 10:24:28.630921 12900 net.cpp:395] conv15_2/relu -> conv15_2 (in-place)
I0228 10:24:28.631475 12900 net.cpp:150] Setting up conv15_2/relu
I0228 10:24:28.631486 12900 net.cpp:157] Top shape: 8 256 3 3 (18432)
I0228 10:24:28.631506 12900 net.cpp:165] Memory required for data: 1287901216
I0228 10:24:28.631511 12900 layer_factory.hpp:77] Creating layer conv15_2_conv15_2/relu_0_split
I0228 10:24:28.631521 12900 net.cpp:100] Creating Layer conv15_2_conv15_2/relu_0_split
I0228 10:24:28.631526 12900 net.cpp:434] conv15_2_conv15_2/relu_0_split <- conv15_2
I0228 10:24:28.631534 12900 net.cpp:408] conv15_2_conv15_2/relu_0_split -> conv15_2_conv15_2/relu_0_split_0
I0228 10:24:28.631543 12900 net.cpp:408] conv15_2_conv15_2/relu_0_split -> conv15_2_conv15_2/relu_0_split_1
I0228 10:24:28.631551 12900 net.cpp:408] conv15_2_conv15_2/relu_0_split -> conv15_2_conv15_2/relu_0_split_2
I0228 10:24:28.631559 12900 net.cpp:408] conv15_2_conv15_2/relu_0_split -> conv15_2_conv15_2/relu_0_split_3
I0228 10:24:28.631665 12900 net.cpp:150] Setting up conv15_2_conv15_2/relu_0_split
I0228 10:24:28.631676 12900 net.cpp:157] Top shape: 8 256 3 3 (18432)
I0228 10:24:28.631700 12900 net.cpp:157] Top shape: 8 256 3 3 (18432)
I0228 10:24:28.631705 12900 net.cpp:157] Top shape: 8 256 3 3 (18432)
I0228 10:24:28.631709 12900 net.cpp:157] Top shape: 8 256 3 3 (18432)
I0228 10:24:28.631714 12900 net.cpp:165] Memory required for data: 1288196128
I0228 10:24:28.631721 12900 layer_factory.hpp:77] Creating layer conv16_1
I0228 10:24:28.631731 12900 net.cpp:100] Creating Layer conv16_1
I0228 10:24:28.631736 12900 net.cpp:434] conv16_1 <- conv15_2_conv15_2/relu_0_split_0
I0228 10:24:28.631744 12900 net.cpp:408] conv16_1 -> conv16_1
I0228 10:24:28.634573 12900 net.cpp:150] Setting up conv16_1
I0228 10:24:28.634590 12900 net.cpp:157] Top shape: 8 128 3 3 (9216)
I0228 10:24:28.634595 12900 net.cpp:165] Memory required for data: 1288232992
I0228 10:24:28.634603 12900 layer_factory.hpp:77] Creating layer conv16_1/bn
I0228 10:24:28.634613 12900 net.cpp:100] Creating Layer conv16_1/bn
I0228 10:24:28.634618 12900 net.cpp:434] conv16_1/bn <- conv16_1
I0228 10:24:28.634625 12900 net.cpp:395] conv16_1/bn -> conv16_1 (in-place)
I0228 10:24:28.634901 12900 net.cpp:150] Setting up conv16_1/bn
I0228 10:24:28.634912 12900 net.cpp:157] Top shape: 8 128 3 3 (9216)
I0228 10:24:28.634915 12900 net.cpp:165] Memory required for data: 1288269856
I0228 10:24:28.634924 12900 layer_factory.hpp:77] Creating layer conv16_1/scale
I0228 10:24:28.634932 12900 net.cpp:100] Creating Layer conv16_1/scale
I0228 10:24:28.634948 12900 net.cpp:434] conv16_1/scale <- conv16_1
I0228 10:24:28.634956 12900 net.cpp:395] conv16_1/scale -> conv16_1 (in-place)
I0228 10:24:28.635016 12900 layer_factory.hpp:77] Creating layer conv16_1/scale
I0228 10:24:28.635169 12900 net.cpp:150] Setting up conv16_1/scale
I0228 10:24:28.635180 12900 net.cpp:157] Top shape: 8 128 3 3 (9216)
I0228 10:24:28.635185 12900 net.cpp:165] Memory required for data: 1288306720
I0228 10:24:28.635192 12900 layer_factory.hpp:77] Creating layer conv16_1/relu
I0228 10:24:28.635200 12900 net.cpp:100] Creating Layer conv16_1/relu
I0228 10:24:28.635206 12900 net.cpp:434] conv16_1/relu <- conv16_1
I0228 10:24:28.635211 12900 net.cpp:395] conv16_1/relu -> conv16_1 (in-place)
I0228 10:24:28.635754 12900 net.cpp:150] Setting up conv16_1/relu
I0228 10:24:28.635767 12900 net.cpp:157] Top shape: 8 128 3 3 (9216)
I0228 10:24:28.635773 12900 net.cpp:165] Memory required for data: 1288343584
I0228 10:24:28.635777 12900 layer_factory.hpp:77] Creating layer conv16_2
I0228 10:24:28.635788 12900 net.cpp:100] Creating Layer conv16_2
I0228 10:24:28.635794 12900 net.cpp:434] conv16_2 <- conv16_1
I0228 10:24:28.635802 12900 net.cpp:408] conv16_2 -> conv16_2
I0228 10:24:28.642238 12900 net.cpp:150] Setting up conv16_2
I0228 10:24:28.642256 12900 net.cpp:157] Top shape: 8 256 2 2 (8192)
I0228 10:24:28.642261 12900 net.cpp:165] Memory required for data: 1288376352
I0228 10:24:28.642268 12900 layer_factory.hpp:77] Creating layer conv16_2/bn
I0228 10:24:28.642278 12900 net.cpp:100] Creating Layer conv16_2/bn
I0228 10:24:28.642283 12900 net.cpp:434] conv16_2/bn <- conv16_2
I0228 10:24:28.642289 12900 net.cpp:395] conv16_2/bn -> conv16_2 (in-place)
I0228 10:24:28.642568 12900 net.cpp:150] Setting up conv16_2/bn
I0228 10:24:28.642578 12900 net.cpp:157] Top shape: 8 256 2 2 (8192)
I0228 10:24:28.642582 12900 net.cpp:165] Memory required for data: 1288409120
I0228 10:24:28.642590 12900 layer_factory.hpp:77] Creating layer conv16_2/scale
I0228 10:24:28.642601 12900 net.cpp:100] Creating Layer conv16_2/scale
I0228 10:24:28.642606 12900 net.cpp:434] conv16_2/scale <- conv16_2
I0228 10:24:28.642611 12900 net.cpp:395] conv16_2/scale -> conv16_2 (in-place)
I0228 10:24:28.642664 12900 layer_factory.hpp:77] Creating layer conv16_2/scale
I0228 10:24:28.642812 12900 net.cpp:150] Setting up conv16_2/scale
I0228 10:24:28.642820 12900 net.cpp:157] Top shape: 8 256 2 2 (8192)
I0228 10:24:28.642841 12900 net.cpp:165] Memory required for data: 1288441888
I0228 10:24:28.642849 12900 layer_factory.hpp:77] Creating layer conv16_2/relu
I0228 10:24:28.642858 12900 net.cpp:100] Creating Layer conv16_2/relu
I0228 10:24:28.642880 12900 net.cpp:434] conv16_2/relu <- conv16_2
I0228 10:24:28.642886 12900 net.cpp:395] conv16_2/relu -> conv16_2 (in-place)
I0228 10:24:28.643441 12900 net.cpp:150] Setting up conv16_2/relu
I0228 10:24:28.643455 12900 net.cpp:157] Top shape: 8 256 2 2 (8192)
I0228 10:24:28.643473 12900 net.cpp:165] Memory required for data: 1288474656
I0228 10:24:28.643478 12900 layer_factory.hpp:77] Creating layer conv16_2_conv16_2/relu_0_split
I0228 10:24:28.643486 12900 net.cpp:100] Creating Layer conv16_2_conv16_2/relu_0_split
I0228 10:24:28.643491 12900 net.cpp:434] conv16_2_conv16_2/relu_0_split <- conv16_2
I0228 10:24:28.643499 12900 net.cpp:408] conv16_2_conv16_2/relu_0_split -> conv16_2_conv16_2/relu_0_split_0
I0228 10:24:28.643524 12900 net.cpp:408] conv16_2_conv16_2/relu_0_split -> conv16_2_conv16_2/relu_0_split_1
I0228 10:24:28.643532 12900 net.cpp:408] conv16_2_conv16_2/relu_0_split -> conv16_2_conv16_2/relu_0_split_2
I0228 10:24:28.643541 12900 net.cpp:408] conv16_2_conv16_2/relu_0_split -> conv16_2_conv16_2/relu_0_split_3
I0228 10:24:28.643635 12900 net.cpp:150] Setting up conv16_2_conv16_2/relu_0_split
I0228 10:24:28.643643 12900 net.cpp:157] Top shape: 8 256 2 2 (8192)
I0228 10:24:28.643649 12900 net.cpp:157] Top shape: 8 256 2 2 (8192)
I0228 10:24:28.643656 12900 net.cpp:157] Top shape: 8 256 2 2 (8192)
I0228 10:24:28.643661 12900 net.cpp:157] Top shape: 8 256 2 2 (8192)
I0228 10:24:28.643697 12900 net.cpp:165] Memory required for data: 1288605728
I0228 10:24:28.643702 12900 layer_factory.hpp:77] Creating layer conv17_1
I0228 10:24:28.643713 12900 net.cpp:100] Creating Layer conv17_1
I0228 10:24:28.643719 12900 net.cpp:434] conv17_1 <- conv16_2_conv16_2/relu_0_split_0
I0228 10:24:28.643728 12900 net.cpp:408] conv17_1 -> conv17_1
I0228 10:24:28.646355 12900 net.cpp:150] Setting up conv17_1
I0228 10:24:28.646378 12900 net.cpp:157] Top shape: 8 64 2 2 (2048)
I0228 10:24:28.646384 12900 net.cpp:165] Memory required for data: 1288613920
I0228 10:24:28.646389 12900 layer_factory.hpp:77] Creating layer conv17_1/bn
I0228 10:24:28.646396 12900 net.cpp:100] Creating Layer conv17_1/bn
I0228 10:24:28.646402 12900 net.cpp:434] conv17_1/bn <- conv17_1
I0228 10:24:28.646410 12900 net.cpp:395] conv17_1/bn -> conv17_1 (in-place)
I0228 10:24:28.646701 12900 net.cpp:150] Setting up conv17_1/bn
I0228 10:24:28.646710 12900 net.cpp:157] Top shape: 8 64 2 2 (2048)
I0228 10:24:28.646716 12900 net.cpp:165] Memory required for data: 1288622112
I0228 10:24:28.646724 12900 layer_factory.hpp:77] Creating layer conv17_1/scale
I0228 10:24:28.646733 12900 net.cpp:100] Creating Layer conv17_1/scale
I0228 10:24:28.646737 12900 net.cpp:434] conv17_1/scale <- conv17_1
I0228 10:24:28.646744 12900 net.cpp:395] conv17_1/scale -> conv17_1 (in-place)
I0228 10:24:28.646798 12900 layer_factory.hpp:77] Creating layer conv17_1/scale
I0228 10:24:28.646953 12900 net.cpp:150] Setting up conv17_1/scale
I0228 10:24:28.646962 12900 net.cpp:157] Top shape: 8 64 2 2 (2048)
I0228 10:24:28.646966 12900 net.cpp:165] Memory required for data: 1288630304
I0228 10:24:28.646973 12900 layer_factory.hpp:77] Creating layer conv17_1/relu
I0228 10:24:28.646981 12900 net.cpp:100] Creating Layer conv17_1/relu
I0228 10:24:28.646986 12900 net.cpp:434] conv17_1/relu <- conv17_1
I0228 10:24:28.646993 12900 net.cpp:395] conv17_1/relu -> conv17_1 (in-place)
I0228 10:24:28.648123 12900 net.cpp:150] Setting up conv17_1/relu
I0228 10:24:28.648138 12900 net.cpp:157] Top shape: 8 64 2 2 (2048)
I0228 10:24:28.648156 12900 net.cpp:165] Memory required for data: 1288638496
I0228 10:24:28.648164 12900 layer_factory.hpp:77] Creating layer conv17_2
I0228 10:24:28.648175 12900 net.cpp:100] Creating Layer conv17_2
I0228 10:24:28.648180 12900 net.cpp:434] conv17_2 <- conv17_1
I0228 10:24:28.648188 12900 net.cpp:408] conv17_2 -> conv17_2
I0228 10:24:28.651407 12900 net.cpp:150] Setting up conv17_2
I0228 10:24:28.651422 12900 net.cpp:157] Top shape: 8 128 1 1 (1024)
I0228 10:24:28.651427 12900 net.cpp:165] Memory required for data: 1288642592
I0228 10:24:28.651433 12900 layer_factory.hpp:77] Creating layer conv17_2/bn
I0228 10:24:28.651441 12900 net.cpp:100] Creating Layer conv17_2/bn
I0228 10:24:28.651446 12900 net.cpp:434] conv17_2/bn <- conv17_2
I0228 10:24:28.651454 12900 net.cpp:395] conv17_2/bn -> conv17_2 (in-place)
I0228 10:24:28.651736 12900 net.cpp:150] Setting up conv17_2/bn
I0228 10:24:28.651746 12900 net.cpp:157] Top shape: 8 128 1 1 (1024)
I0228 10:24:28.651751 12900 net.cpp:165] Memory required for data: 1288646688
I0228 10:24:28.651759 12900 layer_factory.hpp:77] Creating layer conv17_2/scale
I0228 10:24:28.651767 12900 net.cpp:100] Creating Layer conv17_2/scale
I0228 10:24:28.651772 12900 net.cpp:434] conv17_2/scale <- conv17_2
I0228 10:24:28.651779 12900 net.cpp:395] conv17_2/scale -> conv17_2 (in-place)
I0228 10:24:28.651835 12900 layer_factory.hpp:77] Creating layer conv17_2/scale
I0228 10:24:28.651983 12900 net.cpp:150] Setting up conv17_2/scale
I0228 10:24:28.651993 12900 net.cpp:157] Top shape: 8 128 1 1 (1024)
I0228 10:24:28.651998 12900 net.cpp:165] Memory required for data: 1288650784
I0228 10:24:28.652004 12900 layer_factory.hpp:77] Creating layer conv17_2/relu
I0228 10:24:28.652011 12900 net.cpp:100] Creating Layer conv17_2/relu
I0228 10:24:28.652016 12900 net.cpp:434] conv17_2/relu <- conv17_2
I0228 10:24:28.652024 12900 net.cpp:395] conv17_2/relu -> conv17_2 (in-place)
I0228 10:24:28.652601 12900 net.cpp:150] Setting up conv17_2/relu
I0228 10:24:28.652626 12900 net.cpp:157] Top shape: 8 128 1 1 (1024)
I0228 10:24:28.652643 12900 net.cpp:165] Memory required for data: 1288654880
I0228 10:24:28.652648 12900 layer_factory.hpp:77] Creating layer conv17_2_conv17_2/relu_0_split
I0228 10:24:28.652657 12900 net.cpp:100] Creating Layer conv17_2_conv17_2/relu_0_split
I0228 10:24:28.652662 12900 net.cpp:434] conv17_2_conv17_2/relu_0_split <- conv17_2
I0228 10:24:28.652670 12900 net.cpp:408] conv17_2_conv17_2/relu_0_split -> conv17_2_conv17_2/relu_0_split_0
I0228 10:24:28.652716 12900 net.cpp:408] conv17_2_conv17_2/relu_0_split -> conv17_2_conv17_2/relu_0_split_1
I0228 10:24:28.652725 12900 net.cpp:408] conv17_2_conv17_2/relu_0_split -> conv17_2_conv17_2/relu_0_split_2
I0228 10:24:28.652799 12900 net.cpp:150] Setting up conv17_2_conv17_2/relu_0_split
I0228 10:24:28.652809 12900 net.cpp:157] Top shape: 8 128 1 1 (1024)
I0228 10:24:28.652814 12900 net.cpp:157] Top shape: 8 128 1 1 (1024)
I0228 10:24:28.652819 12900 net.cpp:157] Top shape: 8 128 1 1 (1024)
I0228 10:24:28.652823 12900 net.cpp:165] Memory required for data: 1288667168
I0228 10:24:28.652829 12900 layer_factory.hpp:77] Creating layer conv11_mbox_loc
I0228 10:24:28.652839 12900 net.cpp:100] Creating Layer conv11_mbox_loc
I0228 10:24:28.652844 12900 net.cpp:434] conv11_mbox_loc <- conv11_conv11/relu_0_split_1
I0228 10:24:28.652854 12900 net.cpp:408] conv11_mbox_loc -> conv11_mbox_loc
I0228 10:24:28.655450 12900 net.cpp:150] Setting up conv11_mbox_loc
I0228 10:24:28.655481 12900 net.cpp:157] Top shape: 8 12 19 19 (34656)
I0228 10:24:28.655486 12900 net.cpp:165] Memory required for data: 1288805792
I0228 10:24:28.655495 12900 layer_factory.hpp:77] Creating layer conv11_mbox_loc_perm
I0228 10:24:28.655505 12900 net.cpp:100] Creating Layer conv11_mbox_loc_perm
I0228 10:24:28.655517 12900 net.cpp:434] conv11_mbox_loc_perm <- conv11_mbox_loc
I0228 10:24:28.655524 12900 net.cpp:408] conv11_mbox_loc_perm -> conv11_mbox_loc_perm
I0228 10:24:28.655671 12900 net.cpp:150] Setting up conv11_mbox_loc_perm
I0228 10:24:28.655681 12900 net.cpp:157] Top shape: 8 19 19 12 (34656)
I0228 10:24:28.655686 12900 net.cpp:165] Memory required for data: 1288944416
I0228 10:24:28.655690 12900 layer_factory.hpp:77] Creating layer conv11_mbox_loc_flat
I0228 10:24:28.655699 12900 net.cpp:100] Creating Layer conv11_mbox_loc_flat
I0228 10:24:28.655705 12900 net.cpp:434] conv11_mbox_loc_flat <- conv11_mbox_loc_perm
I0228 10:24:28.655712 12900 net.cpp:408] conv11_mbox_loc_flat -> conv11_mbox_loc_flat
I0228 10:24:28.655747 12900 net.cpp:150] Setting up conv11_mbox_loc_flat
I0228 10:24:28.655755 12900 net.cpp:157] Top shape: 8 4332 (34656)
I0228 10:24:28.655761 12900 net.cpp:165] Memory required for data: 1289083040
I0228 10:24:28.655766 12900 layer_factory.hpp:77] Creating layer conv11_mbox_conf_new
I0228 10:24:28.655777 12900 net.cpp:100] Creating Layer conv11_mbox_conf_new
I0228 10:24:28.655782 12900 net.cpp:434] conv11_mbox_conf_new <- conv11_conv11/relu_0_split_2
I0228 10:24:28.655791 12900 net.cpp:408] conv11_mbox_conf_new -> conv11_mbox_conf
I0228 10:24:28.658455 12900 net.cpp:150] Setting up conv11_mbox_conf_new
I0228 10:24:28.658471 12900 net.cpp:157] Top shape: 8 12 19 19 (34656)
I0228 10:24:28.658476 12900 net.cpp:165] Memory required for data: 1289221664
I0228 10:24:28.658485 12900 layer_factory.hpp:77] Creating layer conv11_mbox_conf_perm
I0228 10:24:28.658496 12900 net.cpp:100] Creating Layer conv11_mbox_conf_perm
I0228 10:24:28.658501 12900 net.cpp:434] conv11_mbox_conf_perm <- conv11_mbox_conf
I0228 10:24:28.658509 12900 net.cpp:408] conv11_mbox_conf_perm -> conv11_mbox_conf_perm
I0228 10:24:28.658665 12900 net.cpp:150] Setting up conv11_mbox_conf_perm
I0228 10:24:28.658674 12900 net.cpp:157] Top shape: 8 19 19 12 (34656)
I0228 10:24:28.658679 12900 net.cpp:165] Memory required for data: 1289360288
I0228 10:24:28.658684 12900 layer_factory.hpp:77] Creating layer conv11_mbox_conf_flat
I0228 10:24:28.658691 12900 net.cpp:100] Creating Layer conv11_mbox_conf_flat
I0228 10:24:28.658695 12900 net.cpp:434] conv11_mbox_conf_flat <- conv11_mbox_conf_perm
I0228 10:24:28.658715 12900 net.cpp:408] conv11_mbox_conf_flat -> conv11_mbox_conf_flat
I0228 10:24:28.658752 12900 net.cpp:150] Setting up conv11_mbox_conf_flat
I0228 10:24:28.658761 12900 net.cpp:157] Top shape: 8 4332 (34656)
I0228 10:24:28.658766 12900 net.cpp:165] Memory required for data: 1289498912
I0228 10:24:28.658771 12900 layer_factory.hpp:77] Creating layer conv11_mbox_priorbox
I0228 10:24:28.658782 12900 net.cpp:100] Creating Layer conv11_mbox_priorbox
I0228 10:24:28.658787 12900 net.cpp:434] conv11_mbox_priorbox <- conv11_conv11/relu_0_split_3
I0228 10:24:28.658793 12900 net.cpp:434] conv11_mbox_priorbox <- data_data_0_split_1
I0228 10:24:28.658800 12900 net.cpp:408] conv11_mbox_priorbox -> conv11_mbox_priorbox
I0228 10:24:28.658838 12900 net.cpp:150] Setting up conv11_mbox_priorbox
I0228 10:24:28.658848 12900 net.cpp:157] Top shape: 1 2 4332 (8664)
I0228 10:24:28.658851 12900 net.cpp:165] Memory required for data: 1289533568
I0228 10:24:28.658855 12900 layer_factory.hpp:77] Creating layer conv13_mbox_loc
I0228 10:24:28.658866 12900 net.cpp:100] Creating Layer conv13_mbox_loc
I0228 10:24:28.658872 12900 net.cpp:434] conv13_mbox_loc <- conv13_conv13/relu_0_split_1
I0228 10:24:28.658880 12900 net.cpp:408] conv13_mbox_loc -> conv13_mbox_loc
I0228 10:24:28.662463 12900 net.cpp:150] Setting up conv13_mbox_loc
I0228 10:24:28.662479 12900 net.cpp:157] Top shape: 8 24 10 10 (19200)
I0228 10:24:28.662485 12900 net.cpp:165] Memory required for data: 1289610368
I0228 10:24:28.662492 12900 layer_factory.hpp:77] Creating layer conv13_mbox_loc_perm
I0228 10:24:28.662502 12900 net.cpp:100] Creating Layer conv13_mbox_loc_perm
I0228 10:24:28.662506 12900 net.cpp:434] conv13_mbox_loc_perm <- conv13_mbox_loc
I0228 10:24:28.662516 12900 net.cpp:408] conv13_mbox_loc_perm -> conv13_mbox_loc_perm
I0228 10:24:28.662681 12900 net.cpp:150] Setting up conv13_mbox_loc_perm
I0228 10:24:28.662691 12900 net.cpp:157] Top shape: 8 10 10 24 (19200)
I0228 10:24:28.662695 12900 net.cpp:165] Memory required for data: 1289687168
I0228 10:24:28.662701 12900 layer_factory.hpp:77] Creating layer conv13_mbox_loc_flat
I0228 10:24:28.662710 12900 net.cpp:100] Creating Layer conv13_mbox_loc_flat
I0228 10:24:28.662715 12900 net.cpp:434] conv13_mbox_loc_flat <- conv13_mbox_loc_perm
I0228 10:24:28.662721 12900 net.cpp:408] conv13_mbox_loc_flat -> conv13_mbox_loc_flat
I0228 10:24:28.662755 12900 net.cpp:150] Setting up conv13_mbox_loc_flat
I0228 10:24:28.662762 12900 net.cpp:157] Top shape: 8 2400 (19200)
I0228 10:24:28.662766 12900 net.cpp:165] Memory required for data: 1289763968
I0228 10:24:28.662770 12900 layer_factory.hpp:77] Creating layer conv13_mbox_conf_new
I0228 10:24:28.662783 12900 net.cpp:100] Creating Layer conv13_mbox_conf_new
I0228 10:24:28.662788 12900 net.cpp:434] conv13_mbox_conf_new <- conv13_conv13/relu_0_split_2
I0228 10:24:28.662796 12900 net.cpp:408] conv13_mbox_conf_new -> conv13_mbox_conf
I0228 10:24:28.665654 12900 net.cpp:150] Setting up conv13_mbox_conf_new
I0228 10:24:28.665671 12900 net.cpp:157] Top shape: 8 24 10 10 (19200)
I0228 10:24:28.665675 12900 net.cpp:165] Memory required for data: 1289840768
I0228 10:24:28.665683 12900 layer_factory.hpp:77] Creating layer conv13_mbox_conf_perm
I0228 10:24:28.665693 12900 net.cpp:100] Creating Layer conv13_mbox_conf_perm
I0228 10:24:28.665700 12900 net.cpp:434] conv13_mbox_conf_perm <- conv13_mbox_conf
I0228 10:24:28.665707 12900 net.cpp:408] conv13_mbox_conf_perm -> conv13_mbox_conf_perm
I0228 10:24:28.665866 12900 net.cpp:150] Setting up conv13_mbox_conf_perm
I0228 10:24:28.665875 12900 net.cpp:157] Top shape: 8 10 10 24 (19200)
I0228 10:24:28.665880 12900 net.cpp:165] Memory required for data: 1289917568
I0228 10:24:28.665884 12900 layer_factory.hpp:77] Creating layer conv13_mbox_conf_flat
I0228 10:24:28.665894 12900 net.cpp:100] Creating Layer conv13_mbox_conf_flat
I0228 10:24:28.665899 12900 net.cpp:434] conv13_mbox_conf_flat <- conv13_mbox_conf_perm
I0228 10:24:28.665906 12900 net.cpp:408] conv13_mbox_conf_flat -> conv13_mbox_conf_flat
I0228 10:24:28.665953 12900 net.cpp:150] Setting up conv13_mbox_conf_flat
I0228 10:24:28.665962 12900 net.cpp:157] Top shape: 8 2400 (19200)
I0228 10:24:28.665966 12900 net.cpp:165] Memory required for data: 1289994368
I0228 10:24:28.665971 12900 layer_factory.hpp:77] Creating layer conv13_mbox_priorbox
I0228 10:24:28.665982 12900 net.cpp:100] Creating Layer conv13_mbox_priorbox
I0228 10:24:28.665987 12900 net.cpp:434] conv13_mbox_priorbox <- conv13_conv13/relu_0_split_3
I0228 10:24:28.665993 12900 net.cpp:434] conv13_mbox_priorbox <- data_data_0_split_2
I0228 10:24:28.666000 12900 net.cpp:408] conv13_mbox_priorbox -> conv13_mbox_priorbox
I0228 10:24:28.666038 12900 net.cpp:150] Setting up conv13_mbox_priorbox
I0228 10:24:28.666046 12900 net.cpp:157] Top shape: 1 2 2400 (4800)
I0228 10:24:28.666050 12900 net.cpp:165] Memory required for data: 1290013568
I0228 10:24:28.666056 12900 layer_factory.hpp:77] Creating layer conv14_2_mbox_loc
I0228 10:24:28.666067 12900 net.cpp:100] Creating Layer conv14_2_mbox_loc
I0228 10:24:28.666072 12900 net.cpp:434] conv14_2_mbox_loc <- conv14_2_conv14_2/relu_0_split_1
I0228 10:24:28.666081 12900 net.cpp:408] conv14_2_mbox_loc -> conv14_2_mbox_loc
I0228 10:24:28.668764 12900 net.cpp:150] Setting up conv14_2_mbox_loc
I0228 10:24:28.668781 12900 net.cpp:157] Top shape: 8 24 5 5 (4800)
I0228 10:24:28.668800 12900 net.cpp:165] Memory required for data: 1290032768
I0228 10:24:28.668809 12900 layer_factory.hpp:77] Creating layer conv14_2_mbox_loc_perm
I0228 10:24:28.668835 12900 net.cpp:100] Creating Layer conv14_2_mbox_loc_perm
I0228 10:24:28.668841 12900 net.cpp:434] conv14_2_mbox_loc_perm <- conv14_2_mbox_loc
I0228 10:24:28.668849 12900 net.cpp:408] conv14_2_mbox_loc_perm -> conv14_2_mbox_loc_perm
I0228 10:24:28.668992 12900 net.cpp:150] Setting up conv14_2_mbox_loc_perm
I0228 10:24:28.669003 12900 net.cpp:157] Top shape: 8 5 5 24 (4800)
I0228 10:24:28.669008 12900 net.cpp:165] Memory required for data: 1290051968
I0228 10:24:28.669011 12900 layer_factory.hpp:77] Creating layer conv14_2_mbox_loc_flat
I0228 10:24:28.669018 12900 net.cpp:100] Creating Layer conv14_2_mbox_loc_flat
I0228 10:24:28.669024 12900 net.cpp:434] conv14_2_mbox_loc_flat <- conv14_2_mbox_loc_perm
I0228 10:24:28.669030 12900 net.cpp:408] conv14_2_mbox_loc_flat -> conv14_2_mbox_loc_flat
I0228 10:24:28.669080 12900 net.cpp:150] Setting up conv14_2_mbox_loc_flat
I0228 10:24:28.669103 12900 net.cpp:157] Top shape: 8 600 (4800)
I0228 10:24:28.669109 12900 net.cpp:165] Memory required for data: 1290071168
I0228 10:24:28.669113 12900 layer_factory.hpp:77] Creating layer conv14_2_mbox_conf_new
I0228 10:24:28.669124 12900 net.cpp:100] Creating Layer conv14_2_mbox_conf_new
I0228 10:24:28.669131 12900 net.cpp:434] conv14_2_mbox_conf_new <- conv14_2_conv14_2/relu_0_split_2
I0228 10:24:28.669142 12900 net.cpp:408] conv14_2_mbox_conf_new -> conv14_2_mbox_conf
I0228 10:24:28.671844 12900 net.cpp:150] Setting up conv14_2_mbox_conf_new
I0228 10:24:28.671861 12900 net.cpp:157] Top shape: 8 24 5 5 (4800)
I0228 10:24:28.671865 12900 net.cpp:165] Memory required for data: 1290090368
I0228 10:24:28.671875 12900 layer_factory.hpp:77] Creating layer conv14_2_mbox_conf_perm
I0228 10:24:28.671885 12900 net.cpp:100] Creating Layer conv14_2_mbox_conf_perm
I0228 10:24:28.671890 12900 net.cpp:434] conv14_2_mbox_conf_perm <- conv14_2_mbox_conf
I0228 10:24:28.671910 12900 net.cpp:408] conv14_2_mbox_conf_perm -> conv14_2_mbox_conf_perm
I0228 10:24:28.672057 12900 net.cpp:150] Setting up conv14_2_mbox_conf_perm
I0228 10:24:28.672068 12900 net.cpp:157] Top shape: 8 5 5 24 (4800)
I0228 10:24:28.672073 12900 net.cpp:165] Memory required for data: 1290109568
I0228 10:24:28.672077 12900 layer_factory.hpp:77] Creating layer conv14_2_mbox_conf_flat
I0228 10:24:28.672086 12900 net.cpp:100] Creating Layer conv14_2_mbox_conf_flat
I0228 10:24:28.672091 12900 net.cpp:434] conv14_2_mbox_conf_flat <- conv14_2_mbox_conf_perm
I0228 10:24:28.672099 12900 net.cpp:408] conv14_2_mbox_conf_flat -> conv14_2_mbox_conf_flat
I0228 10:24:28.672132 12900 net.cpp:150] Setting up conv14_2_mbox_conf_flat
I0228 10:24:28.672154 12900 net.cpp:157] Top shape: 8 600 (4800)
I0228 10:24:28.672159 12900 net.cpp:165] Memory required for data: 1290128768
I0228 10:24:28.672164 12900 layer_factory.hpp:77] Creating layer conv14_2_mbox_priorbox
I0228 10:24:28.672173 12900 net.cpp:100] Creating Layer conv14_2_mbox_priorbox
I0228 10:24:28.672178 12900 net.cpp:434] conv14_2_mbox_priorbox <- conv14_2_conv14_2/relu_0_split_3
I0228 10:24:28.672184 12900 net.cpp:434] conv14_2_mbox_priorbox <- data_data_0_split_3
I0228 10:24:28.672194 12900 net.cpp:408] conv14_2_mbox_priorbox -> conv14_2_mbox_priorbox
I0228 10:24:28.672231 12900 net.cpp:150] Setting up conv14_2_mbox_priorbox
I0228 10:24:28.672242 12900 net.cpp:157] Top shape: 1 2 600 (1200)
I0228 10:24:28.672247 12900 net.cpp:165] Memory required for data: 1290133568
I0228 10:24:28.672251 12900 layer_factory.hpp:77] Creating layer conv15_2_mbox_loc
I0228 10:24:28.672264 12900 net.cpp:100] Creating Layer conv15_2_mbox_loc
I0228 10:24:28.672271 12900 net.cpp:434] conv15_2_mbox_loc <- conv15_2_conv15_2/relu_0_split_1
I0228 10:24:28.672277 12900 net.cpp:408] conv15_2_mbox_loc -> conv15_2_mbox_loc
I0228 10:24:28.674980 12900 net.cpp:150] Setting up conv15_2_mbox_loc
I0228 10:24:28.674996 12900 net.cpp:157] Top shape: 8 24 3 3 (1728)
I0228 10:24:28.675001 12900 net.cpp:165] Memory required for data: 1290140480
I0228 10:24:28.675009 12900 layer_factory.hpp:77] Creating layer conv15_2_mbox_loc_perm
I0228 10:24:28.675034 12900 net.cpp:100] Creating Layer conv15_2_mbox_loc_perm
I0228 10:24:28.675043 12900 net.cpp:434] conv15_2_mbox_loc_perm <- conv15_2_mbox_loc
I0228 10:24:28.675052 12900 net.cpp:408] conv15_2_mbox_loc_perm -> conv15_2_mbox_loc_perm
I0228 10:24:28.675199 12900 net.cpp:150] Setting up conv15_2_mbox_loc_perm
I0228 10:24:28.675209 12900 net.cpp:157] Top shape: 8 3 3 24 (1728)
I0228 10:24:28.675212 12900 net.cpp:165] Memory required for data: 1290147392
I0228 10:24:28.675217 12900 layer_factory.hpp:77] Creating layer conv15_2_mbox_loc_flat
I0228 10:24:28.675225 12900 net.cpp:100] Creating Layer conv15_2_mbox_loc_flat
I0228 10:24:28.675230 12900 net.cpp:434] conv15_2_mbox_loc_flat <- conv15_2_mbox_loc_perm
I0228 10:24:28.675237 12900 net.cpp:408] conv15_2_mbox_loc_flat -> conv15_2_mbox_loc_flat
I0228 10:24:28.675272 12900 net.cpp:150] Setting up conv15_2_mbox_loc_flat
I0228 10:24:28.675282 12900 net.cpp:157] Top shape: 8 216 (1728)
I0228 10:24:28.675285 12900 net.cpp:165] Memory required for data: 1290154304
I0228 10:24:28.675289 12900 layer_factory.hpp:77] Creating layer conv15_2_mbox_conf_new
I0228 10:24:28.675302 12900 net.cpp:100] Creating Layer conv15_2_mbox_conf_new
I0228 10:24:28.675307 12900 net.cpp:434] conv15_2_mbox_conf_new <- conv15_2_conv15_2/relu_0_split_2
I0228 10:24:28.675315 12900 net.cpp:408] conv15_2_mbox_conf_new -> conv15_2_mbox_conf
I0228 10:24:28.677963 12900 net.cpp:150] Setting up conv15_2_mbox_conf_new
I0228 10:24:28.677978 12900 net.cpp:157] Top shape: 8 24 3 3 (1728)
I0228 10:24:28.677983 12900 net.cpp:165] Memory required for data: 1290161216
I0228 10:24:28.677990 12900 layer_factory.hpp:77] Creating layer conv15_2_mbox_conf_perm
I0228 10:24:28.677999 12900 net.cpp:100] Creating Layer conv15_2_mbox_conf_perm
I0228 10:24:28.678006 12900 net.cpp:434] conv15_2_mbox_conf_perm <- conv15_2_mbox_conf
I0228 10:24:28.678012 12900 net.cpp:408] conv15_2_mbox_conf_perm -> conv15_2_mbox_conf_perm
I0228 10:24:28.678172 12900 net.cpp:150] Setting up conv15_2_mbox_conf_perm
I0228 10:24:28.678181 12900 net.cpp:157] Top shape: 8 3 3 24 (1728)
I0228 10:24:28.678186 12900 net.cpp:165] Memory required for data: 1290168128
I0228 10:24:28.678191 12900 layer_factory.hpp:77] Creating layer conv15_2_mbox_conf_flat
I0228 10:24:28.678198 12900 net.cpp:100] Creating Layer conv15_2_mbox_conf_flat
I0228 10:24:28.678202 12900 net.cpp:434] conv15_2_mbox_conf_flat <- conv15_2_mbox_conf_perm
I0228 10:24:28.678212 12900 net.cpp:408] conv15_2_mbox_conf_flat -> conv15_2_mbox_conf_flat
I0228 10:24:28.678246 12900 net.cpp:150] Setting up conv15_2_mbox_conf_flat
I0228 10:24:28.678253 12900 net.cpp:157] Top shape: 8 216 (1728)
I0228 10:24:28.678268 12900 net.cpp:165] Memory required for data: 1290175040
I0228 10:24:28.678274 12900 layer_factory.hpp:77] Creating layer conv15_2_mbox_priorbox
I0228 10:24:28.678283 12900 net.cpp:100] Creating Layer conv15_2_mbox_priorbox
I0228 10:24:28.678288 12900 net.cpp:434] conv15_2_mbox_priorbox <- conv15_2_conv15_2/relu_0_split_3
I0228 10:24:28.678294 12900 net.cpp:434] conv15_2_mbox_priorbox <- data_data_0_split_4
I0228 10:24:28.678304 12900 net.cpp:408] conv15_2_mbox_priorbox -> conv15_2_mbox_priorbox
I0228 10:24:28.678342 12900 net.cpp:150] Setting up conv15_2_mbox_priorbox
I0228 10:24:28.678351 12900 net.cpp:157] Top shape: 1 2 216 (432)
I0228 10:24:28.678355 12900 net.cpp:165] Memory required for data: 1290176768
I0228 10:24:28.678360 12900 layer_factory.hpp:77] Creating layer conv16_2_mbox_loc
I0228 10:24:28.678371 12900 net.cpp:100] Creating Layer conv16_2_mbox_loc
I0228 10:24:28.678377 12900 net.cpp:434] conv16_2_mbox_loc <- conv16_2_conv16_2/relu_0_split_1
I0228 10:24:28.678385 12900 net.cpp:408] conv16_2_mbox_loc -> conv16_2_mbox_loc
I0228 10:24:28.681107 12900 net.cpp:150] Setting up conv16_2_mbox_loc
I0228 10:24:28.681123 12900 net.cpp:157] Top shape: 8 24 2 2 (768)
I0228 10:24:28.681143 12900 net.cpp:165] Memory required for data: 1290179840
I0228 10:24:28.681162 12900 layer_factory.hpp:77] Creating layer conv16_2_mbox_loc_perm
I0228 10:24:28.681174 12900 net.cpp:100] Creating Layer conv16_2_mbox_loc_perm
I0228 10:24:28.681179 12900 net.cpp:434] conv16_2_mbox_loc_perm <- conv16_2_mbox_loc
I0228 10:24:28.681186 12900 net.cpp:408] conv16_2_mbox_loc_perm -> conv16_2_mbox_loc_perm
I0228 10:24:28.681360 12900 net.cpp:150] Setting up conv16_2_mbox_loc_perm
I0228 10:24:28.681390 12900 net.cpp:157] Top shape: 8 2 2 24 (768)
I0228 10:24:28.681394 12900 net.cpp:165] Memory required for data: 1290182912
I0228 10:24:28.681401 12900 layer_factory.hpp:77] Creating layer conv16_2_mbox_loc_flat
I0228 10:24:28.681409 12900 net.cpp:100] Creating Layer conv16_2_mbox_loc_flat
I0228 10:24:28.681416 12900 net.cpp:434] conv16_2_mbox_loc_flat <- conv16_2_mbox_loc_perm
I0228 10:24:28.681422 12900 net.cpp:408] conv16_2_mbox_loc_flat -> conv16_2_mbox_loc_flat
I0228 10:24:28.681460 12900 net.cpp:150] Setting up conv16_2_mbox_loc_flat
I0228 10:24:28.681470 12900 net.cpp:157] Top shape: 8 96 (768)
I0228 10:24:28.681476 12900 net.cpp:165] Memory required for data: 1290185984
I0228 10:24:28.681480 12900 layer_factory.hpp:77] Creating layer conv16_2_mbox_conf_new
I0228 10:24:28.681493 12900 net.cpp:100] Creating Layer conv16_2_mbox_conf_new
I0228 10:24:28.681497 12900 net.cpp:434] conv16_2_mbox_conf_new <- conv16_2_conv16_2/relu_0_split_2
I0228 10:24:28.681509 12900 net.cpp:408] conv16_2_mbox_conf_new -> conv16_2_mbox_conf
I0228 10:24:28.684392 12900 net.cpp:150] Setting up conv16_2_mbox_conf_new
I0228 10:24:28.684408 12900 net.cpp:157] Top shape: 8 24 2 2 (768)
I0228 10:24:28.684428 12900 net.cpp:165] Memory required for data: 1290189056
I0228 10:24:28.684442 12900 layer_factory.hpp:77] Creating layer conv16_2_mbox_conf_perm
I0228 10:24:28.684453 12900 net.cpp:100] Creating Layer conv16_2_mbox_conf_perm
I0228 10:24:28.684458 12900 net.cpp:434] conv16_2_mbox_conf_perm <- conv16_2_mbox_conf
I0228 10:24:28.684466 12900 net.cpp:408] conv16_2_mbox_conf_perm -> conv16_2_mbox_conf_perm
I0228 10:24:28.684614 12900 net.cpp:150] Setting up conv16_2_mbox_conf_perm
I0228 10:24:28.684623 12900 net.cpp:157] Top shape: 8 2 2 24 (768)
I0228 10:24:28.684628 12900 net.cpp:165] Memory required for data: 1290192128
I0228 10:24:28.684631 12900 layer_factory.hpp:77] Creating layer conv16_2_mbox_conf_flat
I0228 10:24:28.684641 12900 net.cpp:100] Creating Layer conv16_2_mbox_conf_flat
I0228 10:24:28.684646 12900 net.cpp:434] conv16_2_mbox_conf_flat <- conv16_2_mbox_conf_perm
I0228 10:24:28.684653 12900 net.cpp:408] conv16_2_mbox_conf_flat -> conv16_2_mbox_conf_flat
I0228 10:24:28.684689 12900 net.cpp:150] Setting up conv16_2_mbox_conf_flat
I0228 10:24:28.684697 12900 net.cpp:157] Top shape: 8 96 (768)
I0228 10:24:28.684701 12900 net.cpp:165] Memory required for data: 1290195200
I0228 10:24:28.684716 12900 layer_factory.hpp:77] Creating layer conv16_2_mbox_priorbox
I0228 10:24:28.684726 12900 net.cpp:100] Creating Layer conv16_2_mbox_priorbox
I0228 10:24:28.684733 12900 net.cpp:434] conv16_2_mbox_priorbox <- conv16_2_conv16_2/relu_0_split_3
I0228 10:24:28.684741 12900 net.cpp:434] conv16_2_mbox_priorbox <- data_data_0_split_5
I0228 10:24:28.684747 12900 net.cpp:408] conv16_2_mbox_priorbox -> conv16_2_mbox_priorbox
I0228 10:24:28.684787 12900 net.cpp:150] Setting up conv16_2_mbox_priorbox
I0228 10:24:28.684797 12900 net.cpp:157] Top shape: 1 2 96 (192)
I0228 10:24:28.684800 12900 net.cpp:165] Memory required for data: 1290195968
I0228 10:24:28.684804 12900 layer_factory.hpp:77] Creating layer conv17_2_mbox_loc
I0228 10:24:28.684816 12900 net.cpp:100] Creating Layer conv17_2_mbox_loc
I0228 10:24:28.684826 12900 net.cpp:434] conv17_2_mbox_loc <- conv17_2_conv17_2/relu_0_split_0
I0228 10:24:28.684834 12900 net.cpp:408] conv17_2_mbox_loc -> conv17_2_mbox_loc
I0228 10:24:28.687640 12900 net.cpp:150] Setting up conv17_2_mbox_loc
I0228 10:24:28.687656 12900 net.cpp:157] Top shape: 8 24 1 1 (192)
I0228 10:24:28.687661 12900 net.cpp:165] Memory required for data: 1290196736
I0228 10:24:28.687669 12900 layer_factory.hpp:77] Creating layer conv17_2_mbox_loc_perm
I0228 10:24:28.687680 12900 net.cpp:100] Creating Layer conv17_2_mbox_loc_perm
I0228 10:24:28.687685 12900 net.cpp:434] conv17_2_mbox_loc_perm <- conv17_2_mbox_loc
I0228 10:24:28.687695 12900 net.cpp:408] conv17_2_mbox_loc_perm -> conv17_2_mbox_loc_perm
I0228 10:24:28.687878 12900 net.cpp:150] Setting up conv17_2_mbox_loc_perm
I0228 10:24:28.687888 12900 net.cpp:157] Top shape: 8 1 1 24 (192)
I0228 10:24:28.687892 12900 net.cpp:165] Memory required for data: 1290197504
I0228 10:24:28.687898 12900 layer_factory.hpp:77] Creating layer conv17_2_mbox_loc_flat
I0228 10:24:28.687906 12900 net.cpp:100] Creating Layer conv17_2_mbox_loc_flat
I0228 10:24:28.687911 12900 net.cpp:434] conv17_2_mbox_loc_flat <- conv17_2_mbox_loc_perm
I0228 10:24:28.687921 12900 net.cpp:408] conv17_2_mbox_loc_flat -> conv17_2_mbox_loc_flat
I0228 10:24:28.687955 12900 net.cpp:150] Setting up conv17_2_mbox_loc_flat
I0228 10:24:28.687963 12900 net.cpp:157] Top shape: 8 24 (192)
I0228 10:24:28.687968 12900 net.cpp:165] Memory required for data: 1290198272
I0228 10:24:28.687973 12900 layer_factory.hpp:77] Creating layer conv17_2_mbox_conf_new
I0228 10:24:28.687986 12900 net.cpp:100] Creating Layer conv17_2_mbox_conf_new
I0228 10:24:28.687991 12900 net.cpp:434] conv17_2_mbox_conf_new <- conv17_2_conv17_2/relu_0_split_1
I0228 10:24:28.687999 12900 net.cpp:408] conv17_2_mbox_conf_new -> conv17_2_mbox_conf
I0228 10:24:28.690594 12900 net.cpp:150] Setting up conv17_2_mbox_conf_new
I0228 10:24:28.690614 12900 net.cpp:157] Top shape: 8 24 1 1 (192)
I0228 10:24:28.690619 12900 net.cpp:165] Memory required for data: 1290199040
I0228 10:24:28.690627 12900 layer_factory.hpp:77] Creating layer conv17_2_mbox_conf_perm
I0228 10:24:28.690635 12900 net.cpp:100] Creating Layer conv17_2_mbox_conf_perm
I0228 10:24:28.690641 12900 net.cpp:434] conv17_2_mbox_conf_perm <- conv17_2_mbox_conf
I0228 10:24:28.690650 12900 net.cpp:408] conv17_2_mbox_conf_perm -> conv17_2_mbox_conf_perm
I0228 10:24:28.690814 12900 net.cpp:150] Setting up conv17_2_mbox_conf_perm
I0228 10:24:28.690824 12900 net.cpp:157] Top shape: 8 1 1 24 (192)
I0228 10:24:28.690829 12900 net.cpp:165] Memory required for data: 1290199808
I0228 10:24:28.690850 12900 layer_factory.hpp:77] Creating layer conv17_2_mbox_conf_flat
I0228 10:24:28.690858 12900 net.cpp:100] Creating Layer conv17_2_mbox_conf_flat
I0228 10:24:28.690863 12900 net.cpp:434] conv17_2_mbox_conf_flat <- conv17_2_mbox_conf_perm
I0228 10:24:28.690872 12900 net.cpp:408] conv17_2_mbox_conf_flat -> conv17_2_mbox_conf_flat
I0228 10:24:28.690907 12900 net.cpp:150] Setting up conv17_2_mbox_conf_flat
I0228 10:24:28.690915 12900 net.cpp:157] Top shape: 8 24 (192)
I0228 10:24:28.690919 12900 net.cpp:165] Memory required for data: 1290200576
I0228 10:24:28.690937 12900 layer_factory.hpp:77] Creating layer conv17_2_mbox_priorbox
I0228 10:24:28.690949 12900 net.cpp:100] Creating Layer conv17_2_mbox_priorbox
I0228 10:24:28.690955 12900 net.cpp:434] conv17_2_mbox_priorbox <- conv17_2_conv17_2/relu_0_split_2
I0228 10:24:28.690961 12900 net.cpp:434] conv17_2_mbox_priorbox <- data_data_0_split_6
I0228 10:24:28.690971 12900 net.cpp:408] conv17_2_mbox_priorbox -> conv17_2_mbox_priorbox
I0228 10:24:28.691010 12900 net.cpp:150] Setting up conv17_2_mbox_priorbox
I0228 10:24:28.691020 12900 net.cpp:157] Top shape: 1 2 24 (48)
I0228 10:24:28.691025 12900 net.cpp:165] Memory required for data: 1290200768
I0228 10:24:28.691030 12900 layer_factory.hpp:77] Creating layer mbox_loc
I0228 10:24:28.691040 12900 net.cpp:100] Creating Layer mbox_loc
I0228 10:24:28.691046 12900 net.cpp:434] mbox_loc <- conv11_mbox_loc_flat
I0228 10:24:28.691052 12900 net.cpp:434] mbox_loc <- conv13_mbox_loc_flat
I0228 10:24:28.691061 12900 net.cpp:434] mbox_loc <- conv14_2_mbox_loc_flat
I0228 10:24:28.691066 12900 net.cpp:434] mbox_loc <- conv15_2_mbox_loc_flat
I0228 10:24:28.691071 12900 net.cpp:434] mbox_loc <- conv16_2_mbox_loc_flat
I0228 10:24:28.691076 12900 net.cpp:434] mbox_loc <- conv17_2_mbox_loc_flat
I0228 10:24:28.691085 12900 net.cpp:408] mbox_loc -> mbox_loc
I0228 10:24:28.691121 12900 net.cpp:150] Setting up mbox_loc
I0228 10:24:28.691130 12900 net.cpp:157] Top shape: 8 7668 (61344)
I0228 10:24:28.691134 12900 net.cpp:165] Memory required for data: 1290446144
I0228 10:24:28.691140 12900 layer_factory.hpp:77] Creating layer mbox_conf
I0228 10:24:28.691148 12900 net.cpp:100] Creating Layer mbox_conf
I0228 10:24:28.691154 12900 net.cpp:434] mbox_conf <- conv11_mbox_conf_flat
I0228 10:24:28.691160 12900 net.cpp:434] mbox_conf <- conv13_mbox_conf_flat
I0228 10:24:28.691167 12900 net.cpp:434] mbox_conf <- conv14_2_mbox_conf_flat
I0228 10:24:28.691174 12900 net.cpp:434] mbox_conf <- conv15_2_mbox_conf_flat
I0228 10:24:28.691179 12900 net.cpp:434] mbox_conf <- conv16_2_mbox_conf_flat
I0228 10:24:28.691184 12900 net.cpp:434] mbox_conf <- conv17_2_mbox_conf_flat
I0228 10:24:28.691191 12900 net.cpp:408] mbox_conf -> mbox_conf
I0228 10:24:28.691224 12900 net.cpp:150] Setting up mbox_conf
I0228 10:24:28.691232 12900 net.cpp:157] Top shape: 8 7668 (61344)
I0228 10:24:28.691236 12900 net.cpp:165] Memory required for data: 1290691520
I0228 10:24:28.691242 12900 layer_factory.hpp:77] Creating layer mbox_priorbox
I0228 10:24:28.691251 12900 net.cpp:100] Creating Layer mbox_priorbox
I0228 10:24:28.691256 12900 net.cpp:434] mbox_priorbox <- conv11_mbox_priorbox
I0228 10:24:28.691262 12900 net.cpp:434] mbox_priorbox <- conv13_mbox_priorbox
I0228 10:24:28.691267 12900 net.cpp:434] mbox_priorbox <- conv14_2_mbox_priorbox
I0228 10:24:28.691273 12900 net.cpp:434] mbox_priorbox <- conv15_2_mbox_priorbox
I0228 10:24:28.691278 12900 net.cpp:434] mbox_priorbox <- conv16_2_mbox_priorbox
I0228 10:24:28.691283 12900 net.cpp:434] mbox_priorbox <- conv17_2_mbox_priorbox
I0228 10:24:28.691290 12900 net.cpp:408] mbox_priorbox -> mbox_priorbox
I0228 10:24:28.691340 12900 net.cpp:150] Setting up mbox_priorbox
I0228 10:24:28.691349 12900 net.cpp:157] Top shape: 1 2 7668 (15336)
I0228 10:24:28.691354 12900 net.cpp:165] Memory required for data: 1290752864
I0228 10:24:28.691359 12900 layer_factory.hpp:77] Creating layer mbox_conf_reshape
I0228 10:24:28.691367 12900 net.cpp:100] Creating Layer mbox_conf_reshape
I0228 10:24:28.691372 12900 net.cpp:434] mbox_conf_reshape <- mbox_conf
I0228 10:24:28.691380 12900 net.cpp:408] mbox_conf_reshape -> mbox_conf_reshape
I0228 10:24:28.691424 12900 net.cpp:150] Setting up mbox_conf_reshape
I0228 10:24:28.691433 12900 net.cpp:157] Top shape: 8 1917 4 (61344)
I0228 10:24:28.691437 12900 net.cpp:165] Memory required for data: 1290998240
I0228 10:24:28.691442 12900 layer_factory.hpp:77] Creating layer mbox_conf_softmax
I0228 10:24:28.691452 12900 net.cpp:100] Creating Layer mbox_conf_softmax
I0228 10:24:28.691457 12900 net.cpp:434] mbox_conf_softmax <- mbox_conf_reshape
I0228 10:24:28.691476 12900 net.cpp:408] mbox_conf_softmax -> mbox_conf_softmax
I0228 10:24:28.692132 12900 net.cpp:150] Setting up mbox_conf_softmax
I0228 10:24:28.692147 12900 net.cpp:157] Top shape: 8 1917 4 (61344)
I0228 10:24:28.692152 12900 net.cpp:165] Memory required for data: 1291243616
I0228 10:24:28.692157 12900 layer_factory.hpp:77] Creating layer mbox_conf_flatten
I0228 10:24:28.692165 12900 net.cpp:100] Creating Layer mbox_conf_flatten
I0228 10:24:28.692173 12900 net.cpp:434] mbox_conf_flatten <- mbox_conf_softmax
I0228 10:24:28.692180 12900 net.cpp:408] mbox_conf_flatten -> mbox_conf_flatten
I0228 10:24:28.692220 12900 net.cpp:150] Setting up mbox_conf_flatten
I0228 10:24:28.692230 12900 net.cpp:157] Top shape: 8 7668 (61344)
I0228 10:24:28.692236 12900 net.cpp:165] Memory required for data: 1291488992
I0228 10:24:28.692241 12900 layer_factory.hpp:77] Creating layer detection_out
I0228 10:24:28.692253 12900 net.cpp:100] Creating Layer detection_out
I0228 10:24:28.692258 12900 net.cpp:434] detection_out <- mbox_loc
I0228 10:24:28.692266 12900 net.cpp:434] detection_out <- mbox_conf_flatten
I0228 10:24:28.692271 12900 net.cpp:434] detection_out <- mbox_priorbox
I0228 10:24:28.692281 12900 net.cpp:408] detection_out -> detection_out
I0228 10:24:28.692396 12900 net.cpp:150] Setting up detection_out
I0228 10:24:28.692409 12900 net.cpp:157] Top shape: 1 1 1 7 (7)
I0228 10:24:28.692414 12900 net.cpp:165] Memory required for data: 1291489020
I0228 10:24:28.692418 12900 layer_factory.hpp:77] Creating layer detection_eval
I0228 10:24:28.692428 12900 net.cpp:100] Creating Layer detection_eval
I0228 10:24:28.692435 12900 net.cpp:434] detection_eval <- detection_out
I0228 10:24:28.692440 12900 net.cpp:434] detection_eval <- label
I0228 10:24:28.692448 12900 net.cpp:408] detection_eval -> detection_eval
I0228 10:24:28.692524 12900 net.cpp:150] Setting up detection_eval
I0228 10:24:28.692534 12900 net.cpp:157] Top shape: 1 1 4 5 (20)
I0228 10:24:28.692538 12900 net.cpp:165] Memory required for data: 1291489100
I0228 10:24:28.692543 12900 net.cpp:228] detection_eval does not need backward computation.
I0228 10:24:28.692548 12900 net.cpp:228] detection_out does not need backward computation.
I0228 10:24:28.692555 12900 net.cpp:228] mbox_conf_flatten does not need backward computation.
I0228 10:24:28.692560 12900 net.cpp:228] mbox_conf_softmax does not need backward computation.
…
