…
    batch_sampler {
      sampler {
        min_scale: 0.3
        max_scale: 1
        min_aspect_ratio: 0.5
        max_aspect_ratio: 2
      }
      sample_constraint {
        min_jaccard_overlap: 0.9
      }
      max_sample: 1
      max_trials: 50
    }
    batch_sampler {
      sampler {
        min_scale: 0.3
        max_scale: 1
        min_aspect_ratio: 0.5
        max_aspect_ratio: 2
      }
      sample_constraint {
        max_jaccard_overlap: 1
      }
      max_sample: 1
      max_trials: 50
    }
    label_map_file: "labelmap.prototxt"
  }
}
layer {
  name: "conv0"
  type: "Convolution"
  bottom: "data"
  top: "conv0"
  param {
    lr_mult: 0.1
    decay_mult: 0.1
  }
  convolution_param {
    num_output: 32
    bias_term: false
    pad: 1
    kernel_size: 3
    stride: 2
    weight_filler {
      type: "msra"
    }
  }
}
layer {
  name: "conv0/bn"
  type: "BatchNorm"
  bottom: "conv0"
  top: "conv0"
}
layer {
  name: "conv0/scale"
  type: "Scale"
  bottom: "conv0"
  top: "conv0"
  param {
    lr_mult: 0.1
    decay_mult: 0
  }
  param {
    lr_mult: 0.2
    decay_mult: 0
  }
  scale_param {
    filler {
      value: 1
    }
    bias_term: true
    bias_filler {
      value: 0
    }
  }
}
layer {
  name: "conv0/relu"
  type: "ReLU"
  bottom: "conv0"
  top: "conv0"
}
layer {
  name: "conv1/dw"
  type: "Convolution"
  bottom: "conv0"
  top: "conv1/dw"
  param {
    lr_mult: 0.1
    decay_mult: 0.1
  }
  convolution_param {
    num_output: 32
    bias_term: false
    pad: 1
    kernel_size: 3
    group: 32
    weight_filler {
      type: "msra"
    }
    engine: CAFFE
  }
}
layer {
  name: "conv1/dw/bn"
  type: "BatchNorm"
  bottom: "conv1/dw"
  top: "conv1/dw"
}
layer {
  name: "conv1/dw/scale"
  type: "Scale"
  bottom: "conv1/dw"
  top: "conv1/dw"
  param {
    lr_mult: 0.1
    decay_mult: 0
  }
  param {
    lr_mult: 0.2
    decay_mult: 0
  }
  scale_param {
    filler {
      value: 1
    }
    bias_term: true
    bias_filler {
      value: 0
    }
  }
}
layer {
  name: "conv1/dw/relu"
  type: "ReLU"
  bottom: "conv1/dw"
  top: "conv1/dw"
}
layer {
  name: "conv1"
  type: "Convolution"
  bottom: "conv1/dw"
  top: "conv1"
  param {
    lr_mult: 0.1
    decay_mult: 0.1
  }
  convolution_param {
    num_output: 64
    bias_term: false
    kernel_size: 1
    weight_filler {
      type: "msra"
    }
  }
}
layer {
  name: "conv1/bn"
  type: "BatchNorm"
  bottom: "conv1"
  top: "conv1"
}
layer {
  name: "conv1/scale"
  type: "Scale"
  bottom: "conv1"
  top: "conv1"
  param {
    lr_mult: 0.1
    decay_mult: 0
  }
  param {
    lr_mult: 0.2
    decay_mult: 0
  }
  scale_param {
    filler {
      value: 1
    }
    bias_term: true
    bias_filler {
      value: 0
    }
  }
}
layer {
  name: "conv1/relu"
  type: "ReLU"
  bottom: "conv1"
  top: "conv1"
}
layer {
  name: "conv2/dw"
  type: "Convolution"
  bottom: "conv1"
  top: "conv2/dw"
  param {
    lr_mult: 0.1
    decay_mult: 0.1
  }
  convolution_param {
    num_output: 64
    bias_term: false
    pad: 1
    kernel_size: 3
    group: 64
    stride: 2
    weight_filler {
      type: "msra"
    }
    engine: CAFFE
  }
}
layer {
  name: "conv2/dw/bn"
  type: "BatchNorm"
  bottom: "conv2/dw"
  top: "conv2/dw"
}
layer {
  name: "conv2/dw/scale"
  type: "Scale"
  bottom: "conv2/dw"
  top: "conv2/dw"
  param {
    lr_mult: 0.1
    decay_mult: 0
  }
  param {
    lr_mult: 0.2
    decay_mult: 0
  }
  scale_param {
    filler {
      value: 1
    }
    bias_term: true
    bias_filler {
      value: 0
    }
  }
}
layer {
  name: "conv2/dw/relu"
  type: "ReLU"
  bottom: "conv2/dw"
  top: "conv2/dw"
}
layer {
  name: "conv2"
  type: "Convolution"
  bottom: "conv2/dw"
  top: "conv2"
  param {
    lr_mult: 0.1
    decay_mult: 0.1
  }
  convolution_param {
    num_output: 128
    bias_term: false
    kernel_size: 1
    weight_filler {
      type: "msra"
    }
  }
}
layer {
  name: "conv2/bn"
  type: "BatchNorm"
  bottom: "conv2"
  top: "conv2"
}
layer {
  name: "conv2/scale"
  type: "Scale"
  bottom: "conv2"
  top: "conv2"
  param {
    lr_mult: 0.1
    decay_mult: 0
  }
  param {
    lr_mult: 0.2
    decay_mult: 0
  }
  scale_param {
    filler {
      value: 1
    }
    bias_term: true
    bias_filler {
      value: 0
    }
  }
}
layer {
  name: "conv2/relu"
  type: "ReLU"
  bottom: "conv2"
  top: "conv2"
}
layer {
  name: "conv3/dw"
  type: "Convolution"
  bottom: "conv2"
  top: "conv3/dw"
  param {
    lr_mult: 0.1
    decay_mult: 0.1
  }
  convolution_param {
    num_output: 128
    bias_term: false
    pad: 1
    kernel_size: 3
    group: 128
    weight_filler {
      type: "msra"
    }
    engine: CAFFE
  }
}
layer {
  name: "conv3/dw/bn"
  type: "BatchNorm"
  bottom: "conv3/dw"
  top: "conv3/dw"
}
layer {
  name: "conv3/dw/scale"
  type: "Scale"
  bottom: "conv3/dw"
  top: "conv3/dw"
  param {
    lr_mult: 0.1
    decay_mult: 0
  }
  param {
    lr_mult: 0.2
    decay_mult: 0
  }
  scale_param {
    filler {
      value: 1
    }
    bias_term: true
    bias_filler {
      value: 0
    }
  }
}
layer {
  name: "conv3/dw/relu"
  type: "ReLU"
  bottom: "conv3/dw"
  top: "conv3/dw"
}
layer {
  name: "conv3"
  type: "Convolution"
  bottom: "conv3/dw"
  top: "conv3"
  param {
    lr_mult: 0.1
    decay_mult: 0.1
  }
  convolution_param {
    num_output: 128
    bias_term: false
    kernel_size: 1
    weight_filler {
      type: "msra"
    }
  }
}
layer {
  name: "conv3/bn"
  type: "BatchNorm"
  bottom: "conv3"
  top: "conv3"
}
layer {
  name: "conv3/scale"
  type: "Scale"
  bottom: "conv3"
  top: "conv3"
  param {
    lr_mult: 0.1
    decay_mult: 0
  }
  param {
    lr_mult: 0.2
    decay_mult: 0
  }
  scale_param {
    filler {
      value: 1
    }
    bias_term: true
    bias_filler {
      value: 0
    }
  }
}
layer {
  name: "conv3/relu"
  type: "ReLU"
  bottom: "conv3"
  top: "conv3"
}
layer {
  name: "conv4/dw"
  type: "Convolution"
  bottom: "conv3"
  top: "conv4/dw"
  param {
    lr_mult: 0.1
    decay_mult: 0.1
  }
  convolution_param {
    num_output: 128
    bias_term: false
    pad: 1
    kernel_size: 3
    group: 128
    stride: 2
    weight_filler {
      type: "msra"
    }
    engine: CAFFE
  }
}
layer {
  name: "conv4/dw/bn"
  type: "BatchNorm"
  bottom: "conv4/dw"
  top: "conv4/dw"
}
layer {
  name: "conv4/dw/scale"
  type: "Scale"
  bottom: "conv4/dw"
  top: "conv4/dw"
  param {
    lr_mult: 0.1
    decay_mult: 0
  }
  param {
    lr_mult: 0.2
    decay_mult: 0
  }
  scale_param {
    filler {
      value: 1
    }
    bias_term: true
    bias_filler {
      value: 0
    }
  }
}
layer {
  name: "conv4/dw/relu"
  type: "ReLU"
  bottom: "conv4/dw"
  top: "conv4/dw"
}
layer {
  name: "conv4"
  type: "Convolution"
  bottom: "conv4/dw"
  top: "conv4"
  param {
    lr_mult: 0.1
    decay_mult: 0.1
  }
  convolution_param {
    num_output: 256
    bias_term: false
    kernel_size: 1
    weight_filler {
      type: "msra"
    }
  }
}
layer {
  name: "conv4/bn"
  type: "BatchNorm"
  bottom: "conv4"
  top: "conv4"
}
layer {
  name: "conv4/scale"
  type: "Scale"
  bottom: "conv4"
  top: "conv4"
  param {
    lr_mult: 0.1
    decay_mult: 0
  }
  param {
    lr_mult: 0.2
    decay_mult: 0
  }
  scale_param {
    filler {
      value: 1
    }
    bias_term: true
    bias_filler {
      value: 0
    }
  }
}
layer {
  name: "conv4/relu"
  type: "ReLU"
  bottom: "conv4"
  top: "conv4"
}
layer {
  name: "conv5/dw"
  type: "Convolution"
  bottom: "conv4"
  top: "conv5/dw"
  param {
    lr_mult: 0.1
    decay_mult: 0.1
  }
  convolution_param {
    num_output: 256
    bias_term: false
    pad: 1
    kernel_size: 3
    group: 256
    weight_filler {
      type: "msra"
    }
    engine: CAFFE
  }
}
layer {
  name: "conv5/dw/bn"
  type: "BatchNorm"
  bottom: "conv5/dw"
  top: "conv5/dw"
}
layer {
  name: "conv5/dw/scale"
  type: "Scale"
  bottom: "conv5/dw"
  top: "conv5/dw"
  param {
    lr_mult: 0.1
    decay_mult: 0
  }
  param {
    lr_mult: 0.2
    decay_mult: 0
  }
  scale_param {
    filler {
      value: 1
    }
    bias_term: true
    bias_filler {
      value: 0
    }
  }
}
layer {
  name: "conv5/dw/relu"
  type: "ReLU"
  bottom: "conv5/dw"
  top: "conv5/dw"
}
layer {
  name: "conv5"
  type: "Convolution"
  bottom: "conv5/dw"
  top: "conv5"
  param {
    lr_mult: 0.1
    decay_mult: 0.1
  }
  convolution_param {
    num_output: 256
    bias_term: false
    kernel_size: 1
    weight_filler {
      type: "msra"
    }
  }
}
layer {
  name: "conv5/bn"
  type: "BatchNorm"
  bottom: "conv5"
  top: "conv5"
}
layer {
  name: "conv5/scale"
  type: "Scale"
  bottom: "conv5"
  top: "conv5"
  param {
    lr_mult: 0.1
    decay_mult: 0
  }
  param {
    lr_mult: 0.2
    decay_mult: 0
  }
  scale_param {
    filler {
      value: 1
    }
    bias_term: true
    bias_filler {
      value: 0
    }
  }
}
layer {
  name: "conv5/relu"
  type: "ReLU"
  bottom: "conv5"
  top: "conv5"
}
layer {
  name: "conv6/dw"
  type: "Convolution"
  bottom: "conv5"
  top: "conv6/dw"
  param {
    lr_mult: 0.1
    decay_mult: 0.1
  }
  convolution_param {
    num_output: 256
    bias_term: false
    pad: 1
    kernel_size: 3
    group: 256
    stride: 2
    weight_filler {
      type: "msra"
    }
    engine: CAFFE
  }
}
layer {
  name: "conv6/dw/bn"
  type: "BatchNorm"
  bottom: "conv6/dw"
  top: "conv6/dw"
}
layer {
  name: "conv6/dw/scale"
  type: "Scale"
  bottom: "conv6/dw"
  top: "conv6/dw"
  param {
    lr_mult: 0.1
    decay_mult: 0
  }
  param {
    lr_mult: 0.2
    decay_mult: 0
  }
  scale_param {
    filler {
      value: 1
    }
    bias_term: true
    bias_filler {
      value: 0
    }
  }
}
layer {
  name: "conv6/dw/relu"
  type: "ReLU"
  bottom: "conv6/dw"
  top: "conv6/dw"
}
layer {
  name: "conv6"
  type: "Convolution"
  bottom: "conv6/dw"
  top: "conv6"
  param {
    lr_mult: 0.1
    decay_mult: 0.1
  }
  convolution_param {
    num_output: 512
    bias_term: false
    kernel_size: 1
    weight_filler {
      type: "msra"
    }
  }
}
layer {
  name: "conv6/bn"
  type: "BatchNorm"
  bottom: "conv6"
  top: "conv6"
}
layer {
  name: "conv6/scale"
  type: "Scale"
  bottom: "conv6"
  top: "conv6"
  param {
    lr_mult: 0.1
    decay_mult: 0
  }
  param {
    lr_mult: 0.2
    decay_mult: 0
  }
  scale_param {
    filler {
      value: 1
    }
    bias_term: true
    bias_filler {
      value: 0
    }
  }
}
layer {
  name: "conv6/relu"
  type: "ReLU"
  bottom: "conv6"
  top: "conv6"
}
layer {
  name: "conv7/dw"
  type: "Convolution"
  bottom: "conv6"
  top: "conv7/dw"
  param {
    lr_mult: 0.1
    decay_mult: 0.1
  }
  convolution_param {
    num_output: 512
    bias_term: false
    pad: 1
    kernel_size: 3
    group: 512
    weight_filler {
      type: "msra"
    }
    engine: CAFFE
  }
}
layer {
  name: "conv7/dw/bn"
  type: "BatchNorm"
  bottom: "conv7/dw"
  top: "conv7/dw"
}
layer {
  name: "conv7/dw/scale"
  type: "Scale"
  bottom: "conv7/dw"
  top: "conv7/dw"
  param {
    lr_mult: 0.1
    decay_mult: 0
  }
  param {
    lr_mult: 0.2
    decay_mult: 0
  }
  scale_param {
    filler {
      value: 1
    }
    bias_term: true
    bias_filler {
      value: 0
    }
  }
}
layer {
  name: "conv7/dw/relu"
  type: "ReLU"
  bottom: "conv7/dw"
  top: "conv7/dw"
}
layer {
  name: "conv7"
  type: "Convolution"
  bottom: "conv7/dw"
  top: "conv7"
  param {
    lr_mult: 0.1
    decay_mult: 0.1
  }
  convolution_param {
    num_output: 512
    bias_term: false
    kernel_size: 1
    weight_filler {
      type: "msra"
    }
  }
}
layer {
  name: "conv7/bn"
  type: "BatchNorm"
  bottom: "conv7"
  top: "conv7"
}
layer {
  name: "conv7/scale"
  type: "Scale"
  bottom: "conv7"
  top: "conv7"
  param {
    lr_mult: 0.1
    decay_mult: 0
  }
  param {
    lr_mult: 0.2
    decay_mult: 0
  }
  scale_param {
    filler {
      value: 1
    }
    bias_term: true
    bias_filler {
      value: 0
    }
  }
}
layer {
  name: "conv7/relu"
  type: "ReLU"
  bottom: "conv7"
  top: "conv7"
}
layer {
  name: "conv8/dw"
  type: "Convolution"
  bottom: "conv7"
  top: "conv8/dw"
  param {
    lr_mult: 0.1
    decay_mult: 0.1
  }
  convolution_param {
    num_output: 512
    bias_term: false
    pad: 1
    kernel_size: 3
    group: 512
    weight_filler {
      type: "msra"
    }
    engine: CAFFE
  }
}
layer {
  name: "conv8/dw/bn"
  type: "BatchNorm"
  bottom: "conv8/dw"
  top: "conv8/dw"
}
layer {
  name: "conv8/dw/scale"
  type: "Scale"
  bottom: "conv8/dw"
  top: "conv8/dw"
  param {
    lr_mult: 0.1
    decay_mult: 0
  }
  param {
    lr_mult: 0.2
    decay_mult: 0
  }
  scale_param {
    filler {
      value: 1
    }
    bias_term: true
    bias_filler {
      value: 0
    }
  }
}
layer {
  name: "conv8/dw/relu"
  type: "ReLU"
  bottom: "conv8/dw"
  top: "conv8/dw"
}
layer {
  name: "conv8"
  type: "Convolution"
  bottom: "conv8/dw"
  top: "conv8"
  param {
    lr_mult: 0.1
    decay_mult: 0.1
  }
  convolution_param {
    num_output: 512
    bias_term: false
    kernel_size: 1
    weight_filler {
      type: "msra"
    }
  }
}
layer {
  name: "conv8/bn"
  type: "BatchNorm"
  bottom: "conv8"
  top: "conv8"
}
layer {
  name: "conv8/scale"
  type: "Scale"
  bottom: "conv8"
  top: "conv8"
  param {
    lr_mult: 0.1
    decay_mult: 0
  }
  param {
    lr_mult: 0.2
    decay_mult: 0
  }
  scale_param {
    filler {
      value: 1
    }
    bias_term: true
    bias_filler {
      value: 0
    }
  }
}
layer {
  name: "conv8/relu"
  type: "ReLU"
  bottom: "conv8"
  top: "conv8"
}
layer {
  name: "conv9/dw"
  type: "Convolution"
  bottom: "conv8"
  top: "conv9/dw"
  param {
    lr_mult: 0.1
    decay_mult: 0.1
  }
  convolution_param {
    num_output: 512
    bias_term: false
    pad: 1
    kernel_size: 3
    group: 512
    weight_filler {
      type: "msra"
    }
    engine: CAFFE
  }
}
layer {
  name: "conv9/dw/bn"
  type: "BatchNorm"
  bottom: "conv9/dw"
  top: "conv9/dw"
}
layer {
  name: "conv9/dw/scale"
  type: "Scale"
  bottom: "conv9/dw"
  top: "conv9/dw"
  param {
    lr_mult: 0.1
    decay_mult: 0
  }
  param {
    lr_mult: 0.2
    decay_mult: 0
  }
  scale_param {
    filler {
      value: 1
    }
    bias_term: true
    bias_filler {
      value: 0
    }
  }
}
layer {
  name: "conv9/dw/relu"
  type: "ReLU"
  bottom: "conv9/dw"
  top: "conv9/dw"
}
layer {
  name: "conv9"
  type: "Convolution"
  bottom: "conv9/dw"
  top: "conv9"
  param {
    lr_mult: 0.1
    decay_mult: 0.1
  }
  convolution_param {
    num_output: 512
    bias_term: false
    kernel_size: 1
    weight_filler {
      type: "msra"
    }
  }
}
layer {
  name: "conv9/bn"
  type: "BatchNorm"
  bottom: "conv9"
  top: "conv9"
}
layer {
  name: "conv9/scale"
  type: "Scale"
  bottom: "conv9"
  top: "conv9"
  param {
    lr_mult: 0.1
    decay_mult: 0
  }
  param {
    lr_mult: 0.2
    decay_mult: 0
  }
  scale_param {
    filler {
      value: 1
    }
    bias_term: true
    bias_filler {
      value: 0
    }
  }
}
layer {
  name: "conv9/relu"
  type: "ReLU"
  bottom: "conv9"
  top: "conv9"
}
layer {
  name: "conv10/dw"
  type: "Convolution"
  bottom: "conv9"
  top: "conv10/dw"
  param {
    lr_mult: 0.1
    decay_mult: 0.1
  }
  convolution_param {
    num_output: 512
    bias_term: false
    pad: 1
    kernel_size: 3
    group: 512
    weight_filler {
      type: "msra"
    }
    engine: CAFFE
  }
}
layer {
  name: "conv10/dw/bn"
  type: "BatchNorm"
  bottom: "conv10/dw"
  top: "conv10/dw"
}
layer {
  name: "conv10/dw/scale"
  type: "Scale"
  bottom: "conv10/dw"
  top: "conv10/dw"
  param {
    lr_mult: 0.1
    decay_mult: 0
  }
  param {
    lr_mult: 0.2
    decay_mult: 0
  }
  scale_param {
    filler {
      value: 1
    }
    bias_term: true
    bias_filler {
      value: 0
    }
  }
}
layer {
  name: "conv10/dw/relu"
  type: "ReLU"
  bottom: "conv10/dw"
  top: "conv10/dw"
}
layer {
  name: "conv10"
  type: "Convolution"
  bottom: "conv10/dw"
  top: "conv10"
  param {
    lr_mult: 0.1
    decay_mult: 0.1
  }
  convolution_param {
    num_output: 512
    bias_term: false
    kernel_size: 1
    weight_filler {
      type: "msra"
    }
  }
}
layer {
  name: "conv10/bn"
  type: "BatchNorm"
  bottom: "conv10"
  top: "conv10"
}
layer {
  name: "conv10/scale"
  type: "Scale"
  bottom: "conv10"
  top: "conv10"
  param {
    lr_mult: 0.1
    decay_mult: 0
  }
  param {
    lr_mult: 0.2
    decay_mult: 0
  }
  scale_param {
    filler {
      value: 1
    }
    bias_term: true
    bias_filler {
      value: 0
    }
  }
}
layer {
  name: "conv10/relu"
  type: "ReLU"
  bottom: "conv10"
  top: "conv10"
}
layer {
  name: "conv11/dw"
  type: "Convolution"
  bottom: "conv10"
  top: "conv11/dw"
  param {
    lr_mult: 0.1
    decay_mult: 0.1
  }
  convolution_param {
    num_output: 512
    bias_term: false
    pad: 1
    kernel_size: 3
    group: 512
    weight_filler {
      type: "msra"
    }
    engine: CAFFE
  }
}
layer {
  name: "conv11/dw/bn"
  type: "BatchNorm"
  bottom: "conv11/dw"
  top: "conv11/dw"
}
layer {
  name: "conv11/dw/scale"
  type: "Scale"
  bottom: "conv11/dw"
  top: "conv11/dw"
  param {
    lr_mult: 0.1
    decay_mult: 0
  }
  param {
    lr_mult: 0.2
    decay_mult: 0
  }
  scale_param {
    filler {
      value: 1
    }
    bias_term: true
    bias_filler {
      value: 0
    }
  }
}
layer {
  name: "conv11/dw/relu"
  type: "ReLU"
  bottom: "conv11/dw"
  top: "conv11/dw"
}
layer {
  name: "conv11"
  type: "Convolution"
  bottom: "conv11/dw"
  top: "conv11"
  param {
    lr_mult: 0.1
    decay_mult: 0.1
  }
  convolution_param {
    num_output: 512
    bias_term: false
    kernel_size: 1
    weight_filler {
      type: "msra"
    }
  }
}
layer {
  name: "conv11/bn"
  type: "BatchNorm"
  bottom: "conv11"
  top: "conv11"
}
layer {
  name: "conv11/scale"
  type: "Scale"
  bottom: "conv11"
  top: "conv11"
  param {
    lr_mult: 0.1
    decay_mult: 0
  }
  param {
    lr_mult: 0.2
    decay_mult: 0
  }
  scale_param {
    filler {
      value: 1
    }
    bias_term: true
    bias_filler {
      value: 0
    }
  }
}
layer {
  name: "conv11/relu"
  type: "ReLU"
  bottom: "conv11"
  top: "conv11"
}
layer {
  name: "conv12/dw"
  type: "Convolution"
  bottom: "conv11"
  top: "conv12/dw"
  param {
    lr_mult: 0.1
    decay_mult: 0.1
  }
  convolution_param {
    num_output: 512
    bias_term: false
    pad: 1
    kernel_size: 3
    group: 512
    stride: 2
    weight_filler {
      type: "msra"
    }
    engine: CAFFE
  }
}
layer {
  name: "conv12/dw/bn"
  type: "BatchNorm"
  bottom: "conv12/dw"
  top: "conv12/dw"
}
layer {
  name: "conv12/dw/scale"
  type: "Scale"
  bottom: "conv12/dw"
  top: "conv12/dw"
  param {
    lr_mult: 0.1
    decay_mult: 0
  }
  param {
    lr_mult: 0.2
    decay_mult: 0
  }
  scale_param {
    filler {
      value: 1
    }
    bias_term: true
    bias_filler {
      value: 0
    }
  }
}
layer {
  name: "conv12/dw/relu"
  type: "ReLU"
  bottom: "conv12/dw"
  top: "conv12/dw"
}
layer {
  name: "conv12"
  type: "Convolution"
  bottom: "conv12/dw"
  top: "conv12"
  param {
    lr_mult: 0.1
    decay_mult: 0.1
  }
  convolution_param {
    num_output: 1024
    bias_term: false
    kernel_size: 1
    weight_filler {
      type: "msra"
    }
  }
}
layer {
  name: "conv12/bn"
  type: "BatchNorm"
  bottom: "conv12"
  top: "conv12"
}
layer {
  name: "conv12/scale"
  type: "Scale"
  bottom: "conv12"
  top: "conv12"
  param {
    lr_mult: 0.1
    decay_mult: 0
  }
  param {
    lr_mult: 0.2
    decay_mult: 0
  }
  scale_param {
    filler {
      value: 1
    }
    bias_term: true
    bias_filler {
      value: 0
    }
  }
}
layer {
  name: "conv12/relu"
  type: "ReLU"
  bottom: "conv12"
  top: "conv12"
}
layer {
  name: "conv13/dw"
  type: "Convolution"
  bottom: "conv12"
  top: "conv13/dw"
  param {
    lr_mult: 0.1
    decay_mult: 0.1
  }
  convolution_param {
    num_output: 1024
    bias_term: false
    pad: 1
    kernel_size: 3
    group: 1024
    weight_filler {
      type: "msra"
    }
    engine: CAFFE
  }
}
layer {
  name: "conv13/dw/bn"
  type: "BatchNorm"
  bottom: "conv13/dw"
  top: "conv13/dw"
}
layer {
  name: "conv13/dw/scale"
  type: "Scale"
  bottom: "conv13/dw"
  top: "conv13/dw"
  param {
    lr_mult: 0.1
    decay_mult: 0
  }
  param {
    lr_mult: 0.2
    decay_mult: 0
  }
  scale_param {
    filler {
      value: 1
    }
    bias_term: true
    bias_filler {
      value: 0
    }
  }
}
layer {
  name: "conv13/dw/relu"
  type: "ReLU"
  bottom: "conv13/dw"
  top: "conv13/dw"
}
layer {
  name: "conv13"
  type: "Convolution"
  bottom: "conv13/dw"
  top: "conv13"
  param {
    lr_mult: 0.1
    decay_mult: 0.1
  }
  convolution_param {
    num_output: 1024
    bias_term: false
    kernel_size: 1
    weight_filler {
      type: "msra"
    }
  }
}
layer {
  name: "conv13/bn"
  type: "BatchNorm"
  bottom: "conv13"
  top: "conv13"
}
layer {
  name: "conv13/scale"
  type: "Scale"
  bottom: "conv13"
  top: "conv13"
  param {
    lr_mult: 0.1
    decay_mult: 0
  }
  param {
    lr_mult: 0.2
    decay_mult: 0
  }
  scale_param {
    filler {
      value: 1
    }
    bias_term: true
    bias_filler {
      value: 0
    }
  }
}
layer {
  name: "conv13/relu"
  type: "ReLU"
  bottom: "conv13"
  top: "conv13"
}
layer {
  name: "conv14_1"
  type: "Convolution"
  bottom: "conv13"
  top: "conv14_1"
  param {
    lr_mult: 0.1
    decay_mult: 0.1
  }
  convolution_param {
    num_output: 256
    bias_term: false
    kernel_size: 1
    weight_filler {
      type: "msra"
    }
  }
}
layer {
  name: "conv14_1/bn"
  type: "BatchNorm"
  bottom: "conv14_1"
  top: "conv14_1"
}
layer {
  name: "conv14_1/scale"
  type: "Scale"
  bottom: "conv14_1"
  top: "conv14_1"
  param {
    lr_mult: 0.1
    decay_mult: 0
  }
  param {
    lr_mult: 0.2
    decay_mult: 0
  }
  scale_param {
    filler {
      value: 1
    }
    bias_term: true
    bias_filler {
      value: 0
    }
  }
}
layer {
  name: "conv14_1/relu"
  type: "ReLU"
  bottom: "conv14_1"
  top: "conv14_1"
}
layer {
  name: "conv14_2"
  type: "Convolution"
  bottom: "conv14_1"
  top: "conv14_2"
  param {
    lr_mult: 0.1
    decay_mult: 0.1
  }
  convolution_param {
    num_output: 512
    bias_term: false
    pad: 1
    kernel_size: 3
    stride: 2
    weight_filler {
      type: "msra"
    }
  }
}
layer {
  name: "conv14_2/bn"
  type: "BatchNorm"
  bottom: "conv14_2"
  top: "conv14_2"
}
layer {
  name: "conv14_2/scale"
  type: "Scale"
  bottom: "conv14_2"
  top: "conv14_2"
  param {
    lr_mult: 0.1
    decay_mult: 0
  }
  param {
    lr_mult: 0.2
    decay_mult: 0
  }
  scale_param {
    filler {
      value: 1
    }
    bias_term: true
    bias_filler {
      value: 0
    }
  }
}
layer {
  name: "conv14_2/relu"
  type: "ReLU"
  bottom: "conv14_2"
  top: "conv14_2"
}
layer {
  name: "conv15_1"
  type: "Convolution"
  bottom: "conv14_2"
  top: "conv15_1"
  param {
    lr_mult: 0.1
    decay_mult: 0.1
  }
  convolution_param {
    num_output: 128
    bias_term: false
    kernel_size: 1
    weight_filler {
      type: "msra"
    }
  }
}
layer {
  name: "conv15_1/bn"
  type: "BatchNorm"
  bottom: "conv15_1"
  top: "conv15_1"
}
layer {
  name: "conv15_1/scale"
  type: "Scale"
  bottom: "conv15_1"
  top: "conv15_1"
  param {
    lr_mult: 0.1
    decay_mult: 0
  }
  param {
    lr_mult: 0.2
    decay_mult: 0
  }
  scale_param {
    filler {
      value: 1
    }
    bias_term: true
    bias_filler {
      value: 0
    }
  }
}
layer {
  name: "conv15_1/relu"
  type: "ReLU"
  bottom: "conv15_1"
  top: "conv15_1"
}
layer {
  name: "conv15_2"
  type: "Convolution"
  bottom: "conv15_1"
  top: "conv15_2"
  param {
    lr_mult: 0.1
    decay_mult: 0.1
  }
  convolution_param {
    num_output: 256
    bias_term: false
    pad: 1
    kernel_size: 3
    stride: 2
    weight_filler {
      type: "msra"
    }
  }
}
layer {
  name: "conv15_2/bn"
  type: "BatchNorm"
  bottom: "conv15_2"
  top: "conv15_2"
}
layer {
  name: "conv15_2/scale"
  type: "Scale"
  bottom: "conv15_2"
  top: "conv15_2"
  param {
    lr_mult: 0.1
    decay_mult: 0
  }
  param {
    lr_mult: 0.2
    decay_mult: 0
  }
  scale_param {
    filler {
      value: 1
    }
    bias_term: true
    bias_filler {
      value: 0
    }
  }
}
layer {
  name: "conv15_2/relu"
  type: "ReLU"
  bottom: "conv15_2"
  top: "conv15_2"
}
layer {
  name: "conv16_1"
  type: "Convolution"
  bottom: "conv15_2"
  top: "conv16_1"
  param {
    lr_mult: 0.1
    decay_mult: 0.1
  }
  convolution_param {
    num_output: 128
    bias_term: false
    kernel_size: 1
    weight_filler {
      type: "msra"
    }
  }
}
layer {
  name: "conv16_1/bn"
  type: "BatchNorm"
  bottom: "conv16_1"
  top: "conv16_1"
}
layer {
  name: "conv16_1/scale"
  type: "Scale"
  bottom: "conv16_1"
  top: "conv16_1"
  param {
    lr_mult: 0.1
    decay_mult: 0
  }
  param {
    lr_mult: 0.2
    decay_mult: 0
  }
  scale_param {
    filler {
      value: 1
    }
    bias_term: true
    bias_filler {
      value: 0
    }
  }
}
layer {
  name: "conv16_1/relu"
  type: "ReLU"
  bottom: "conv16_1"
  top: "conv16_1"
}
layer {
  name: "conv16_2"
  type: "Convolution"
  bottom: "conv16_1"
  top: "conv16_2"
  param {
    lr_mult: 0.1
    decay_mult: 0.1
  }
  convolution_param {
    num_output: 256
    bias_term: false
    pad: 1
    kernel_size: 3
    stride: 2
    weight_filler {
      type: "msra"
    }
  }
}
layer {
  name: "conv16_2/bn"
  type: "BatchNorm"
  bottom: "conv16_2"
  top: "conv16_2"
}
layer {
  name: "conv16_2/scale"
  type: "Scale"
  bottom: "conv16_2"
  top: "conv16_2"
  param {
    lr_mult: 0.1
    decay_mult: 0
  }
  param {
    lr_mult: 0.2
    decay_mult: 0
  }
  scale_param {
    filler {
      value: 1
    }
    bias_term: true
    bias_filler {
      value: 0
    }
  }
}
layer {
  name: "conv16_2/relu"
  type: "ReLU"
  bottom: "conv16_2"
  top: "conv16_2"
}
layer {
  name: "conv17_1"
  type: "Convolution"
  bottom: "conv16_2"
  top: "conv17_1"
  param {
    lr_mult: 0.1
    decay_mult: 0.1
  }
  convolution_param {
    num_output: 64
    bias_term: false
    kernel_size: 1
    weight_filler {
      type: "msra"
    }
  }
}
layer {
  name: "conv17_1/bn"
  type: "BatchNorm"
  bottom: "conv17_1"
  top: "conv17_1"
}
layer {
  name: "conv17_1/scale"
  type: "Scale"
  bottom: "conv17_1"
  top: "conv17_1"
  param {
    lr_mult: 0.1
    decay_mult: 0
  }
  param {
    lr_mult: 0.2
    decay_mult: 0
  }
  scale_param {
    filler {
      value: 1
    }
    bias_term: true
    bias_filler {
      value: 0
    }
  }
}
layer {
  name: "conv17_1/relu"
  type: "ReLU"
  bottom: "conv17_1"
  top: "conv17_1"
}
layer {
  name: "conv17_2"
  type: "Convolution"
  bottom: "conv17_1"
  top: "conv17_2"
  param {
    lr_mult: 0.1
    decay_mult: 0.1
  }
  convolution_param {
    num_output: 128
    bias_term: false
    pad: 1
    kernel_size: 3
    stride: 2
    weight_filler {
      type: "msra"
    }
  }
}
layer {
  name: "conv17_2/bn"
  type: "BatchNorm"
  bottom: "conv17_2"
  top: "conv17_2"
}
layer {
  name: "conv17_2/scale"
  type: "Scale"
  bottom: "conv17_2"
  top: "conv17_2"
  param {
    lr_mult: 0.1
    decay_mult: 0
  }
  param {
    lr_mult: 0.2
    decay_mult: 0
  }
  scale_param {
    filler {
      value: 1
    }
    bias_term: true
    bias_filler {
      value: 0
    }
  }
}
layer {
  name: "conv17_2/relu"
  type: "ReLU"
  bottom: "conv17_2"
  top: "conv17_2"
}
layer {
  name: "conv11_mbox_loc"
  type: "Convolution"
  bottom: "conv11"
  top: "conv11_mbox_loc"
  param {
    lr_mult: 0.1
    decay_mult: 0.1
  }
  param {
    lr_mult: 0.2
    decay_mult: 0
  }
  convolution_param {
    num_output: 12
    kernel_size: 1
    weight_filler {
      type: "msra"
    }
    bias_filler {
      type: "constant"
      value: 0
    }
  }
}
layer {
  name: "conv11_mbox_loc_perm"
  type: "Permute"
  bottom: "conv11_mbox_loc"
  top: "conv11_mbox_loc_perm"
  permute_param {
    order: 0
    or
I0226 15:02:20.004223 21023 layer_factory.hpp:77] Creating layer data
I0226 15:02:20.041719 21023 net.cpp:100] Creating Layer data
I0226 15:02:20.041800 21023 net.cpp:408] data -> data
I0226 15:02:20.041867 21023 net.cpp:408] data -> label
I0226 15:02:20.164032 21066 db_lmdb.cpp:35] Opened lmdb trainval_lmdb/
I0226 15:02:21.780992 21023 annotated_data_layer.cpp:62] output data size: 24,3,300,300
I0226 15:02:21.831032 21023 net.cpp:150] Setting up data
I0226 15:02:21.831076 21023 net.cpp:157] Top shape: 24 3 300 300 (6480000)
I0226 15:02:21.831087 21023 net.cpp:157] Top shape: 1 1 1 8 (8)
I0226 15:02:21.831095 21023 net.cpp:165] Memory required for data: 25920032
I0226 15:02:21.831113 21023 layer_factory.hpp:77] Creating layer data_data_0_split
I0226 15:02:21.831135 21023 net.cpp:100] Creating Layer data_data_0_split
I0226 15:02:21.831146 21023 net.cpp:434] data_data_0_split <- data
I0226 15:02:21.831174 21023 net.cpp:408] data_data_0_split -> data_data_0_split_0
I0226 15:02:21.831197 21023 net.cpp:408] data_data_0_split -> data_data_0_split_1
I0226 15:02:21.831212 21023 net.cpp:408] data_data_0_split -> data_data_0_split_2
I0226 15:02:21.831225 21023 net.cpp:408] data_data_0_split -> data_data_0_split_3
I0226 15:02:21.831238 21023 net.cpp:408] data_data_0_split -> data_data_0_split_4
I0226 15:02:21.831254 21023 net.cpp:408] data_data_0_split -> data_data_0_split_5
I0226 15:02:21.831266 21023 net.cpp:408] data_data_0_split -> data_data_0_split_6
I0226 15:02:21.831416 21023 net.cpp:150] Setting up data_data_0_split
I0226 15:02:21.831430 21023 net.cpp:157] Top shape: 24 3 300 300 (6480000)
I0226 15:02:21.831441 21023 net.cpp:157] Top shape: 24 3 300 300 (6480000)
I0226 15:02:21.831460 21023 net.cpp:157] Top shape: 24 3 300 300 (6480000)
I0226 15:02:21.831485 21023 net.cpp:157] Top shape: 24 3 300 300 (6480000)
I0226 15:02:21.831495 21023 net.cpp:157] Top shape: 24 3 300 300 (6480000)
I0226 15:02:21.831504 21023 net.cpp:157] Top shape: 24 3 300 300 (6480000)
I0226 15:02:21.831516 21023 net.cpp:157] Top shape: 24 3 300 300 (6480000)
I0226 15:02:21.831523 21023 net.cpp:165] Memory required for data: 207360032
I0226 15:02:21.831532 21023 layer_factory.hpp:77] Creating layer conv0
I0226 15:02:21.831565 21023 net.cpp:100] Creating Layer conv0
I0226 15:02:21.831574 21023 net.cpp:434] conv0 <- data_data_0_split_0
I0226 15:02:21.831588 21023 net.cpp:408] conv0 -> conv0
I0226 15:02:38.991744 21023 net.cpp:150] Setting up conv0
I0226 15:02:38.991783 21023 net.cpp:157] Top shape: 24 32 150 150 (17280000)
I0226 15:02:38.991791 21023 net.cpp:165] Memory required for data: 276480032
I0226 15:02:38.991811 21023 layer_factory.hpp:77] Creating layer conv0/bn
I0226 15:02:38.991823 21023 net.cpp:100] Creating Layer conv0/bn
I0226 15:02:38.991832 21023 net.cpp:434] conv0/bn <- conv0
I0226 15:02:38.991840 21023 net.cpp:395] conv0/bn -> conv0 (in-place)
I0226 15:02:38.993453 21023 net.cpp:150] Setting up conv0/bn
I0226 15:02:38.993479 21023 net.cpp:157] Top shape: 24 32 150 150 (17280000)
I0226 15:02:38.993489 21023 net.cpp:165] Memory required for data: 345600032
I0226 15:02:38.993513 21023 layer_factory.hpp:77] Creating layer conv0/scale
I0226 15:02:38.993531 21023 net.cpp:100] Creating Layer conv0/scale
I0226 15:02:38.993537 21023 net.cpp:434] conv0/scale <- conv0
I0226 15:02:38.993547 21023 net.cpp:395] conv0/scale -> conv0 (in-place)
I0226 15:02:38.993613 21023 layer_factory.hpp:77] Creating layer conv0/scale
I0226 15:02:38.993783 21023 net.cpp:150] Setting up conv0/scale
I0226 15:02:38.993795 21023 net.cpp:157] Top shape: 24 32 150 150 (17280000)
I0226 15:02:38.993801 21023 net.cpp:165] Memory required for data: 414720032
I0226 15:02:38.993813 21023 layer_factory.hpp:77] Creating layer conv0/relu
I0226 15:02:38.993820 21023 net.cpp:100] Creating Layer conv0/relu
I0226 15:02:38.993826 21023 net.cpp:434] conv0/relu <- conv0
I0226 15:02:38.993835 21023 net.cpp:395] conv0/relu -> conv0 (in-place)
I0226 15:02:38.994334 21023 net.cpp:150] Setting up conv0/relu
I0226 15:02:38.994348 21023 net.cpp:157] Top shape: 24 32 150 150 (17280000)
I0226 15:02:38.994354 21023 net.cpp:165] Memory required for data: 483840032
I0226 15:02:38.994359 21023 layer_factory.hpp:77] Creating layer conv1/dw
I0226 15:02:38.994372 21023 net.cpp:100] Creating Layer conv1/dw
I0226 15:02:38.994379 21023 net.cpp:434] conv1/dw <- conv0
I0226 15:02:38.994386 21023 net.cpp:408] conv1/dw -> conv1/dw
I0226 15:02:38.994607 21023 net.cpp:150] Setting up conv1/dw
I0226 15:02:38.994616 21023 net.cpp:157] Top shape: 24 32 150 150 (17280000)
I0226 15:02:38.994621 21023 net.cpp:165] Memory required for data: 552960032
I0226 15:02:38.994628 21023 layer_factory.hpp:77] Creating layer conv1/dw/bn
I0226 15:02:38.994637 21023 net.cpp:100] Creating Layer conv1/dw/bn
I0226 15:02:38.994643 21023 net.cpp:434] conv1/dw/bn <- conv1/dw
I0226 15:02:38.994649 21023 net.cpp:395] conv1/dw/bn -> conv1/dw (in-place)
I0226 15:02:38.994881 21023 net.cpp:150] Setting up conv1/dw/bn
I0226 15:02:38.994892 21023 net.cpp:157] Top shape: 24 32 150 150 (17280000)
I0226 15:02:38.994897 21023 net.cpp:165] Memory required for data: 622080032
I0226 15:02:38.994910 21023 layer_factory.hpp:77] Creating layer conv1/dw/scale
I0226 15:02:38.994920 21023 net.cpp:100] Creating Layer conv1/dw/scale
I0226 15:02:38.994927 21023 net.cpp:434] conv1/dw/scale <- conv1/dw
I0226 15:02:38.994935 21023 net.cpp:395] conv1/dw/scale -> conv1/dw (in-place)
I0226 15:02:38.994978 21023 layer_factory.hpp:77] Creating layer conv1/dw/scale
I0226 15:02:38.995131 21023 net.cpp:150] Setting up conv1/dw/scale
I0226 15:02:38.995141 21023 net.cpp:157] Top shape: 24 32 150 150 (17280000)
I0226 15:02:38.995146 21023 net.cpp:165] Memory required for data: 691200032
I0226 15:02:38.995174 21023 layer_factory.hpp:77] Creating layer conv1/dw/relu
I0226 15:02:38.995199 21023 net.cpp:100] Creating Layer conv1/dw/relu
I0226 15:02:38.995206 21023 net.cpp:434] conv1/dw/relu <- conv1/dw
I0226 15:02:38.995213 21023 net.cpp:395] conv1/dw/relu -> conv1/dw (in-place)
I0226 15:02:38.995656 21023 net.cpp:150] Setting up conv1/dw/relu
I0226 15:02:38.995669 21023 net.cpp:157] Top shape: 24 32 150 150 (17280000)
I0226 15:02:38.995676 21023 net.cpp:165] Memory required for data: 760320032
I0226 15:02:38.995682 21023 layer_factory.hpp:77] Creating layer conv1
I0226 15:02:38.995692 21023 net.cpp:100] Creating Layer conv1
I0226 15:02:38.995698 21023 net.cpp:434] conv1 <- conv1/dw
I0226 15:02:38.995707 21023 net.cpp:408] conv1 -> conv1
I0226 15:02:39.009598 21023 net.cpp:150] Setting up conv1
I0226 15:02:39.009641 21023 net.cpp:157] Top shape: 24 64 150 150 (34560000)
I0226 15:02:39.009650 21023 net.cpp:165] Memory required for data: 898560032
I0226 15:02:39.009668 21023 layer_factory.hpp:77] Creating layer conv1/bn
I0226 15:02:39.009685 21023 net.cpp:100] Creating Layer conv1/bn
I0226 15:02:39.009696 21023 net.cpp:434] conv1/bn <- conv1
I0226 15:02:39.009709 21023 net.cpp:395] conv1/bn -> conv1 (in-place)
I0226 15:02:39.010088 21023 net.cpp:150] Setting up conv1/bn
I0226 15:02:39.010103 21023 net.cpp:157] Top shape: 24 64 150 150 (34560000)
I0226 15:02:39.010113 21023 net.cpp:165] Memory required for data: 1036800032
I0226 15:02:39.010128 21023 layer_factory.hpp:77] Creating layer conv1/scale
I0226 15:02:39.010145 21023 net.cpp:100] Creating Layer conv1/scale
I0226 15:02:39.010154 21023 net.cpp:434] conv1/scale <- conv1
I0226 15:02:39.010164 21023 net.cpp:395] conv1/scale -> conv1 (in-place)
I0226 15:02:39.010232 21023 layer_factory.hpp:77] Creating layer conv1/scale
I0226 15:02:39.010490 21023 net.cpp:150] Setting up conv1/scale
I0226 15:02:39.010506 21023 net.cpp:157] Top shape: 24 64 150 150 (34560000)
I0226 15:02:39.010514 21023 net.cpp:165] Memory required for data: 1175040032
I0226 15:02:39.010535 21023 layer_factory.hpp:77] Creating layer conv1/relu
I0226 15:02:39.010548 21023 net.cpp:100] Creating Layer conv1/relu
I0226 15:02:39.010557 21023 net.cpp:434] conv1/relu <- conv1
I0226 15:02:39.010567 21023 net.cpp:395] conv1/relu -> conv1 (in-place)
I0226 15:02:39.012181 21023 net.cpp:150] Setting up conv1/relu
I0226 15:02:39.012207 21023 net.cpp:157] Top shape: 24 64 150 150 (34560000)
I0226 15:02:39.012217 21023 net.cpp:165] Memory required for data: 1313280032
I0226 15:02:39.012225 21023 layer_factory.hpp:77] Creating layer conv2/dw
I0226 15:02:39.012245 21023 net.cpp:100] Creating Layer conv2/dw
I0226 15:02:39.012257 21023 net.cpp:434] conv2/dw <- conv1
I0226 15:02:39.012270 21023 net.cpp:408] conv2/dw -> conv2/dw
I0226 15:02:39.012640 21023 net.cpp:150] Setting up conv2/dw
I0226 15:02:39.012656 21023 net.cpp:157] Top shape: 24 64 75 75 (8640000)
I0226 15:02:39.012666 21023 net.cpp:165] Memory required for data: 1347840032
I0226 15:02:39.012678 21023 layer_factory.hpp:77] Creating layer conv2/dw/bn
I0226 15:02:39.012691 21023 net.cpp:100] Creating Layer conv2/dw/bn
I0226 15:02:39.012699 21023 net.cpp:434] conv2/dw/bn <- conv2/dw
I0226 15:02:39.012712 21023 net.cpp:395] conv2/dw/bn -> conv2/dw (in-place)
I0226 15:02:39.014842 21023 net.cpp:150] Setting up conv2/dw/bn
I0226 15:02:39.014866 21023 net.cpp:157] Top shape: 24 64 75 75 (8640000)
I0226 15:02:39.014876 21023 net.cpp:165] Memory required for data: 1382400032
I0226 15:02:39.014895 21023 layer_factory.hpp:77] Creating layer conv2/dw/scale
I0226 15:02:39.014914 21023 net.cpp:100] Creating Layer conv2/dw/scale
I0226 15:02:39.014924 21023 net.cpp:434] conv2/dw/scale <- conv2/dw
I0226 15:02:39.014935 21023 net.cpp:395] conv2/dw/scale -> conv2/dw (in-place)
I0226 15:02:39.015022 21023 layer_factory.hpp:77] Creating layer conv2/dw/scale
I0226 15:02:39.015215 21023 net.cpp:150] Setting up conv2/dw/scale
I0226 15:02:39.015230 21023 net.cpp:157] Top shape: 24 64 75 75 (8640000)
I0226 15:02:39.015239 21023 net.cpp:165] Memory required for data: 1416960032
I0226 15:02:39.015254 21023 layer_factory.hpp:77] Creating layer conv2/dw/relu
I0226 15:02:39.015285 21023 net.cpp:100] Creating Layer conv2/dw/relu
I0226 15:02:39.015293 21023 net.cpp:434] conv2/dw/relu <- conv2/dw
I0226 15:02:39.015305 21023 net.cpp:395] conv2/dw/relu -> conv2/dw (in-place)
I0226 15:02:39.015976 21023 net.cpp:150] Setting up conv2/dw/relu
I0226 15:02:39.015995 21023 net.cpp:157] Top shape: 24 64 75 75 (8640000)
I0226 15:02:39.016003 21023 net.cpp:165] Memory required for data: 1451520032
I0226 15:02:39.016012 21023 layer_factory.hpp:77] Creating layer conv2
I0226 15:02:39.016031 21023 net.cpp:100] Creating Layer conv2
I0226 15:02:39.016039 21023 net.cpp:434] conv2 <- conv2/dw
I0226 15:02:39.016052 21023 net.cpp:408] conv2 -> conv2
I0226 15:02:39.020210 21023 net.cpp:150] Setting up conv2
I0226 15:02:39.020243 21023 net.cpp:157] Top shape: 24 128 75 75 (17280000)
I0226 15:02:39.020253 21023 net.cpp:165] Memory required for data: 1520640032
I0226 15:02:39.020268 21023 layer_factory.hpp:77] Creating layer conv2/bn
I0226 15:02:39.020283 21023 net.cpp:100] Creating Layer conv2/bn
I0226 15:02:39.020293 21023 net.cpp:434] conv2/bn <- conv2
I0226 15:02:39.020305 21023 net.cpp:395] conv2/bn -> conv2 (in-place)
I0226 15:02:39.020643 21023 net.cpp:150] Setting up conv2/bn
I0226 15:02:39.020658 21023 net.cpp:157] Top shape: 24 128 75 75 (17280000)
I0226 15:02:39.020668 21023 net.cpp:165] Memory required for data: 1589760032
I0226 15:02:39.020684 21023 layer_factory.hpp:77] Creating layer conv2/scale
I0226 15:02:39.020699 21023 net.cpp:100] Creating Layer conv2/scale
I0226 15:02:39.020707 21023 net.cpp:434] conv2/scale <- conv2
I0226 15:02:39.020720 21023 net.cpp:395] conv2/scale -> conv2 (in-place)
I0226 15:02:39.020787 21023 layer_factory.hpp:77] Creating layer conv2/scale
I0226 15:02:39.020973 21023 net.cpp:150] Setting up conv2/scale
I0226 15:02:39.020987 21023 net.cpp:157] Top shape: 24 128 75 75 (17280000)
I0226 15:02:39.020998 21023 net.cpp:165] Memory required for data: 1658880032
I0226 15:02:39.021061 21023 layer_factory.hpp:77] Creating layer conv2/relu
I0226 15:02:39.021075 21023 net.cpp:100] Creating Layer conv2/relu
I0226 15:02:39.021082 21023 net.cpp:434] conv2/relu <- conv2
I0226 15:02:39.021095 21023 net.cpp:395] conv2/relu -> conv2 (in-place)
I0226 15:02:39.021770 21023 net.cpp:150] Setting up conv2/relu
I0226 15:02:39.021788 21023 net.cpp:157] Top shape: 24 128 75 75 (17280000)
I0226 15:02:39.021796 21023 net.cpp:165] Memory required for data: 1728000032
I0226 15:02:39.021806 21023 layer_factory.hpp:77] Creating layer conv3/dw
I0226 15:02:39.021824 21023 net.cpp:100] Creating Layer conv3/dw
I0226 15:02:39.021832 21023 net.cpp:434] conv3/dw <- conv2
I0226 15:02:39.021844 21023 net.cpp:408] conv3/dw -> conv3/dw
I0226 15:02:39.022169 21023 net.cpp:150] Setting up conv3/dw
I0226 15:02:39.022184 21023 net.cpp:157] Top shape: 24 128 75 75 (17280000)
I0226 15:02:39.022192 21023 net.cpp:165] Memory required for data: 1797120032
I0226 15:02:39.022203 21023 layer_factory.hpp:77] Creating layer conv3/dw/bn
I0226 15:02:39.022217 21023 net.cpp:100] Creating Layer conv3/dw/bn
I0226 15:02:39.022225 21023 net.cpp:434] conv3/dw/bn <- conv3/dw
I0226 15:02:39.022236 21023 net.cpp:395] conv3/dw/bn -> conv3/dw (in-place)
I0226 15:02:39.022555 21023 net.cpp:150] Setting up conv3/dw/bn
I0226 15:02:39.022572 21023 net.cpp:157] Top shape: 24 128 75 75 (17280000)
I0226 15:02:39.022580 21023 net.cpp:165] Memory required for data: 1866240032
I0226 15:02:39.022604 21023 layer_factory.hpp:77] Creating layer conv3/dw/scale
I0226 15:02:39.022619 21023 net.cpp:100] Creating Layer conv3/dw/scale
I0226 15:02:39.022629 21023 net.cpp:434] conv3/dw/scale <- conv3/dw
I0226 15:02:39.022640 21023 net.cpp:395] conv3/dw/scale -> conv3/dw (in-place)
I0226 15:02:39.022719 21023 layer_factory.hpp:77] Creating layer conv3/dw/scale
I0226 15:02:39.022899 21023 net.cpp:150] Setting up conv3/dw/scale
I0226 15:02:39.022915 21023 net.cpp:157] Top shape: 24 128 75 75 (17280000)
I0226 15:02:39.022923 21023 net.cpp:165] Memory required for data: 1935360032
I0226 15:02:39.022935 21023 layer_factory.hpp:77] Creating layer conv3/dw/relu
I0226 15:02:39.022969 21023 net.cpp:100] Creating Layer conv3/dw/relu
I0226 15:02:39.022980 21023 net.cpp:434] conv3/dw/relu <- conv3/dw
I0226 15:02:39.022991 21023 net.cpp:395] conv3/dw/relu -> conv3/dw (in-place)
I0226 15:02:39.029814 21023 net.cpp:150] Setting up conv3/dw/relu
I0226 15:02:39.029847 21023 net.cpp:157] Top shape: 24 128 75 75 (17280000)
I0226 15:02:39.029855 21023 net.cpp:165] Memory required for data: 2004480032
I0226 15:02:39.029862 21023 layer_factory.hpp:77] Creating layer conv3
I0226 15:02:39.029881 21023 net.cpp:100] Creating Layer conv3
I0226 15:02:39.029888 21023 net.cpp:434] conv3 <- conv3/dw
I0226 15:02:39.029901 21023 net.cpp:408] conv3 -> conv3
I0226 15:02:39.032312 21023 net.cpp:150] Setting up conv3
I0226 15:02:39.032332 21023 net.cpp:157] Top shape: 24 128 75 75 (17280000)
I0226 15:02:39.032338 21023 net.cpp:165] Memory required for data: 2073600032
I0226 15:02:39.032351 21023 layer_factory.hpp:77] Creating layer conv3/bn
I0226 15:02:39.032361 21023 net.cpp:100] Creating Layer conv3/bn
I0226 15:02:39.032367 21023 net.cpp:434] conv3/bn <- conv3
I0226 15:02:39.032375 21023 net.cpp:395] conv3/bn -> conv3 (in-place)
I0226 15:02:39.032608 21023 net.cpp:150] Setting up conv3/bn
I0226 15:02:39.032618 21023 net.cpp:157] Top shape: 24 128 75 75 (17280000)
I0226 15:02:39.032624 21023 net.cpp:165] Memory required for data: 2142720032
I0226 15:02:39.032649 21023 layer_factory.hpp:77] Creating layer conv3/scale
I0226 15:02:39.032661 21023 net.cpp:100] Creating Layer conv3/scale
I0226 15:02:39.032667 21023 net.cpp:434] conv3/scale <- conv3
I0226 15:02:39.032675 21023 net.cpp:395] conv3/scale -> conv3 (in-place)
I0226 15:02:39.032722 21023 layer_factory.hpp:77] Creating layer conv3/scale
I0226 15:02:39.032852 21023 net.cpp:150] Setting up conv3/scale
I0226 15:02:39.032861 21023 net.cpp:157] Top shape: 24 128 75 75 (17280000)
I0226 15:02:39.032866 21023 net.cpp:165] Memory required for data: 2211840032
I0226 15:02:39.032874 21023 layer_factory.hpp:77] Creating layer conv3/relu
I0226 15:02:39.032884 21023 net.cpp:100] Creating Layer conv3/relu
I0226 15:02:39.032889 21023 net.cpp:434] conv3/relu <- conv3
I0226 15:02:39.032896 21023 net.cpp:395] conv3/relu -> conv3 (in-place)
I0226 15:02:39.033402 21023 net.cpp:150] Setting up conv3/relu
I0226 15:02:39.033418 21023 net.cpp:157] Top shape: 24 128 75 75 (17280000)
I0226 15:02:39.033440 21023 net.cpp:165] Memory required for data: 2280960032
I0226 15:02:39.033447 21023 layer_factory.hpp:77] Creating layer conv4/dw
I0226 15:02:39.033458 21023 net.cpp:100] Creating Layer conv4/dw
I0226 15:02:39.033466 21023 net.cpp:434] conv4/dw <- conv3
I0226 15:02:39.033475 21023 net.cpp:408] conv4/dw -> conv4/dw
I0226 15:02:39.033716 21023 net.cpp:150] Setting up conv4/dw
I0226 15:02:39.033728 21023 net.cpp:157] Top shape: 24 128 38 38 (4435968)
I0226 15:02:39.033735 21023 net.cpp:165] Memory required for data: 2298703904
I0226 15:02:39.033757 21023 layer_factory.hpp:77] Creating layer conv4/dw/bn
I0226 15:02:39.033766 21023 net.cpp:100] Creating Layer conv4/dw/bn
I0226 15:02:39.033771 21023 net.cpp:434] conv4/dw/bn <- conv4/dw
I0226 15:02:39.033780 21023 net.cpp:395] conv4/dw/bn -> conv4/dw (in-place)
I0226 15:02:39.033978 21023 net.cpp:150] Setting up conv4/dw/bn
I0226 15:02:39.033987 21023 net.cpp:157] Top shape: 24 128 38 38 (4435968)
I0226 15:02:39.033993 21023 net.cpp:165] Memory required for data: 2316447776
I0226 15:02:39.034003 21023 layer_factory.hpp:77] Creating layer conv4/dw/scale
I0226 15:02:39.034015 21023 net.cpp:100] Creating Layer conv4/dw/scale
I0226 15:02:39.034021 21023 net.cpp:434] conv4/dw/scale <- conv4/dw
I0226 15:02:39.034029 21023 net.cpp:395] conv4/dw/scale -> conv4/dw (in-place)
I0226 15:02:39.034073 21023 layer_factory.hpp:77] Creating layer conv4/dw/scale
I0226 15:02:39.034194 21023 net.cpp:150] Setting up conv4/dw/scale
I0226 15:02:39.034204 21023 net.cpp:157] Top shape: 24 128 38 38 (4435968)
I0226 15:02:39.034209 21023 net.cpp:165] Memory required for data: 2334191648
I0226 15:02:39.034225 21023 layer_factory.hpp:77] Creating layer conv4/dw/relu
I0226 15:02:39.034241 21023 net.cpp:100] Creating Layer conv4/dw/relu
I0226 15:02:39.034247 21023 net.cpp:434] conv4/dw/relu <- conv4/dw
I0226 15:02:39.034255 21023 net.cpp:395] conv4/dw/relu -> conv4/dw (in-place)
I0226 15:02:39.034699 21023 net.cpp:150] Setting up conv4/dw/relu
I0226 15:02:39.034713 21023 net.cpp:157] Top shape: 24 128 38 38 (4435968)
I0226 15:02:39.034718 21023 net.cpp:165] Memory required for data: 2351935520
I0226 15:02:39.034724 21023 layer_factory.hpp:77] Creating layer conv4
I0226 15:02:39.034736 21023 net.cpp:100] Creating Layer conv4
I0226 15:02:39.034742 21023 net.cpp:434] conv4 <- conv4/dw
I0226 15:02:39.034750 21023 net.cpp:408] conv4 -> conv4
I0226 15:02:39.037225 21023 net.cpp:150] Setting up conv4
I0226 15:02:39.037246 21023 net.cpp:157] Top shape: 24 256 38 38 (8871936)
I0226 15:02:39.037252 21023 net.cpp:165] Memory required for data: 2387423264
I0226 15:02:39.037261 21023 layer_factory.hpp:77] Creating layer conv4/bn
I0226 15:02:39.037271 21023 net.cpp:100] Creating Layer conv4/bn
I0226 15:02:39.037277 21023 net.cpp:434] conv4/bn <- conv4
I0226 15:02:39.037286 21023 net.cpp:395] conv4/bn -> conv4 (in-place)
I0226 15:02:39.037540 21023 net.cpp:150] Setting up conv4/bn
I0226 15:02:39.037550 21023 net.cpp:157] Top shape: 24 256 38 38 (8871936)
I0226 15:02:39.037557 21023 net.cpp:165] Memory required for data: 2422911008
I0226 15:02:39.037567 21023 layer_factory.hpp:77] Creating layer conv4/scale
I0226 15:02:39.037576 21023 net.cpp:100] Creating Layer conv4/scale
I0226 15:02:39.037582 21023 net.cpp:434] conv4/scale <- conv4
I0226 15:02:39.037591 21023 net.cpp:395] conv4/scale -> conv4 (in-place)
I0226 15:02:39.037638 21023 layer_factory.hpp:77] Creating layer conv4/scale
I0226 15:02:39.037765 21023 net.cpp:150] Setting up conv4/scale
I0226 15:02:39.037773 21023 net.cpp:157] Top shape: 24 256 38 38 (8871936)
I0226 15:02:39.037781 21023 net.cpp:165] Memory required for data: 2458398752
I0226 15:02:39.037788 21023 layer_factory.hpp:77] Creating layer conv4/relu
I0226 15:02:39.037796 21023 net.cpp:100] Creating Layer conv4/relu
I0226 15:02:39.037802 21023 net.cpp:434] conv4/relu <- conv4
I0226 15:02:39.037811 21023 net.cpp:395] conv4/relu -> conv4 (in-place)
I0226 15:02:39.038271 21023 net.cpp:150] Setting up conv4/relu
I0226 15:02:39.038285 21023 net.cpp:157] Top shape: 24 256 38 38 (8871936)
I0226 15:02:39.038290 21023 net.cpp:165] Memory required for data: 2493886496
I0226 15:02:39.038297 21023 layer_factory.hpp:77] Creating layer conv5/dw
I0226 15:02:39.038308 21023 net.cpp:100] Creating Layer conv5/dw
I0226 15:02:39.038313 21023 net.cpp:434] conv5/dw <- conv4
I0226 15:02:39.038322 21023 net.cpp:408] conv5/dw -> conv5/dw
I0226 15:02:39.038568 21023 net.cpp:150] Setting up conv5/dw
I0226 15:02:39.038578 21023 net.cpp:157] Top shape: 24 256 38 38 (8871936)
I0226 15:02:39.038583 21023 net.cpp:165] Memory required for data: 2529374240
I0226 15:02:39.038590 21023 layer_factory.hpp:77] Creating layer conv5/dw/bn
I0226 15:02:39.038599 21023 net.cpp:100] Creating Layer conv5/dw/bn
I0226 15:02:39.038604 21023 net.cpp:434] conv5/dw/bn <- conv5/dw
I0226 15:02:39.038611 21023 net.cpp:395] conv5/dw/bn -> conv5/dw (in-place)
I0226 15:02:39.038810 21023 net.cpp:150] Setting up conv5/dw/bn
I0226 15:02:39.038820 21023 net.cpp:157] Top shape: 24 256 38 38 (8871936)
I0226 15:02:39.038825 21023 net.cpp:165] Memory required for data: 2564861984
I0226 15:02:39.038836 21023 layer_factory.hpp:77] Creating layer conv5/dw/scale
I0226 15:02:39.038843 21023 net.cpp:100] Creating Layer conv5/dw/scale
I0226 15:02:39.038851 21023 net.cpp:434] conv5/dw/scale <- conv5/dw
I0226 15:02:39.038857 21023 net.cpp:395] conv5/dw/scale -> conv5/dw (in-place)
I0226 15:02:39.038902 21023 layer_factory.hpp:77] Creating layer conv5/dw/scale
I0226 15:02:39.039041 21023 net.cpp:150] Setting up conv5/dw/scale
I0226 15:02:39.039052 21023 net.cpp:157] Top shape: 24 256 38 38 (8871936)
I0226 15:02:39.039057 21023 net.cpp:165] Memory required for data: 2600349728
I0226 15:02:39.039072 21023 layer_factory.hpp:77] Creating layer conv5/dw/relu
I0226 15:02:39.039086 21023 net.cpp:100] Creating Layer conv5/dw/relu
I0226 15:02:39.039093 21023 net.cpp:434] conv5/dw/relu <- conv5/dw
I0226 15:02:39.039101 21023 net.cpp:395] conv5/dw/relu -> conv5/dw (in-place)
I0226 15:02:39.039986 21023 net.cpp:150] Setting up conv5/dw/relu
I0226 15:02:39.040004 21023 net.cpp:157] Top shape: 24 256 38 38 (8871936)
I0226 15:02:39.040011 21023 net.cpp:165] Memory required for data: 2635837472
I0226 15:02:39.040017 21023 layer_factory.hpp:77] Creating layer conv5
I0226 15:02:39.040046 21023 net.cpp:100] Creating Layer conv5
I0226 15:02:39.040053 21023 net.cpp:434] conv5 <- conv5/dw
I0226 15:02:39.040063 21023 net.cpp:408] conv5 -> conv5
I0226 15:02:39.042953 21023 net.cpp:150] Setting up conv5
I0226 15:02:39.042971 21023 net.cpp:157] Top shape: 24 256 38 38 (8871936)
I0226 15:02:39.042978 21023 net.cpp:165] Memory required for data: 2671325216
I0226 15:02:39.042987 21023 layer_factory.hpp:77] Creating layer conv5/bn
I0226 15:02:39.042995 21023 net.cpp:100] Creating Layer conv5/bn
I0226 15:02:39.043001 21023 net.cpp:434] conv5/bn <- conv5
I0226 15:02:39.043009 21023 net.cpp:395] conv5/bn -> conv5 (in-place)
I0226 15:02:39.043227 21023 net.cpp:150] Setting up conv5/bn
I0226 15:02:39.043237 21023 net.cpp:157] Top shape: 24 256 38 38 (8871936)
I0226 15:02:39.043242 21023 net.cpp:165] Memory required for data: 2706812960
I0226 15:02:39.043252 21023 layer_factory.hpp:77] Creating layer conv5/scale
I0226 15:02:39.043262 21023 net.cpp:100] Creating Layer conv5/scale
I0226 15:02:39.043268 21023 net.cpp:434] conv5/scale <- conv5
I0226 15:02:39.043275 21023 net.cpp:395] conv5/scale -> conv5 (in-place)
I0226 15:02:39.043339 21023 layer_factory.hpp:77] Creating layer conv5/scale
I0226 15:02:39.043464 21023 net.cpp:150] Setting up conv5/scale
I0226 15:02:39.043474 21023 net.cpp:157] Top shape: 24 256 38 38 (8871936)
I0226 15:02:39.043479 21023 net.cpp:165] Memory required for data: 2742300704
I0226 15:02:39.043496 21023 layer_factory.hpp:77] Creating layer conv5/relu
I0226 15:02:39.043505 21023 net.cpp:100] Creating Layer conv5/relu
I0226 15:02:39.043510 21023 net.cpp:434] conv5/relu <- conv5
I0226 15:02:39.043519 21023 net.cpp:395] conv5/relu -> conv5 (in-place)
I0226 15:02:39.043968 21023 net.cpp:150] Setting up conv5/relu
I0226 15:02:39.043982 21023 net.cpp:157] Top shape: 24 256 38 38 (8871936)
I0226 15:02:39.043987 21023 net.cpp:165] Memory required for data: 2777788448
I0226 15:02:39.043993 21023 layer_factory.hpp:77] Creating layer conv6/dw
I0226 15:02:39.044004 21023 net.cpp:100] Creating Layer conv6/dw
I0226 15:02:39.044011 21023 net.cpp:434] conv6/dw <- conv5
I0226 15:02:39.044019 21023 net.cpp:408] conv6/dw -> conv6/dw
I0226 15:02:39.044267 21023 net.cpp:150] Setting up conv6/dw
I0226 15:02:39.044277 21023 net.cpp:157] Top shape: 24 256 19 19 (2217984)
I0226 15:02:39.044283 21023 net.cpp:165] Memory required for data: 2786660384
I0226 15:02:39.044292 21023 layer_factory.hpp:77] Creating layer conv6/dw/bn
I0226 15:02:39.044301 21023 net.cpp:100] Creating Layer conv6/dw/bn
I0226 15:02:39.044306 21023 net.cpp:434] conv6/dw/bn <- conv6/dw
I0226 15:02:39.044313 21023 net.cpp:395] conv6/dw/bn -> conv6/dw (in-place)
I0226 15:02:39.044548 21023 net.cpp:150] Setting up conv6/dw/bn
I0226 15:02:39.044558 21023 net.cpp:157] Top shape: 24 256 19 19 (2217984)
I0226 15:02:39.044564 21023 net.cpp:165] Memory required for data: 2795532320
I0226 15:02:39.044574 21023 layer_factory.hpp:77] Creating layer conv6/dw/scale
I0226 15:02:39.044582 21023 net.cpp:100] Creating Layer conv6/dw/scale
I0226 15:02:39.044589 21023 net.cpp:434] conv6/dw/scale <- conv6/dw
I0226 15:02:39.044595 21023 net.cpp:395] conv6/dw/scale -> conv6/dw (in-place)
I0226 15:02:39.044642 21023 layer_factory.hpp:77] Creating layer conv6/dw/scale
I0226 15:02:39.044783 21023 net.cpp:150] Setting up conv6/dw/scale
I0226 15:02:39.044792 21023 net.cpp:157] Top shape: 24 256 19 19 (2217984)
I0226 15:02:39.044797 21023 net.cpp:165] Memory required for data: 2804404256
I0226 15:02:39.044807 21023 layer_factory.hpp:77] Creating layer conv6/dw/relu
I0226 15:02:39.044827 21023 net.cpp:100] Creating Layer conv6/dw/relu
I0226 15:02:39.044833 21023 net.cpp:434] conv6/dw/relu <- conv6/dw
I0226 15:02:39.044840 21023 net.cpp:395] conv6/dw/relu -> conv6/dw (in-place)
I0226 15:02:39.045349 21023 net.cpp:150] Setting up conv6/dw/relu
I0226 15:02:39.045364 21023 net.cpp:157] Top shape: 24 256 19 19 (2217984)
I0226 15:02:39.045369 21023 net.cpp:165] Memory required for data: 2813276192
I0226 15:02:39.045375 21023 layer_factory.hpp:77] Creating layer conv6
I0226 15:02:39.045387 21023 net.cpp:100] Creating Layer conv6
I0226 15:02:39.045392 21023 net.cpp:434] conv6 <- conv6/dw
I0226 15:02:39.045402 21023 net.cpp:408] conv6 -> conv6
I0226 15:02:39.055122 21023 net.cpp:150] Setting up conv6
I0226 15:02:39.055155 21023 net.cpp:157] Top shape: 24 512 19 19 (4435968)
I0226 15:02:39.055161 21023 net.cpp:165] Memory required for data: 2831020064
I0226 15:02:39.055171 21023 layer_factory.hpp:77] Creating layer conv6/bn
I0226 15:02:39.055183 21023 net.cpp:100] Creating Layer conv6/bn
I0226 15:02:39.055192 21023 net.cpp:434] conv6/bn <- conv6
I0226 15:02:39.055202 21023 net.cpp:395] conv6/bn -> conv6 (in-place)
I0226 15:02:39.055433 21023 net.cpp:150] Setting up conv6/bn
I0226 15:02:39.055443 21023 net.cpp:157] Top shape: 24 512 19 19 (4435968)
I0226 15:02:39.055449 21023 net.cpp:165] Memory required for data: 2848763936
I0226 15:02:39.055459 21023 layer_factory.hpp:77] Creating layer conv6/scale
I0226 15:02:39.055470 21023 net.cpp:100] Creating Layer conv6/scale
I0226 15:02:39.055476 21023 net.cpp:434] conv6/scale <- conv6
I0226 15:02:39.055485 21023 net.cpp:395] conv6/scale -> conv6 (in-place)
I0226 15:02:39.055538 21023 layer_factory.hpp:77] Creating layer conv6/scale
I0226 15:02:39.055661 21023 net.cpp:150] Setting up conv6/scale
I0226 15:02:39.055670 21023 net.cpp:157] Top shape: 24 512 19 19 (4435968)
I0226 15:02:39.055677 21023 net.cpp:165] Memory required for data: 2866507808
I0226 15:02:39.055685 21023 layer_factory.hpp:77] Creating layer conv6/relu
I0226 15:02:39.055692 21023 net.cpp:100] Creating Layer conv6/relu
I0226 15:02:39.055698 21023 net.cpp:434] conv6/relu <- conv6
I0226 15:02:39.055706 21023 net.cpp:395] conv6/relu -> conv6 (in-place)
I0226 15:02:39.056574 21023 net.cpp:150] Setting up conv6/relu
I0226 15:02:39.056592 21023 net.cpp:157] Top shape: 24 512 19 19 (4435968)
I0226 15:02:39.056598 21023 net.cpp:165] Memory required for data: 2884251680
I0226 15:02:39.056605 21023 layer_factory.hpp:77] Creating layer conv7/dw
I0226 15:02:39.056618 21023 net.cpp:100] Creating Layer conv7/dw
I0226 15:02:39.056624 21023 net.cpp:434] conv7/dw <- conv6
I0226 15:02:39.056634 21023 net.cpp:408] conv7/dw -> conv7/dw
I0226 15:02:39.056923 21023 net.cpp:150] Setting up conv7/dw
I0226 15:02:39.056936 21023 net.cpp:157] Top shape: 24 512 19 19 (4435968)
I0226 15:02:39.056941 21023 net.cpp:165] Memory required for data: 2901995552
I0226 15:02:39.056948 21023 layer_factory.hpp:77] Creating layer conv7/dw/bn
I0226 15:02:39.056957 21023 net.cpp:100] Creating Layer conv7/dw/bn
I0226 15:02:39.056963 21023 net.cpp:434] conv7/dw/bn <- conv7/dw
I0226 15:02:39.056970 21023 net.cpp:395] conv7/dw/bn -> conv7/dw (in-place)
I0226 15:02:39.057235 21023 net.cpp:150] Setting up conv7/dw/bn
I0226 15:02:39.057246 21023 net.cpp:157] Top shape: 24 512 19 19 (4435968)
I0226 15:02:39.057252 21023 net.cpp:165] Memory required for data: 2919739424
I0226 15:02:39.057261 21023 layer_factory.hpp:77] Creating layer conv7/dw/scale
I0226 15:02:39.057271 21023 net.cpp:100] Creating Layer conv7/dw/scale
I0226 15:02:39.057277 21023 net.cpp:434] conv7/dw/scale <- conv7/dw
I0226 15:02:39.057284 21023 net.cpp:395] conv7/dw/scale -> conv7/dw (in-place)
I0226 15:02:39.057350 21023 layer_factory.hpp:77] Creating layer conv7/dw/scale
I0226 15:02:39.057474 21023 net.cpp:150] Setting up conv7/dw/scale
I0226 15:02:39.057485 21023 net.cpp:157] Top shape: 24 512 19 19 (4435968)
I0226 15:02:39.057490 21023 net.cpp:165] Memory required for data: 2937483296
I0226 15:02:39.057499 21023 layer_factory.hpp:77] Creating layer conv7/dw/relu
I0226 15:02:39.057526 21023 net.cpp:100] Creating Layer conv7/dw/relu
I0226 15:02:39.057533 21023 net.cpp:434] conv7/dw/relu <- conv7/dw
I0226 15:02:39.057540 21023 net.cpp:395] conv7/dw/relu -> conv7/dw (in-place)
I0226 15:02:39.057973 21023 net.cpp:150] Setting up conv7/dw/relu
I0226 15:02:39.057986 21023 net.cpp:157] Top shape: 24 512 19 19 (4435968)
I0226 15:02:39.057993 21023 net.cpp:165] Memory required for data: 2955227168
I0226 15:02:39.057998 21023 layer_factory.hpp:77] Creating layer conv7
I0226 15:02:39.058009 21023 net.cpp:100] Creating Layer conv7
I0226 15:02:39.058015 21023 net.cpp:434] conv7 <- conv7/dw
I0226 15:02:39.058025 21023 net.cpp:408] conv7 -> conv7
I0226 15:02:39.072819 21023 net.cpp:150] Setting up conv7
I0226 15:02:39.072898 21023 net.cpp:157] Top shape: 24 512 19 19 (4435968)
I0226 15:02:39.072938 21023 net.cpp:165] Memory required for data: 2972971040
I0226 15:02:39.072958 21023 layer_factory.hpp:77] Creating layer conv7/bn
I0226 15:02:39.072976 21023 net.cpp:100] Creating Layer conv7/bn
I0226 15:02:39.072986 21023 net.cpp:434] conv7/bn <- conv7
I0226 15:02:39.073037 21023 net.cpp:395] conv7/bn -> conv7 (in-place)
I0226 15:02:39.073460 21023 net.cpp:150] Setting up conv7/bn
I0226 15:02:39.073477 21023 net.cpp:157] Top shape: 24 512 19 19 (4435968)
I0226 15:02:39.073484 21023 net.cpp:165] Memory required for data: 2990714912
I0226 15:02:39.073500 21023 layer_factory.hpp:77] Creating layer conv7/scale
I0226 15:02:39.073518 21023 net.cpp:100] Creating Layer conv7/scale
I0226 15:02:39.073525 21023 net.cpp:434] conv7/scale <- conv7
I0226 15:02:39.073536 21023 net.cpp:395] conv7/scale -> conv7 (in-place)
I0226 15:02:39.073614 21023 layer_factory.hpp:77] Creating layer conv7/scale
I0226 15:02:39.073812 21023 net.cpp:150] Setting up conv7/scale
I0226 15:02:39.073825 21023 net.cpp:157] Top shape: 24 512 19 19 (4435968)
I0226 15:02:39.073833 21023 net.cpp:165] Memory required for data: 3008458784
I0226 15:02:39.073845 21023 layer_factory.hpp:77] Creating layer conv7/relu
I0226 15:02:39.073859 21023 net.cpp:100] Creating Layer conv7/relu
I0226 15:02:39.073868 21023 net.cpp:434] conv7/relu <- conv7
I0226 15:02:39.073878 21023 net.cpp:395] conv7/relu -> conv7 (in-place)
I0226 15:02:39.074636 21023 net.cpp:150] Setting up conv7/relu
I0226 15:02:39.074656 21023 net.cpp:157] Top shape: 24 512 19 19 (4435968)
I0226 15:02:39.074663 21023 net.cpp:165] Memory required for data: 3026202656
I0226 15:02:39.074672 21023 layer_factory.hpp:77] Creating layer conv8/dw
I0226 15:02:39.074689 21023 net.cpp:100] Creating Layer conv8/dw
I0226 15:02:39.074699 21023 net.cpp:434] conv8/dw <- conv7
I0226 15:02:39.074712 21023 net.cpp:408] conv8/dw -> conv8/dw
I0226 15:02:39.075146 21023 net.cpp:150] Setting up conv8/dw
I0226 15:02:39.075161 21023 net.cpp:157] Top shape: 24 512 19 19 (4435968)
I0226 15:02:39.075170 21023 net.cpp:165] Memory required for data: 3043946528
I0226 15:02:39.075181 21023 layer_factory.hpp:77] Creating layer conv8/dw/bn
I0226 15:02:39.075193 21023 net.cpp:100] Creating Layer conv8/dw/bn
I0226 15:02:39.075201 21023 net.cpp:434] conv8/dw/bn <- conv8/dw
I0226 15:02:39.075213 21023 net.cpp:395] conv8/dw/bn -> conv8/dw (in-place)
I0226 15:02:39.075541 21023 net.cpp:150] Setting up conv8/dw/bn
I0226 15:02:39.075554 21023 net.cpp:157] Top shape: 24 512 19 19 (4435968)
I0226 15:02:39.075562 21023 net.cpp:165] Memory required for data: 3061690400
I0226 15:02:39.075579 21023 layer_factory.hpp:77] Creating layer conv8/dw/scale
I0226 15:02:39.075599 21023 net.cpp:100] Creating Layer conv8/dw/scale
I0226 15:02:39.075608 21023 net.cpp:434] conv8/dw/scale <- conv8/dw
I0226 15:02:39.075618 21023 net.cpp:395] conv8/dw/scale -> conv8/dw (in-place)
I0226 15:02:39.075690 21023 layer_factory.hpp:77] Creating layer conv8/dw/scale
I0226 15:02:39.075871 21023 net.cpp:150] Setting up conv8/dw/scale
I0226 15:02:39.075884 21023 net.cpp:157] Top shape: 24 512 19 19 (4435968)
I0226 15:02:39.075892 21023 net.cpp:165] Memory required for data: 3079434272
I0226 15:02:39.075906 21023 layer_factory.hpp:77] Creating layer conv8/dw/relu
I0226 15:02:39.076375 21023 net.cpp:100] Creating Layer conv8/dw/relu
I0226 15:02:39.076386 21023 net.cpp:434] conv8/dw/relu <- conv8/dw
I0226 15:02:39.076397 21023 net.cpp:395] conv8/dw/relu -> conv8/dw (in-place)
I0226 15:02:39.078060 21023 net.cpp:150] Setting up conv8/dw/relu
I0226 15:02:39.078088 21023 net.cpp:157] Top shape: 24 512 19 19 (4435968)
I0226 15:02:39.078095 21023 net.cpp:165] Memory required for data: 3097178144
I0226 15:02:39.078104 21023 layer_factory.hpp:77] Creating layer conv8
I0226 15:02:39.078125 21023 net.cpp:100] Creating Layer conv8
I0226 15:02:39.078135 21023 net.cpp:434] conv8 <- conv8/dw
I0226 15:02:39.078147 21023 net.cpp:408] conv8 -> conv8
I0226 15:02:39.091006 21023 net.cpp:150] Setting up conv8
I0226 15:02:39.091043 21023 net.cpp:157] Top shape: 24 512 19 19 (4435968)
I0226 15:02:39.091053 21023 net.cpp:165] Memory required for data: 3114922016
I0226 15:02:39.091068 21023 layer_factory.hpp:77] Creating layer conv8/bn
I0226 15:02:39.091086 21023 net.cpp:100] Creating Layer conv8/bn
I0226 15:02:39.091097 21023 net.cpp:434] conv8/bn <- conv8
I0226 15:02:39.091114 21023 net.cpp:395] conv8/bn -> conv8 (in-place)
I0226 15:02:39.091473 21023 net.cpp:150] Setting up conv8/bn
I0226 15:02:39.091488 21023 net.cpp:157] Top shape: 24 512 19 19 (4435968)
I0226 15:02:39.091498 21023 net.cpp:165] Memory required for data: 3132665888
I0226 15:02:39.091513 21023 layer_factory.hpp:77] Creating layer conv8/scale
I0226 15:02:39.091545 21023 net.cpp:100] Creating Layer conv8/scale
I0226 15:02:39.091553 21023 net.cpp:434] conv8/scale <- conv8
I0226 15:02:39.091567 21023 net.cpp:395] conv8/scale -> conv8 (in-place)
I0226 15:02:39.091650 21023 layer_factory.hpp:77] Creating layer conv8/scale
I0226 15:02:39.091872 21023 net.cpp:150] Setting up conv8/scale
I0226 15:02:39.091887 21023 net.cpp:157] Top shape: 24 512 19 19 (4435968)
I0226 15:02:39.091897 21023 net.cpp:165] Memory required for data: 3150409760
I0226 15:02:39.091909 21023 layer_factory.hpp:77] Creating layer conv8/relu
I0226 15:02:39.091922 21023 net.cpp:100] Creating Layer conv8/relu
I0226 15:02:39.091930 21023 net.cpp:434] conv8/relu <- conv8
I0226 15:02:39.091943 21023 net.cpp:395] conv8/relu -> conv8 (in-place)
I0226 15:02:39.092710 21023 net.cpp:150] Setting up conv8/relu
I0226 15:02:39.092731 21023 net.cpp:157] Top shape: 24 512 19 19 (4435968)
I0226 15:02:39.092739 21023 net.cpp:165] Memory required for data: 3168153632
I0226 15:02:39.092749 21023 layer_factory.hpp:77] Creating layer conv9/dw
I0226 15:02:39.092769 21023 net.cpp:100] Creating Layer conv9/dw
I0226 15:02:39.092778 21023 net.cpp:434] conv9/dw <- conv8
I0226 15:02:39.092792 21023 net.cpp:408] conv9/dw -> conv9/dw
I0226 15:02:39.093305 21023 net.cpp:150] Setting up conv9/dw
I0226 15:02:39.093324 21023 net.cpp:157] Top shape: 24 512 19 19 (4435968)
I0226 15:02:39.093348 21023 net.cpp:165] Memory required for data: 3185897504
I0226 15:02:39.093358 21023 layer_factory.hpp:77] Creating layer conv9/dw/bn
I0226 15:02:39.093372 21023 net.cpp:100] Creating Layer conv9/dw/bn
I0226 15:02:39.093380 21023 net.cpp:434] conv9/dw/bn <- conv9/dw
I0226 15:02:39.093390 21023 net.cpp:395] conv9/dw/bn -> conv9/dw (in-place)
I0226 15:02:39.093724 21023 net.cpp:150] Setting up conv9/dw/bn
I0226 15:02:39.093755 21023 net.cpp:157] Top shape: 24 512 19 19 (4435968)
I0226 15:02:39.093762 21023 net.cpp:165] Memory required for data: 3203641376
I0226 15:02:39.093776 21023 layer_factory.hpp:77] Creating layer conv9/dw/scale
I0226 15:02:39.093791 21023 net.cpp:100] Creating Layer conv9/dw/scale
I0226 15:02:39.093801 21023 net.cpp:434] conv9/dw/scale <- conv9/dw
I0226 15:02:39.093812 21023 net.cpp:395] conv9/dw/scale -> conv9/dw (in-place)
I0226 15:02:39.093888 21023 layer_factory.hpp:77] Creating layer conv9/dw/scale
I0226 15:02:39.094127 21023 net.cpp:150] Setting up conv9/dw/scale
I0226 15:02:39.094143 21023 net.cpp:157] Top shape: 24 512 19 19 (4435968)
I0226 15:02:39.094151 21023 net.cpp:165] Memory required for data: 3221385248
I0226 15:02:39.094163 21023 layer_factory.hpp:77] Creating layer conv9/dw/relu
I0226 15:02:39.094197 21023 net.cpp:100] Creating Layer conv9/dw/relu
I0226 15:02:39.094208 21023 net.cpp:434] conv9/dw/relu <- conv9/dw
I0226 15:02:39.094218 21023 net.cpp:395] conv9/dw/relu -> conv9/dw (in-place)
I0226 15:02:39.095008 21023 net.cpp:150] Setting up conv9/dw/relu
I0226 15:02:39.095029 21023 net.cpp:157] Top shape: 24 512 19 19 (4435968)
I0226 15:02:39.095038 21023 net.cpp:165] Memory required for data: 3239129120
I0226 15:02:39.095047 21023 layer_factory.hpp:77] Creating layer conv9
I0226 15:02:39.095064 21023 net.cpp:100] Creating Layer conv9
I0226 15:02:39.095074 21023 net.cpp:434] conv9 <- conv9/dw
I0226 15:02:39.095088 21023 net.cpp:408] conv9 -> conv9
I0226 15:02:39.104058 21023 net.cpp:150] Setting up conv9
I0226 15:02:39.104099 21023 net.cpp:157] Top shape: 24 512 19 19 (4435968)
I0226 15:02:39.104110 21023 net.cpp:165] Memory required for data: 3256872992
I0226 15:02:39.104127 21023 layer_factory.hpp:77] Creating layer conv9/bn
I0226 15:02:39.104145 21023 net.cpp:100] Creating Layer conv9/bn
I0226 15:02:39.104153 21023 net.cpp:434] conv9/bn <- conv9
I0226 15:02:39.104169 21023 net.cpp:395] conv9/bn -> conv9 (in-place)
I0226 15:02:39.104465 21023 net.cpp:150] Setting up conv9/bn
I0226 15:02:39.104485 21023 net.cpp:157] Top shape: 24 512 19 19 (4435968)
I0226 15:02:39.104497 21023 net.cpp:165] Memory required for data: 3274616864
I0226 15:02:39.104519 21023 layer_factory.hpp:77] Creating layer conv9/scale
I0226 15:02:39.104539 21023 net.cpp:100] Creating Layer conv9/scale
I0226 15:02:39.104548 21023 net.cpp:434] conv9/scale <- conv9
I0226 15:02:39.104562 21023 net.cpp:395] conv9/scale -> conv9 (in-place)
I0226 15:02:39.104637 21023 layer_factory.hpp:77] Creating layer conv9/scale
I0226 15:02:39.104804 21023 net.cpp:150] Setting up conv9/scale
I0226 15:02:39.104812 21023 net.cpp:157] Top shape: 24 512 19 19 (4435968)
I0226 15:02:39.104818 21023 net.cpp:165] Memory required for data: 3292360736
I0226 15:02:39.104835 21023 layer_factory.hpp:77] Creating layer conv9/relu
I0226 15:02:39.104843 21023 net.cpp:100] Creating Layer conv9/relu
I0226 15:02:39.104849 21023 net.cpp:434] conv9/relu <- conv9
I0226 15:02:39.104866 21023 net.cpp:395] conv9/relu -> conv9 (in-place)
I0226 15:02:39.105690 21023 net.cpp:150] Setting up conv9/relu
I0226 15:02:39.105713 21023 net.cpp:157] Top shape: 24 512 19 19 (4435968)
I0226 15:02:39.105722 21023 net.cpp:165] Memory required for data: 3310104608
I0226 15:02:39.105731 21023 layer_factory.hpp:77] Creating layer conv10/dw
I0226 15:02:39.105749 21023 net.cpp:100] Creating Layer conv10/dw
I0226 15:02:39.105759 21023 net.cpp:434] conv10/dw <- conv9
I0226 15:02:39.105774 21023 net.cpp:408] conv10/dw -> conv10/dw
I0226 15:02:39.106262 21023 net.cpp:150] Setting up conv10/dw
I0226 15:02:39.106278 21023 net.cpp:157] Top shape: 24 512 19 19 (4435968)
I0226 15:02:39.106288 21023 net.cpp:165] Memory required for data: 3327848480
I0226 15:02:39.106298 21023 layer_factory.hpp:77] Creating layer conv10/dw/bn
I0226 15:02:39.106309 21023 net.cpp:100] Creating Layer conv10/dw/bn
I0226 15:02:39.106317 21023 net.cpp:434] conv10/dw/bn <- conv10/dw
I0226 15:02:39.106334 21023 net.cpp:395] conv10/dw/bn -> conv10/dw (in-place)
I0226 15:02:39.106672 21023 net.cpp:150] Setting up conv10/dw/bn
I0226 15:02:39.106685 21023 net.cpp:157] Top shape: 24 512 19 19 (4435968)
I0226 15:02:39.106693 21023 net.cpp:165] Memory required for data: 3345592352
I0226 15:02:39.106709 21023 layer_factory.hpp:77] Creating layer conv10/dw/scale
I0226 15:02:39.106721 21023 net.cpp:100] Creating Layer conv10/dw/scale
I0226 15:02:39.106729 21023 net.cpp:434] conv10/dw/scale <- conv10/dw
I0226 15:02:39.106741 21023 net.cpp:395] conv10/dw/scale -> conv10/dw (in-place)
I0226 15:02:39.106812 21023 layer_factory.hpp:77] Creating layer conv10/dw/scale
I0226 15:02:39.107030 21023 net.cpp:150] Setting up conv10/dw/scale
I0226 15:02:39.107044 21023 net.cpp:157] Top shape: 24 512 19 19 (4435968)
I0226 15:02:39.107053 21023 net.cpp:165] Memory required for data: 3363336224
I0226 15:02:39.107076 21023 layer_factory.hpp:77] Creating layer conv10/dw/relu
I0226 15:02:39.107100 21023 net.cpp:100] Creating Layer conv10/dw/relu
I0226 15:02:39.107108 21023 net.cpp:434] conv10/dw/relu <- conv10/dw
I0226 15:02:39.107120 21023 net.cpp:395] conv10/dw/relu -> conv10/dw (in-place)
I0226 15:02:39.108762 21023 net.cpp:150] Setting up conv10/dw/relu
I0226 15:02:39.108785 21023 net.cpp:157] Top shape: 24 512 19 19 (4435968)
I0226 15:02:39.108793 21023 net.cpp:165] Memory required for data: 3381080096
I0226 15:02:39.108801 21023 layer_factory.hpp:77] Creating layer conv10
I0226 15:02:39.108819 21023 net.cpp:100] Creating Layer conv10
I0226 15:02:39.108829 21023 net.cpp:434] conv10 <- conv10/dw
I0226 15:02:39.108844 21023 net.cpp:408] conv10 -> conv10
I0226 15:02:39.119149 21023 net.cpp:150] Setting up conv10
I0226 15:02:39.119189 21023 net.cpp:157] Top shape: 24 512 19 19 (4435968)
I0226 15:02:39.119199 21023 net.cpp:165] Memory required for data: 3398823968
I0226 15:02:39.119212 21023 layer_factory.hpp:77] Creating layer conv10/bn
I0226 15:02:39.119227 21023 net.cpp:100] Creating Layer conv10/bn
I0226 15:02:39.119238 21023 net.cpp:434] conv10/bn <- conv10
I0226 15:02:39.119252 21023 net.cpp:395] conv10/bn -> conv10 (in-place)
I0226 15:02:39.119613 21023 net.cpp:150] Setting up conv10/bn
I0226 15:02:39.119627 21023 net.cpp:157] Top shape: 24 512 19 19 (4435968)
I0226 15:02:39.119635 21023 net.cpp:165] Memory required for data: 3416567840
I0226 15:02:39.119648 21023 layer_factory.hpp:77] Creating layer conv10/scale
I0226 15:02:39.119662 21023 net.cpp:100] Creating Layer conv10/scale
I0226 15:02:39.119669 21023 net.cpp:434] conv10/scale <- conv10
I0226 15:02:39.119681 21023 net.cpp:395] conv10/scale -> conv10 (in-place)
I0226 15:02:39.119758 21023 layer_factory.hpp:77] Creating layer conv10/scale
I0226 15:02:39.119954 21023 net.cpp:150] Setting up conv10/scale
I0226 15:02:39.119967 21023 net.cpp:157] Top shape: 24 512 19 19 (4435968)
I0226 15:02:39.119976 21023 net.cpp:165] Memory required for data: 3434311712
I0226 15:02:39.119987 21023 layer_factory.hpp:77] Creating layer conv10/relu
I0226 15:02:39.119998 21023 net.cpp:100] Creating Layer conv10/relu
I0226 15:02:39.120008 21023 net.cpp:434] conv10/relu <- conv10
I0226 15:02:39.120024 21023 net.cpp:395] conv10/relu -> conv10 (in-place)
I0226 15:02:39.120890 21023 net.cpp:150] Setting up conv10/relu
I0226 15:02:39.120908 21023 net.cpp:157] Top shape: 24 512 19 19 (4435968)
I0226 15:02:39.120915 21023 net.cpp:165] Memory required for data: 3452055584
I0226 15:02:39.120924 21023 layer_factory.hpp:77] Creating layer conv11/dw
I0226 15:02:39.120945 21023 net.cpp:100] Creating Layer conv11/dw
I0226 15:02:39.120954 21023 net.cpp:434] conv11/dw <- conv10
I0226 15:02:39.120968 21023 net.cpp:408] conv11/dw -> conv11/dw
I0226 15:02:39.121500 21023 net.cpp:150] Setting up conv11/dw
I0226 15:02:39.121518 21023 net.cpp:157] Top shape: 24 512 19 19 (4435968)
I0226 15:02:39.121526 21023 net.cpp:165] Memory required for data: 3469799456
I0226 15:02:39.121536 21023 layer_factory.hpp:77] Creating layer conv11/dw/bn
I0226 15:02:39.121547 21023 net.cpp:100] Creating Layer conv11/dw/bn
I0226 15:02:39.121556 21023 net.cpp:434] conv11/dw/bn <- conv11/dw
I0226 15:02:39.121565 21023 net.cpp:395] conv11/dw/bn -> conv11/dw (in-place)
I0226 15:02:39.121911 21023 net.cpp:150] Setting up conv11/dw/bn
I0226 15:02:39.121925 21023 net.cpp:157] Top shape: 24 512 19 19 (4435968)
I0226 15:02:39.121932 21023 net.cpp:165] Memory required for data: 3487543328
I0226 15:02:39.121968 21023 layer_factory.hpp:77] Creating layer conv11/dw/scale
I0226 15:02:39.121982 21023 net.cpp:100] Creating Layer conv11/dw/scale
I0226 15:02:39.121992 21023 net.cpp:434] conv11/dw/scale <- conv11/dw
I0226 15:02:39.122004 21023 net.cpp:395] conv11/dw/scale -> conv11/dw (in-place)
I0226 15:02:39.122090 21023 layer_factory.hpp:77] Creating layer conv11/dw/scale
I0226 15:02:39.122311 21023 net.cpp:150] Setting up conv11/dw/scale
I0226 15:02:39.122328 21023 net.cpp:157] Top shape: 24 512 19 19 (4435968)
I0226 15:02:39.122335 21023 net.cpp:165] Memory required for data: 3505287200
I0226 15:02:39.122368 21023 layer_factory.hpp:77] Creating layer conv11/dw/relu
I0226 15:02:39.122380 21023 net.cpp:100] Creating Layer conv11/dw/relu
I0226 15:02:39.122390 21023 net.cpp:434] conv11/dw/relu <- conv11/dw
I0226 15:02:39.122402 21023 net.cpp:395] conv11/dw/relu -> conv11/dw (in-place)
I0226 15:02:39.123168 21023 net.cpp:150] Setting up conv11/dw/relu
I0226 15:02:39.123185 21023 net.cpp:157] Top shape: 24 512 19 19 (4435968)
I0226 15:02:39.123194 21023 net.cpp:165] Memory required for data: 3523031072
I0226 15:02:39.123201 21023 layer_factory.hpp:77] Creating layer conv11
I0226 15:02:39.123217 21023 net.cpp:100] Creating Layer conv11
I0226 15:02:39.123226 21023 net.cpp:434] conv11 <- conv11/dw
I0226 15:02:39.123242 21023 net.cpp:408] conv11 -> conv11
I0226 15:02:39.131698 21023 net.cpp:150] Setting up conv11
I0226 15:02:39.131731 21023 net.cpp:157] Top shape: 24 512 19 19 (4435968)
I0226 15:02:39.131739 21023 net.cpp:165] Memory required for data: 3540774944
I0226 15:02:39.131754 21023 layer_factory.hpp:77] Creating layer conv11/bn
I0226 15:02:39.131772 21023 net.cpp:100] Creating Layer conv11/bn
I0226 15:02:39.131785 21023 net.cpp:434] conv11/bn <- conv11
I0226 15:02:39.131811 21023 net.cpp:395] conv11/bn -> conv11 (in-place)
I0226 15:02:39.132200 21023 net.cpp:150] Setting up conv11/bn
I0226 15:02:39.132215 21023 net.cpp:157] Top shape: 24 512 19 19 (4435968)
I0226 15:02:39.132223 21023 net.cpp:165] Memory required for data: 3558518816
I0226 15:02:39.132238 21023 layer_factory.hpp:77] Creating layer conv11/scale
I0226 15:02:39.132257 21023 net.cpp:100] Creating Layer conv11/scale
I0226 15:02:39.132266 21023 net.cpp:434] conv11/scale <- conv11
I0226 15:02:39.132275 21023 net.cpp:395] conv11/scale -> conv11 (in-place)
I0226 15:02:39.132375 21023 layer_factory.hpp:77] Creating layer conv11/scale
I0226 15:02:39.132594 21023 net.cpp:150] Setting up conv11/scale
I0226 15:02:39.132609 21023 net.cpp:157] Top shape: 24 512 19 19 (4435968)
I0226 15:02:39.132617 21023 net.cpp:165] Memory required for data: 3576262688
I0226 15:02:39.132629 21023 layer_factory.hpp:77] Creating layer conv11/relu
I0226 15:02:39.132644 21023 net.cpp:100] Creating Layer conv11/relu
I0226 15:02:39.132653 21023 net.cpp:434] conv11/relu <- conv11
I0226 15:02:39.132663 21023 net.cpp:395] conv11/relu -> conv11 (in-place)
I0226 15:02:39.134351 21023 net.cpp:150] Setting up conv11/relu
I0226 15:02:39.134377 21023 net.cpp:157] Top shape: 24 512 19 19 (4435968)
I0226 15:02:39.134385 21023 net.cpp:165] Memory required for data: 3594006560
I0226 15:02:39.134393 21023 layer_factory.hpp:77] Creating layer conv11_conv11/relu_0_split
I0226 15:02:39.134409 21023 net.cpp:100] Creating Layer conv11_conv11/relu_0_split
I0226 15:02:39.134419 21023 net.cpp:434] conv11_conv11/relu_0_split <- conv11
I0226 15:02:39.134433 21023 net.cpp:408] conv11_conv11/relu_0_split -> conv11_conv11/relu_0_split_0
I0226 15:02:39.134457 21023 net.cpp:408] conv11_conv11/relu_0_split -> conv11_conv11/relu_0_split_1
I0226 15:02:39.134471 21023 net.cpp:408] conv11_conv11/relu_0_split -> conv11_conv11/relu_0_split_2
I0226 15:02:39.134485 21023 net.cpp:408] conv11_conv11/relu_0_split -> conv11_conv11/relu_0_split_3
I0226 15:02:39.134618 21023 net.cpp:150] Setting up conv11_conv11/relu_0_split
I0226 15:02:39.134636 21023 net.cpp:157] Top shape: 24 512 19 19 (4435968)
I0226 15:02:39.134645 21023 net.cpp:157] Top shape: 24 512 19 19 (4435968)
I0226 15:02:39.134656 21023 net.cpp:157] Top shape: 24 512 19 19 (4435968)
I0226 15:02:39.134666 21023 net.cpp:157] Top shape: 24 512 19 19 (4435968)
I0226 15:02:39.134675 21023 net.cpp:165] Memory required for data: 3664982048
I0226 15:02:39.134682 21023 layer_factory.hpp:77] Creating layer conv12/dw
I0226 15:02:39.134701 21023 net.cpp:100] Creating Layer conv12/dw
I0226 15:02:39.134711 21023 net.cpp:434] conv12/dw <- conv11_conv11/relu_0_split_0
I0226 15:02:39.134726 21023 net.cpp:408] conv12/dw -> conv12/dw
I0226 15:02:39.135197 21023 net.cpp:150] Setting up conv12/dw
I0226 15:02:39.135215 21023 net.cpp:157] Top shape: 24 512 10 10 (1228800)
I0226 15:02:39.135242 21023 net.cpp:165] Memory required for data: 3669897248
I0226 15:02:39.135254 21023 layer_factory.hpp:77] Creating layer conv12/dw/bn
I0226 15:02:39.135267 21023 net.cpp:100] Creating Layer conv12/dw/bn
I0226 15:02:39.135277 21023 net.cpp:434] conv12/dw/bn <- conv12/dw
I0226 15:02:39.135287 21023 net.cpp:395] conv12/dw/bn -> conv12/dw (in-place)
I0226 15:02:39.135660 21023 net.cpp:150] Setting up conv12/dw/bn
I0226 15:02:39.135675 21023 net.cpp:157] Top shape: 24 512 10 10 (1228800)
I0226 15:02:39.135685 21023 net.cpp:165] Memory required for data: 3674812448
I0226 15:02:39.135699 21023 layer_factory.hpp:77] Creating layer conv12/dw/scale
I0226 15:02:39.135711 21023 net.cpp:100] Creating Layer conv12/dw/scale
I0226 15:02:39.135720 21023 net.cpp:434] conv12/dw/scale <- conv12/dw
I0226 15:02:39.135731 21023 net.cpp:395] conv12/dw/scale -> conv12/dw (in-place)
I0226 15:02:39.135804 21023 layer_factory.hpp:77] Creating layer conv12/dw/scale
I0226 15:02:39.136030 21023 net.cpp:150] Setting up conv12/dw/scale
I0226 15:02:39.136049 21023 net.cpp:157] Top shape: 24 512 10 10 (1228800)
I0226 15:02:39.136057 21023 net.cpp:165] Memory required for data: 3679727648
I0226 15:02:39.136070 21023 layer_factory.hpp:77] Creating layer conv12/dw/relu
I0226 15:02:39.136081 21023 net.cpp:100] Creating Layer conv12/dw/relu
I0226 15:02:39.136090 21023 net.cpp:434] conv12/dw/relu <- conv12/dw
I0226 15:02:39.136101 21023 net.cpp:395] conv12/dw/relu -> conv12/dw (in-place)
I0226 15:02:39.137660 21023 net.cpp:150] Setting up conv12/dw/relu
I0226 15:02:39.137686 21023 net.cpp:157] Top shape: 24 512 10 10 (1228800)
I0226 15:02:39.137694 21023 net.cpp:165] Memory required for data: 3684642848
I0226 15:02:39.137703 21023 layer_factory.hpp:77] Creating layer conv12
I0226 15:02:39.137724 21023 net.cpp:100] Creating Layer conv12
I0226 15:02:39.137734 21023 net.cpp:434] conv12 <- conv12/dw
I0226 15:02:39.137748 21023 net.cpp:408] conv12 -> conv12
I0226 15:02:39.152447 21023 net.cpp:150] Setting up conv12
I0226 15:02:39.152496 21023 net.cpp:157] Top shape: 24 1024 10 10 (2457600)
I0226 15:02:39.152506 21023 net.cpp:165] Memory required for data: 3694473248
I0226 15:02:39.152523 21023 layer_factory.hpp:77] Creating layer conv12/bn
I0226 15:02:39.152542 21023 net.cpp:100] Creating Layer conv12/bn
I0226 15:02:39.152554 21023 net.cpp:434] conv12/bn <- conv12
I0226 15:02:39.152567 21023 net.cpp:395] conv12/bn -> conv12 (in-place)
I0226 15:02:39.152987 21023 net.cpp:150] Setting up conv12/bn
I0226 15:02:39.153049 21023 net.cpp:157] Top shape: 24 1024 10 10 (2457600)
I0226 15:02:39.153059 21023 net.cpp:165] Memory required for data: 3704303648
I0226 15:02:39.153075 21023 layer_factory.hpp:77] Creating layer conv12/scale
I0226 15:02:39.153090 21023 net.cpp:100] Creating Layer conv12/scale
I0226 15:02:39.153101 21023 net.cpp:434] conv12/scale <- conv12
I0226 15:02:39.153112 21023 net.cpp:395] conv12/scale -> conv12 (in-place)
I0226 15:02:39.153198 21023 layer_factory.hpp:77] Creating layer conv12/scale
I0226 15:02:39.153435 21023 net.cpp:150] Setting up conv12/scale
I0226 15:02:39.153453 21023 net.cpp:157] Top shape: 24 1024 10 10 (2457600)
I0226 15:02:39.153461 21023 net.cpp:165] Memory required for data: 3714134048
I0226 15:02:39.153473 21023 layer_factory.hpp:77] Creating layer conv12/relu
I0226 15:02:39.153484 21023 net.cpp:100] Creating Layer conv12/relu
I0226 15:02:39.153494 21023 net.cpp:434] conv12/relu <- conv12
I0226 15:02:39.153506 21023 net.cpp:395] conv12/relu -> conv12 (in-place)
I0226 15:02:39.154292 21023 net.cpp:150] Setting up conv12/relu
I0226 15:02:39.154315 21023 net.cpp:157] Top shape: 24 1024 10 10 (2457600)
I0226 15:02:39.154327 21023 net.cpp:165] Memory required for data: 3723964448
I0226 15:02:39.154335 21023 layer_factory.hpp:77] Creating layer conv13/dw
I0226 15:02:39.154355 21023 net.cpp:100] Creating Layer conv13/dw
I0226 15:02:39.154363 21023 net.cpp:434] conv13/dw <- conv12
I0226 15:02:39.154376 21023 net.cpp:408] conv13/dw -> conv13/dw
I0226 15:02:39.154997 21023 net.cpp:150] Setting up conv13/dw
I0226 15:02:39.155023 21023 net.cpp:157] Top shape: 24 1024 10 10 (2457600)
I0226 15:02:39.155042 21023 net.cpp:165] Memory required for data: 3733794848
I0226 15:02:39.155055 21023 layer_factory.hpp:77] Creating layer conv13/dw/bn
I0226 15:02:39.155066 21023 net.cpp:100] Creating Layer conv13/dw/bn
I0226 15:02:39.155089 21023 net.cpp:434] conv13/dw/bn <- conv13/dw
I0226 15:02:39.155099 21023 net.cpp:395] conv13/dw/bn -> conv13/dw (in-place)
I0226 15:02:39.155463 21023 net.cpp:150] Setting up conv13/dw/bn
I0226 15:02:39.155479 21023 net.cpp:157] Top shape: 24 1024 10 10 (2457600)
I0226 15:02:39.155486 21023 net.cpp:165] Memory required for data: 3743625248
I0226 15:02:39.155500 21023 layer_factory.hpp:77] Creating layer conv13/dw/scale
I0226 15:02:39.155514 21023 net.cpp:100] Creating Layer conv13/dw/scale
I0226 15:02:39.155522 21023 net.cpp:434] conv13/dw/scale <- conv13/dw
I0226 15:02:39.155534 21023 net.cpp:395] conv13/dw/scale -> conv13/dw (in-place)
I0226 15:02:39.155611 21023 layer_factory.hpp:77] Creating layer conv13/dw/scale
I0226 15:02:39.155825 21023 net.cpp:150] Setting up conv13/dw/scale
I0226 15:02:39.155841 21023 net.cpp:157] Top shape: 24 1024 10 10 (2457600)
I0226 15:02:39.155849 21023 net.cpp:165] Memory required for data: 3753455648
I0226 15:02:39.155861 21023 layer_factory.hpp:77] Creating layer conv13/dw/relu
I0226 15:02:39.155886 21023 net.cpp:100] Creating Layer conv13/dw/relu
I0226 15:02:39.155894 21023 net.cpp:434] conv13/dw/relu <- conv13/dw
I0226 15:02:39.155905 21023 net.cpp:395] conv13/dw/relu -> conv13/dw (in-place)
I0226 15:02:39.157635 21023 net.cpp:150] Setting up conv13/dw/relu
I0226 15:02:39.157660 21023 net.cpp:157] Top shape: 24 1024 10 10 (2457600)
I0226 15:02:39.157668 21023 net.cpp:165] Memory required for data: 3763286048
I0226 15:02:39.157680 21023 layer_factory.hpp:77] Creating layer conv13
I0226 15:02:39.157697 21023 net.cpp:100] Creating Layer conv13
I0226 15:02:39.157711 21023 net.cpp:434] conv13 <- conv13/dw
I0226 15:02:39.157723 21023 net.cpp:408] conv13 -> conv13
I0226 15:02:39.182723 21023 net.cpp:150] Setting up conv13
I0226 15:02:39.182757 21023 net.cpp:157] Top shape: 24 1024 10 10 (2457600)
I0226 15:02:39.182765 21023 net.cpp:165] Memory required for data: 3773116448
I0226 15:02:39.182775 21023 layer_factory.hpp:77] Creating layer conv13/bn
I0226 15:02:39.182788 21023 net.cpp:100] Creating Layer conv13/bn
I0226 15:02:39.182798 21023 net.cpp:434] conv13/bn <- conv13
I0226 15:02:39.182809 21023 net.cpp:395] conv13/bn -> conv13 (in-place)
I0226 15:02:39.183079 21023 net.cpp:150] Setting up conv13/bn
I0226 15:02:39.183090 21023 net.cpp:157] Top shape: 24 1024 10 10 (2457600)
I0226 15:02:39.183095 21023 net.cpp:165] Memory required for data: 3782946848
I0226 15:02:39.183106 21023 layer_factory.hpp:77] Creating layer conv13/scale
I0226 15:02:39.183117 21023 net.cpp:100] Creating Layer conv13/scale
I0226 15:02:39.183123 21023 net.cpp:434] conv13/scale <- conv13
I0226 15:02:39.183130 21023 net.cpp:395] conv13/scale -> conv13 (in-place)
I0226 15:02:39.183188 21023 layer_factory.hpp:77] Creating layer conv13/scale
I0226 15:02:39.183336 21023 net.cpp:150] Setting up conv13/scale
I0226 15:02:39.183344 21023 net.cpp:157] Top shape: 24 1024 10 10 (2457600)
I0226 15:02:39.183351 21023 net.cpp:165] Memory required for data: 3792777248
I0226 15:02:39.183359 21023 layer_factory.hpp:77] Creating layer conv13/relu
I0226 15:02:39.183368 21023 net.cpp:100] Creating Layer conv13/relu
I0226 15:02:39.183375 21023 net.cpp:434] conv13/relu <- conv13
I0226 15:02:39.183382 21023 net.cpp:395] conv13/relu -> conv13 (in-place)
I0226 15:02:39.183920 21023 net.cpp:150] Setting up conv13/relu
I0226 15:02:39.183935 21023 net.cpp:157] Top shape: 24 1024 10 10 (2457600)
I0226 15:02:39.183940 21023 net.cpp:165] Memory required for data: 3802607648
I0226 15:02:39.183946 21023 layer_factory.hpp:77] Creating layer conv13_conv13/relu_0_split
I0226 15:02:39.183957 21023 net.cpp:100] Creating Layer conv13_conv13/relu_0_split
I0226 15:02:39.183964 21023 net.cpp:434] conv13_conv13/relu_0_split <- conv13
I0226 15:02:39.183981 21023 net.cpp:408] conv13_conv13/relu_0_split -> conv13_conv13/relu_0_split_0
I0226 15:02:39.184006 21023 net.cpp:408] conv13_conv13/relu_0_split -> conv13_conv13/relu_0_split_1
I0226 15:02:39.184016 21023 net.cpp:408] conv13_conv13/relu_0_split -> conv13_conv13/relu_0_split_2
I0226 15:02:39.184025 21023 net.cpp:408] conv13_conv13/relu_0_split -> conv13_conv13/relu_0_split_3
I0226 15:02:39.184113 21023 net.cpp:150] Setting up conv13_conv13/relu_0_split
I0226 15:02:39.184123 21023 net.cpp:157] Top shape: 24 1024 10 10 (2457600)
I0226 15:02:39.184130 21023 net.cpp:157] Top shape: 24 1024 10 10 (2457600)
I0226 15:02:39.184137 21023 net.cpp:157] Top shape: 24 1024 10 10 (2457600)
I0226 15:02:39.184144 21023 net.cpp:157] Top shape: 24 1024 10 10 (2457600)
I0226 15:02:39.184149 21023 net.cpp:165] Memory required for data: 3841929248
I0226 15:02:39.184156 21023 layer_factory.hpp:77] Creating layer conv14_1
I0226 15:02:39.184171 21023 net.cpp:100] Creating Layer conv14_1
I0226 15:02:39.184177 21023 net.cpp:434] conv14_1 <- conv13_conv13/relu_0_split_0
I0226 15:02:39.184185 21023 net.cpp:408] conv14_1 -> conv14_1
I0226 15:02:39.191053 21023 net.cpp:150] Setting up conv14_1
I0226 15:02:39.191082 21023 net.cpp:157] Top shape: 24 256 10 10 (614400)
I0226 15:02:39.191090 21023 net.cpp:165] Memory required for data: 3844386848
I0226 15:02:39.191100 21023 layer_factory.hpp:77] Creating layer conv14_1/bn
I0226 15:02:39.191112 21023 net.cpp:100] Creating Layer conv14_1/bn
I0226 15:02:39.191119 21023 net.cpp:434] conv14_1/bn <- conv14_1
I0226 15:02:39.191128 21023 net.cpp:395] conv14_1/bn -> conv14_1 (in-place)
I0226 15:02:39.191393 21023 net.cpp:150] Setting up conv14_1/bn
I0226 15:02:39.191407 21023 net.cpp:157] Top shape: 24 256 10 10 (614400)
I0226 15:02:39.191412 21023 net.cpp:165] Memory required for data: 3846844448
I0226 15:02:39.191421 21023 layer_factory.hpp:77] Creating layer conv14_1/scale
I0226 15:02:39.191431 21023 net.cpp:100] Creating Layer conv14_1/scale
I0226 15:02:39.191439 21023 net.cpp:434] conv14_1/scale <- conv14_1
I0226 15:02:39.191447 21023 net.cpp:395] conv14_1/scale -> conv14_1 (in-place)
I0226 15:02:39.191504 21023 layer_factory.hpp:77] Creating layer conv14_1/scale
I0226 15:02:39.191648 21023 net.cpp:150] Setting up conv14_1/scale
I0226 15:02:39.191658 21023 net.cpp:157] Top shape: 24 256 10 10 (614400)
I0226 15:02:39.191664 21023 net.cpp:165] Memory required for data: 3849302048
I0226 15:02:39.191673 21023 layer_factory.hpp:77] Creating layer conv14_1/relu
I0226 15:02:39.191680 21023 net.cpp:100] Creating Layer conv14_1/relu
I0226 15:02:39.191687 21023 net.cpp:434] conv14_1/relu <- conv14_1
I0226 15:02:39.191694 21023 net.cpp:395] conv14_1/relu -> conv14_1 (in-place)
I0226 15:02:39.192227 21023 net.cpp:150] Setting up conv14_1/relu
I0226 15:02:39.192240 21023 net.cpp:157] Top shape: 24 256 10 10 (614400)
I0226 15:02:39.192247 21023 net.cpp:165] Memory required for data: 3851759648
I0226 15:02:39.192256 21023 layer_factory.hpp:77] Creating layer conv14_2
I0226 15:02:39.192275 21023 net.cpp:100] Creating Layer conv14_2
I0226 15:02:39.192283 21023 net.cpp:434] conv14_2 <- conv14_1
I0226 15:02:39.192296 21023 net.cpp:408] conv14_2 -> conv14_2
I0226 15:02:39.210361 21023 net.cpp:150] Setting up conv14_2
I0226 15:02:39.210392 21023 net.cpp:157] Top shape: 24 512 5 5 (307200)
I0226 15:02:39.210398 21023 net.cpp:165] Memory required for data: 3852988448
I0226 15:02:39.210412 21023 layer_factory.hpp:77] Creating layer conv14_2/bn
I0226 15:02:39.210427 21023 net.cpp:100] Creating Layer conv14_2/bn
I0226 15:02:39.210438 21023 net.cpp:434] conv14_2/bn <- conv14_2
I0226 15:02:39.210449 21023 net.cpp:395] conv14_2/bn -> conv14_2 (in-place)
I0226 15:02:39.210706 21023 net.cpp:150] Setting up conv14_2/bn
I0226 15:02:39.210716 21023 net.cpp:157] Top shape: 24 512 5 5 (307200)
I0226 15:02:39.210721 21023 net.cpp:165] Memory required for data: 3854217248
I0226 15:02:39.210731 21023 layer_factory.hpp:77] Creating layer conv14_2/scale
I0226 15:02:39.210743 21023 net.cpp:100] Creating Layer conv14_2/scale
I0226 15:02:39.210754 21023 net.cpp:434] conv14_2/scale <- conv14_2
I0226 15:02:39.210769 21023 net.cpp:395] conv14_2/scale -> conv14_2 (in-place)
I0226 15:02:39.210824 21023 layer_factory.hpp:77] Creating layer conv14_2/scale
I0226 15:02:39.210976 21023 net.cpp:150] Setting up conv14_2/scale
I0226 15:02:39.210986 21023 net.cpp:157] Top shape: 24 512 5 5 (307200)
I0226 15:02:39.210991 21023 net.cpp:165] Memory required for data: 3855446048
I0226 15:02:39.210999 21023 layer_factory.hpp:77] Creating layer conv14_2/relu
I0226 15:02:39.211009 21023 net.cpp:100] Creating Layer conv14_2/relu
I0226 15:02:39.211014 21023 net.cpp:434] conv14_2/relu <- conv14_2
I0226 15:02:39.211022 21023 net.cpp:395] conv14_2/relu -> conv14_2 (in-place)
I0226 15:02:39.211536 21023 net.cpp:150] Setting up conv14_2/relu
I0226 15:02:39.211552 21023 net.cpp:157] Top shape: 24 512 5 5 (307200)
I0226 15:02:39.211557 21023 net.cpp:165] Memory required for data: 3856674848
I0226 15:02:39.211563 21023 layer_factory.hpp:77] Creating layer conv14_2_conv14_2/relu_0_split
I0226 15:02:39.211573 21023 net.cpp:100] Creating Layer conv14_2_conv14_2/relu_0_split
I0226 15:02:39.211580 21023 net.cpp:434] conv14_2_conv14_2/relu_0_split <- conv14_2
I0226 15:02:39.211589 21023 net.cpp:408] conv14_2_conv14_2/relu_0_split -> conv14_2_conv14_2/relu_0_split_0
I0226 15:02:39.211599 21023 net.cpp:408] conv14_2_conv14_2/relu_0_split -> conv14_2_conv14_2/relu_0_split_1
I0226 15:02:39.211609 21023 net.cpp:408] conv14_2_conv14_2/relu_0_split -> conv14_2_conv14_2/relu_0_split_2
I0226 15:02:39.211618 21023 net.cpp:408] conv14_2_conv14_2/relu_0_split -> conv14_2_conv14_2/relu_0_split_3
I0226 15:02:39.211710 21023 net.cpp:150] Setting up conv14_2_conv14_2/relu_0_split
I0226 15:02:39.211719 21023 net.cpp:157] Top shape: 24 512 5 5 (307200)
I0226 15:02:39.211725 21023 net.cpp:157] Top shape: 24 512 5 5 (307200)
I0226 15:02:39.211732 21023 net.cpp:157] Top shape: 24 512 5 5 (307200)
I0226 15:02:39.211738 21023 net.cpp:157] Top shape: 24 512 5 5 (307200)
I0226 15:02:39.211743 21023 net.cpp:165] Memory required for data: 3861590048
I0226 15:02:39.211748 21023 layer_factory.hpp:77] Creating layer conv15_1
I0226 15:02:39.211764 21023 net.cpp:100] Creating Layer conv15_1
I0226 15:02:39.211769 21023 net.cpp:434] conv15_1 <- conv14_2_conv14_2/relu_0_split_0
I0226 15:02:39.211778 21023 net.cpp:408] conv15_1 -> conv15_1
I0226 15:02:39.214931 21023 net.cpp:150] Setting up conv15_1
I0226 15:02:39.214951 21023 net.cpp:157] Top shape: 24 128 5 5 (76800)
I0226 15:02:39.214957 21023 net.cpp:165] Memory required for data: 3861897248
I0226 15:02:39.214965 21023 layer_factory.hpp:77] Creating layer conv15_1/bn
I0226 15:02:39.214974 21023 net.cpp:100] Creating Layer conv15_1/bn
I0226 15:02:39.214982 21023 net.cpp:434] conv15_1/bn <- conv15_1
I0226 15:02:39.214990 21023 net.cpp:395] conv15_1/bn -> conv15_1 (in-place)
I0226 15:02:39.215231 21023 net.cpp:150] Setting up conv15_1/bn
I0226 15:02:39.215240 21023 net.cpp:157] Top shape: 24 128 5 5 (76800)
I0226 15:02:39.215246 21023 net.cpp:165] Memory required for data: 3862204448
I0226 15:02:39.215256 21023 layer_factory.hpp:77] Creating layer conv15_1/scale
I0226 15:02:39.215265 21023 net.cpp:100] Creating Layer conv15_1/scale
I0226 15:02:39.215270 21023 net.cpp:434] conv15_1/scale <- conv15_1
I0226 15:02:39.215279 21023 net.cpp:395] conv15_1/scale -> conv15_1 (in-place)
I0226 15:02:39.215332 21023 layer_factory.hpp:77] Creating layer conv15_1/scale
I0226 15:02:39.215466 21023 net.cpp:150] Setting up conv15_1/scale
I0226 15:02:39.215474 21023 net.cpp:157] Top shape: 24 128 5 5 (76800)
I0226 15:02:39.215481 21023 net.cpp:165] Memory required for data: 3862511648
I0226 15:02:39.215489 21023 layer_factory.hpp:77] Creating layer conv15_1/relu
I0226 15:02:39.215497 21023 net.cpp:100] Creating Layer conv15_1/relu
I0226 15:02:39.215502 21023 net.cpp:434] conv15_1/relu <- conv15_1
I0226 15:02:39.215512 21023 net.cpp:395] conv15_1/relu -> conv15_1 (in-place)
I0226 15:02:39.216534 21023 net.cpp:150] Setting up conv15_1/relu
I0226 15:02:39.216552 21023 net.cpp:157] Top shape: 24 128 5 5 (76800)
I0226 15:02:39.216573 21023 net.cpp:165] Memory required for data: 3862818848
I0226 15:02:39.216580 21023 layer_factory.hpp:77] Creating layer conv15_2
I0226 15:02:39.216594 21023 net.cpp:100] Creating Layer conv15_2
I0226 15:02:39.216601 21023 net.cpp:434] conv15_2 <- conv15_1
I0226 15:02:39.216616 21023 net.cpp:408] conv15_2 -> conv15_2
I0226 15:02:39.223857 21023 net.cpp:150] Setting up conv15_2
I0226 15:02:39.223886 21023 net.cpp:157] Top shape: 24 256 3 3 (55296)
I0226 15:02:39.223892 21023 net.cpp:165] Memory required for data: 3863040032
I0226 15:02:39.223902 21023 layer_factory.hpp:77] Creating layer conv15_2/bn
I0226 15:02:39.223917 21023 net.cpp:100] Creating Layer conv15_2/bn
I0226 15:02:39.223923 21023 net.cpp:434] conv15_2/bn <- conv15_2
I0226 15:02:39.223932 21023 net.cpp:395] conv15_2/bn -> conv15_2 (in-place)
I0226 15:02:39.224194 21023 net.cpp:150] Setting up conv15_2/bn
I0226 15:02:39.224205 21023 net.cpp:157] Top shape: 24 256 3 3 (55296)
I0226 15:02:39.224210 21023 net.cpp:165] Memory required for data: 3863261216
I0226 15:02:39.224220 21023 layer_factory.hpp:77] Creating layer conv15_2/scale
I0226 15:02:39.224231 21023 net.cpp:100] Creating Layer conv15_2/scale
I0226 15:02:39.224238 21023 net.cpp:434] conv15_2/scale <- conv15_2
I0226 15:02:39.224246 21023 net.cpp:395] conv15_2/scale -> conv15_2 (in-place)
I0226 15:02:39.224298 21023 layer_factory.hpp:77] Creating layer conv15_2/scale
I0226 15:02:39.224455 21023 net.cpp:150] Setting up conv15_2/scale
I0226 15:02:39.224467 21023 net.cpp:157] Top shape: 24 256 3 3 (55296)
I0226 15:02:39.224473 21023 net.cpp:165] Memory required for data: 3863482400
I0226 15:02:39.224481 21023 layer_factory.hpp:77] Creating layer conv15_2/relu
I0226 15:02:39.224505 21023 net.cpp:100] Creating Layer conv15_2/relu
I0226 15:02:39.224512 21023 net.cpp:434] conv15_2/relu <- conv15_2
I0226 15:02:39.224519 21023 net.cpp:395] conv15_2/relu -> conv15_2 (in-place)
I0226 15:02:39.225095 21023 net.cpp:150] Setting up conv15_2/relu
I0226 15:02:39.225112 21023 net.cpp:157] Top shape: 24 256 3 3 (55296)
I0226 15:02:39.225118 21023 net.cpp:165] Memory required for data: 3863703584
I0226 15:02:39.225126 21023 layer_factory.hpp:77] Creating layer conv15_2_conv15_2/relu_0_split
I0226 15:02:39.225136 21023 net.cpp:100] Creating Layer conv15_2_conv15_2/relu_0_split
I0226 15:02:39.225142 21023 net.cpp:434] conv15_2_conv15_2/relu_0_split <- conv15_2
I0226 15:02:39.225154 21023 net.cpp:408] conv15_2_conv15_2/relu_0_split -> conv15_2_conv15_2/relu_0_split_0
I0226 15:02:39.225165 21023 net.cpp:408] conv15_2_conv15_2/relu_0_split -> conv15_2_conv15_2/relu_0_split_1
I0226 15:02:39.225175 21023 net.cpp:408] conv15_2_conv15_2/relu_0_split -> conv15_2_conv15_2/relu_0_split_2
I0226 15:02:39.225183 21023 net.cpp:408] conv15_2_conv15_2/relu_0_split -> conv15_2_conv15_2/relu_0_split_3
I0226 15:02:39.225276 21023 net.cpp:150] Setting up conv15_2_conv15_2/relu_0_split
I0226 15:02:39.225286 21023 net.cpp:157] Top shape: 24 256 3 3 (55296)
I0226 15:02:39.225293 21023 net.cpp:157] Top shape: 24 256 3 3 (55296)
I0226 15:02:39.225299 21023 net.cpp:157] Top shape: 24 256 3 3 (55296)
I0226 15:02:39.225306 21023 net.cpp:157] Top shape: 24 256 3 3 (55296)
I0226 15:02:39.225311 21023 net.cpp:165] Memory required for data: 3864588320
I0226 15:02:39.225317 21023 layer_factory.hpp:77] Creating layer conv16_1
I0226 15:02:39.225332 21023 net.cpp:100] Creating Layer conv16_1
I0226 15:02:39.225338 21023 net.cpp:434] conv16_1 <- conv15_2_conv15_2/relu_0_split_0
I0226 15:02:39.225348 21023 net.cpp:408] conv16_1 -> conv16_1
I0226 15:02:39.228171 21023 net.cpp:150] Setting up conv16_1
I0226 15:02:39.228191 21023 net.cpp:157] Top shape: 24 128 3 3 (27648)
I0226 15:02:39.228199 21023 net.cpp:165] Memory required for data: 3864698912
I0226 15:02:39.228206 21023 layer_factory.hpp:77] Creating layer conv16_1/bn
I0226 15:02:39.228215 21023 net.cpp:100] Creating Layer conv16_1/bn
I0226 15:02:39.228221 21023 net.cpp:434] conv16_1/bn <- conv16_1
I0226 15:02:39.228231 21023 net.cpp:395] conv16_1/bn -> conv16_1 (in-place)
I0226 15:02:39.228480 21023 net.cpp:150] Setting up conv16_1/bn
I0226 15:02:39.228500 21023 net.cpp:157] Top shape: 24 128 3 3 (27648)
I0226 15:02:39.228505 21023 net.cpp:165] Memory required for data: 3864809504
I0226 15:02:39.228515 21023 layer_factory.hpp:77] Creating layer conv16_1/scale
I0226 15:02:39.228524 21023 net.cpp:100] Creating Layer conv16_1/scale
I0226 15:02:39.228530 21023 net.cpp:434] conv16_1/scale <- conv16_1
I0226 15:02:39.228539 21023 net.cpp:395] conv16_1/scale -> conv16_1 (in-place)
I0226 15:02:39.228588 21023 layer_factory.hpp:77] Creating layer conv16_1/scale
I0226 15:02:39.228739 21023 net.cpp:150] Setting up conv16_1/scale
I0226 15:02:39.228749 21023 net.cpp:157] Top shape: 24 128 3 3 (27648)
I0226 15:02:39.228754 21023 net.cpp:165] Memory required for data: 3864920096
I0226 15:02:39.228763 21023 layer_factory.hpp:77] Creating layer conv16_1/relu
I0226 15:02:39.228771 21023 net.cpp:100] Creating Layer conv16_1/relu
I0226 15:02:39.228777 21023 net.cpp:434] conv16_1/relu <- conv16_1
I0226 15:02:39.228785 21023 net.cpp:395] conv16_1/relu -> conv16_1 (in-place)
I0226 15:02:39.229326 21023 net.cpp:150] Setting up conv16_1/relu
I0226 15:02:39.229341 21023 net.cpp:157] Top shape: 24 128 3 3 (27648)
I0226 15:02:39.229346 21023 net.cpp:165] Memory required for data: 3865030688
I0226 15:02:39.229352 21023 layer_factory.hpp:77] Creating layer conv16_2
I0226 15:02:39.229365 21023 net.cpp:100] Creating Layer conv16_2
I0226 15:02:39.229372 21023 net.cpp:434] conv16_2 <- conv16_1
I0226 15:02:39.229382 21023 net.cpp:408] conv16_2 -> conv16_2
I0226 15:02:39.236335 21023 net.cpp:150] Setting up conv16_2
I0226 15:02:39.236369 21023 net.cpp:157] Top shape: 24 256 2 2 (24576)
I0226 15:02:39.236377 21023 net.cpp:165] Memory required for data: 3865128992
I0226 15:02:39.236388 21023 layer_factory.hpp:77] Creating layer conv16_2/bn
I0226 15:02:39.236400 21023 net.cpp:100] Creating Layer conv16_2/bn
I0226 15:02:39.236408 21023 net.cpp:434] conv16_2/bn <- conv16_2
I0226 15:02:39.236420 21023 net.cpp:395] conv16_2/bn -> conv16_2 (in-place)
I0226 15:02:39.236680 21023 net.cpp:150] Setting up conv16_2/bn
I0226 15:02:39.236691 21023 net.cpp:157] Top shape: 24 256 2 2 (24576)
I0226 15:02:39.236698 21023 net.cpp:165] Memory required for data: 3865227296
I0226 15:02:39.236707 21023 layer_factory.hpp:77] Creating layer conv16_2/scale
I0226 15:02:39.236717 21023 net.cpp:100] Creating Layer conv16_2/scale
I0226 15:02:39.236723 21023 net.cpp:434] conv16_2/scale <- conv16_2
I0226 15:02:39.236732 21023 net.cpp:395] conv16_2/scale -> conv16_2 (in-place)
I0226 15:02:39.236790 21023 layer_factory.hpp:77] Creating layer conv16_2/scale
I0226 15:02:39.236945 21023 net.cpp:150] Setting up conv16_2/scale
I0226 15:02:39.236954 21023 net.cpp:157] Top shape: 24 256 2 2 (24576)
I0226 15:02:39.236960 21023 net.cpp:165] Memory required for data: 3865325600
I0226 15:02:39.236968 21023 layer_factory.hpp:77] Creating layer conv16_2/relu
I0226 15:02:39.236976 21023 net.cpp:100] Creating Layer conv16_2/relu
I0226 15:02:39.236981 21023 net.cpp:434] conv16_2/relu <- conv16_2
I0226 15:02:39.236991 21023 net.cpp:395] conv16_2/relu -> conv16_2 (in-place)
I0226 15:02:39.238041 21023 net.cpp:150] Setting up conv16_2/relu
I0226 15:02:39.238060 21023 net.cpp:157] Top shape: 24 256 2 2 (24576)
I0226 15:02:39.238066 21023 net.cpp:165] Memory required for data: 3865423904
I0226 15:02:39.238073 21023 layer_factory.hpp:77] Creating layer conv16_2_conv16_2/relu_0_split
I0226 15:02:39.238085 21023 net.cpp:100] Creating Layer conv16_2_conv16_2/relu_0_split
I0226 15:02:39.238090 21023 net.cpp:434] conv16_2_conv16_2/relu_0_split <- conv16_2
I0226 15:02:39.238101 21023 net.cpp:408] conv16_2_conv16_2/relu_0_split -> conv16_2_conv16_2/relu_0_split_0
I0226 15:02:39.238113 21023 net.cpp:408] conv16_2_conv16_2/relu_0_split -> conv16_2_conv16_2/relu_0_split_1
I0226 15:02:39.238122 21023 net.cpp:408] conv16_2_conv16_2/relu_0_split -> conv16_2_conv16_2/relu_0_split_2
I0226 15:02:39.238131 21023 net.cpp:408] conv16_2_conv16_2/relu_0_split -> conv16_2_conv16_2/relu_0_split_3
I0226 15:02:39.238229 21023 net.cpp:150] Setting up conv16_2_conv16_2/relu_0_split
I0226 15:02:39.238257 21023 net.cpp:157] Top shape: 24 256 2 2 (24576)
I0226 15:02:39.238267 21023 net.cpp:157] Top shape: 24 256 2 2 (24576)
I0226 15:02:39.238274 21023 net.cpp:157] Top shape: 24 256 2 2 (24576)
I0226 15:02:39.238281 21023 net.cpp:157] Top shape: 24 256 2 2 (24576)
I0226 15:02:39.238286 21023 net.cpp:165] Memory required for data: 3865817120
I0226 15:02:39.238292 21023 layer_factory.hpp:77] Creating layer conv17_1
I0226 15:02:39.238304 21023 net.cpp:100] Creating Layer conv17_1
I0226 15:02:39.238310 21023 net.cpp:434] conv17_1 <- conv16_2_conv16_2/relu_0_split_0
I0226 15:02:39.238322 21023 net.cpp:408] conv17_1 -> conv17_1
I0226 15:02:39.240893 21023 net.cpp:150] Setting up conv17_1
I0226 15:02:39.240911 21023 net.cpp:157] Top shape: 24 64 2 2 (6144)
I0226 15:02:39.240918 21023 net.cpp:165] Memory required for data: 3865841696
I0226 15:02:39.240927 21023 layer_factory.hpp:77] Creating layer conv17_1/bn
I0226 15:02:39.240942 21023 net.cpp:100] Creating Layer conv17_1/bn
I0226 15:02:39.240947 21023 net.cpp:434] conv17_1/bn <- conv17_1
I0226 15:02:39.240955 21023 net.cpp:395] conv17_1/bn -> conv17_1 (in-place)
I0226 15:02:39.241283 21023 net.cpp:150] Setting up conv17_1/bn
I0226 15:02:39.241297 21023 net.cpp:157] Top shape: 24 64 2 2 (6144)
I0226 15:02:39.241303 21023 net.cpp:165] Memory required for data: 3865866272
I0226 15:02:39.241313 21023 layer_factory.hpp:77] Creating layer conv17_1/scale
I0226 15:02:39.241324 21023 net.cpp:100] Creating Layer conv17_1/scale
I0226 15:02:39.241330 21023 net.cpp:434] conv17_1/scale <- conv17_1
I0226 15:02:39.241339 21023 net.cpp:395] conv17_1/scale -> conv17_1 (in-place)
I0226 15:02:39.241399 21023 layer_factory.hpp:77] Creating layer conv17_1/scale
I0226 15:02:39.241574 21023 net.cpp:150] Setting up conv17_1/scale
I0226 15:02:39.241585 21023 net.cpp:157] Top shape: 24 64 2 2 (6144)
I0226 15:02:39.241591 21023 net.cpp:165] Memory required for data: 3865890848
I0226 15:02:39.241600 21023 layer_factory.hpp:77] Creating layer conv17_1/relu
I0226 15:02:39.241611 21023 net.cpp:100] Creating Layer conv17_1/relu
I0226 15:02:39.241616 21023 net.cpp:434] conv17_1/relu <- conv17_1
I0226 15:02:39.241624 21023 net.cpp:395] conv17_1/relu -> conv17_1 (in-place)
I0226 15:02:39.242224 21023 net.cpp:150] Setting up conv17_1/relu
I0226 15:02:39.242242 21023 net.cpp:157] Top shape: 24 64 2 2 (6144)
I0226 15:02:39.242247 21023 net.cpp:165] Memory required for data: 3865915424
I0226 15:02:39.242254 21023 layer_factory.hpp:77] Creating layer conv17_2
I0226 15:02:39.242266 21023 net.cpp:100] Creating Layer conv17_2
I0226 15:02:39.242274 21023 net.cpp:434] conv17_2 <- conv17_1
I0226 15:02:39.242285 21023 net.cpp:408] conv17_2 -> conv17_2
I0226 15:02:39.246126 21023 net.cpp:150] Setting up conv17_2
I0226 15:02:39.246150 21023 net.cpp:157] Top shape: 24 128 1 1 (3072)
I0226 15:02:39.246158 21023 net.cpp:165] Memory required for data: 3865927712
I0226 15:02:39.246168 21023 layer_factory.hpp:77] Creating layer conv17_2/bn
I0226 15:02:39.246181 21023 net.cpp:100] Creating Layer conv17_2/bn
I0226 15:02:39.246187 21023 net.cpp:434] conv17_2/bn <- conv17_2
I0226 15:02:39.246197 21023 net.cpp:395] conv17_2/bn -> conv17_2 (in-place)
I0226 15:02:39.246474 21023 net.cpp:150] Setting up conv17_2/bn
I0226 15:02:39.246484 21023 net.cpp:157] Top shape: 24 128 1 1 (3072)
I0226 15:02:39.246490 21023 net.cpp:165] Memory required for data: 3865940000
I0226 15:02:39.246501 21023 layer_factory.hpp:77] Creating layer conv17_2/scale
I0226 15:02:39.246511 21023 net.cpp:100] Creating Layer conv17_2/scale
I0226 15:02:39.246517 21023 net.cpp:434] conv17_2/scale <- conv17_2
I0226 15:02:39.246526 21023 net.cpp:395] conv17_2/scale -> conv17_2 (in-place)
I0226 15:02:39.246600 21023 layer_factory.hpp:77] Creating layer conv17_2/scale
I0226 15:02:39.246742 21023 net.cpp:150] Setting up conv17_2/scale
I0226 15:02:39.246752 21023 net.cpp:157] Top shape: 24 128 1 1 (3072)
I0226 15:02:39.246757 21023 net.cpp:165] Memory required for data: 3865952288
I0226 15:02:39.246773 21023 layer_factory.hpp:77] Creating layer conv17_2/relu
I0226 15:02:39.246790 21023 net.cpp:100] Creating Layer conv17_2/relu
I0226 15:02:39.246796 21023 net.cpp:434] conv17_2/relu <- conv17_2
I0226 15:02:39.246803 21023 net.cpp:395] conv17_2/relu -> conv17_2 (in-place)
I0226 15:02:39.247371 21023 net.cpp:150] Setting up conv17_2/relu
I0226 15:02:39.247387 21023 net.cpp:157] Top shape: 24 128 1 1 (3072)
I0226 15:02:39.247392 21023 net.cpp:165] Memory required for data: 3865964576
I0226 15:02:39.247398 21023 layer_factory.hpp:77] Creating layer conv17_2_conv17_2/relu_0_split
I0226 15:02:39.247408 21023 net.cpp:100] Creating Layer conv17_2_conv17_2/relu_0_split
I0226 15:02:39.247414 21023 net.cpp:434] conv17_2_conv17_2/relu_0_split <- conv17_2
I0226 15:02:39.247426 21023 net.cpp:408] conv17_2_conv17_2/relu_0_split -> conv17_2_conv17_2/relu_0_split_0
I0226 15:02:39.247449 21023 net.cpp:408] conv17_2_conv17_2/relu_0_split -> conv17_2_conv17_2/relu_0_split_1
I0226 15:02:39.247459 21023 net.cpp:408] conv17_2_conv17_2/relu_0_split -> conv17_2_conv17_2/relu_0_split_2
I0226 15:02:39.247534 21023 net.cpp:150] Setting up conv17_2_conv17_2/relu_0_split
I0226 15:02:39.247545 21023 net.cpp:157] Top shape: 24 128 1 1 (3072)
I0226 15:02:39.247551 21023 net.cpp:157] Top shape: 24 128 1 1 (3072)
I0226 15:02:39.247560 21023 net.cpp:157] Top shape: 24 128 1 1 (3072)
I0226 15:02:39.247565 21023 net.cpp:165] Memory required for data: 3866001440
I0226 15:02:39.247570 21023 layer_factory.hpp:77] Creating layer conv11_mbox_loc
I0226 15:02:39.247584 21023 net.cpp:100] Creating Layer conv11_mbox_loc
I0226 15:02:39.247591 21023 net.cpp:434] conv11_mbox_loc <- conv11_conv11/relu_0_split_1
I0226 15:02:39.247601 21023 net.cpp:408] conv11_mbox_loc -> conv11_mbox_loc
I0226 15:02:39.250223 21023 net.cpp:150] Setting up conv11_mbox_loc
I0226 15:02:39.250244 21023 net.cpp:157] Top shape: 24 12 19 19 (103968)
I0226 15:02:39.250252 21023 net.cpp:165] Memory required for data: 3866417312
I0226 15:02:39.250262 21023 layer_factory.hpp:77] Creating layer conv11_mbox_loc_perm
I0226 15:02:39.250274 21023 net.cpp:100] Creating Layer conv11_mbox_loc_perm
I0226 15:02:39.250280 21023 net.cpp:434] conv11_mbox_loc_perm <- conv11_mbox_loc
I0226 15:02:39.250289 21023 net.cpp:408] conv11_mbox_loc_perm -> conv11_mbox_loc_perm
I0226 15:02:39.250432 21023 net.cpp:150] Setting up conv11_mbox_loc_perm
I0226 15:02:39.250442 21023 net.cpp:157] Top shape: 24 19 19 12 (103968)
I0226 15:02:39.250447 21023 net.cpp:165] Memory required for data: 3866833184
I0226 15:02:39.250455 21023 layer_factory.hpp:77] Creating layer conv11_mbox_loc_flat
I0226 15:02:39.250466 21023 net.cpp:100] Creating Layer conv11_mbox_loc_flat
I0226 15:02:39.250473 21023 net.cpp:434] conv11_mbox_loc_flat <- conv11_mbox_loc_perm
I0226 15:02:39.250480 21023 net.cpp:408] conv11_mbox_loc_flat -> conv11_mbox_loc_flat
I0226 15:02:39.250517 21023 net.cpp:150] Setting up conv11_mbox_loc_flat
I0226 15:02:39.250525 21023 net.cpp:157] Top shape: 24 4332 (103968)
I0226 15:02:39.250530 21023 net.cpp:165] Memory required for data: 3867249056
I0226 15:02:39.250536 21023 layer_factory.hpp:77] Creating layer conv11_mbox_conf_new
I0226 15:02:39.250550 21023 net.cpp:100] Creating Layer conv11_mbox_conf_new
I0226 15:02:39.250556 21023 net.cpp:434] conv11_mbox_conf_new <- conv11_conv11/relu_0_split_2
I0226 15:02:39.250567 21023 net.cpp:408] conv11_mbox_conf_new -> conv11_mbox_conf
I0226 15:02:39.253201 21023 net.cpp:150] Setting up conv11_mbox_conf_new
I0226 15:02:39.253221 21023 net.cpp:157] Top shape: 24 9 19 19 (77976)
I0226 15:02:39.253227 21023 net.cpp:165] Memory required for data: 3867560960
I0226 15:02:39.253237 21023 layer_factory.hpp:77] Creating layer conv11_mbox_conf_perm
I0226 15:02:39.253252 21023 net.cpp:100] Creating Layer conv11_mbox_conf_perm
I0226 15:02:39.253262 21023 net.cpp:434] conv11_mbox_conf_perm <- conv11_mbox_conf
I0226 15:02:39.253276 21023 net.cpp:408] conv11_mbox_conf_perm -> conv11_mbox_conf_perm
I0226 15:02:39.253412 21023 net.cpp:150] Setting up conv11_mbox_conf_perm
I0226 15:02:39.253429 21023 net.cpp:157] Top shape: 24 19 19 9 (77976)
I0226 15:02:39.253444 21023 net.cpp:165] Memory required for data: 3867872864
I0226 15:02:39.253450 21023 layer_factory.hpp:77] Creating layer conv11_mbox_conf_flat
I0226 15:02:39.253458 21023 net.cpp:100] Creating Layer conv11_mbox_conf_flat
I0226 15:02:39.253464 21023 net.cpp:434] conv11_mbox_conf_flat <- conv11_mbox_conf_perm
I0226 15:02:39.253473 21023 net.cpp:408] conv11_mbox_conf_flat -> conv11_mbox_conf_flat
I0226 15:02:39.253526 21023 net.cpp:150] Setting up conv11_mbox_conf_flat
I0226 15:02:39.253535 21023 net.cpp:157] Top shape: 24 3249 (77976)
I0226 15:02:39.253545 21023 net.cpp:165] Memory required for data: 3868184768
I0226 15:02:39.253551 21023 layer_factory.hpp:77] Creating layer conv11_mbox_priorbox
I0226 15:02:39.253562 21023 net.cpp:100] Creating Layer conv11_mbox_priorbox
I0226 15:02:39.253571 21023 net.cpp:434] conv11_mbox_priorbox <- conv11_conv11/relu_0_split_3
I0226 15:02:39.253582 21023 net.cpp:434] conv11_mbox_priorbox <- data_data_0_split_1
I0226 15:02:39.253593 21023 net.cpp:408] conv11_mbox_priorbox -> conv11_mbox_priorbox
I0226 15:02:39.253643 21023 net.cpp:150] Setting up conv11_mbox_priorbox
I0226 15:02:39.253653 21023 net.cpp:157] Top shape: 1 2 4332 (8664)
I0226 15:02:39.253659 21023 net.cpp:165] Memory required for data: 3868219424
I0226 15:02:39.253667 21023 layer_factory.hpp:77] Creating layer conv13_mbox_loc
I0226 15:02:39.253680 21023 net.cpp:100] Creating Layer conv13_mbox_loc
I0226 15:02:39.253686 21023 net.cpp:434] conv13_mbox_loc <- conv13_conv13/relu_0_split_1
I0226 15:02:39.253700 21023 net.cpp:408] conv13_mbox_loc -> conv13_mbox_loc
I0226 15:02:39.256588 21023 net.cpp:150] Setting up conv13_mbox_loc
I0226 15:02:39.256608 21023 net.cpp:157] Top shape: 24 24 10 10 (57600)
I0226 15:02:39.256616 21023 net.cpp:165] Memory required for data: 3868449824
I0226 15:02:39.256626 21023 layer_factory.hpp:77] Creating layer conv13_mbox_loc_perm
I0226 15:02:39.256640 21023 net.cpp:100] Creating Layer conv13_mbox_loc_perm
I0226 15:02:39.256647 21023 net.cpp:434] conv13_mbox_loc_perm <- conv13_mbox_loc
I0226 15:02:39.256659 21023 net.cpp:408] conv13_mbox_loc_perm -> conv13_mbox_loc_perm
I0226 15:02:39.256800 21023 net.cpp:150] Setting up conv13_mbox_loc_perm
I0226 15:02:39.256814 21023 net.cpp:157] Top shape: 24 10 10 24 (57600)
I0226 15:02:39.256819 21023 net.cpp:165] Memory required for data: 3868680224
I0226 15:02:39.256824 21023 layer_factory.hpp:77] Creating layer conv13_mbox_loc_flat
I0226 15:02:39.256832 21023 net.cpp:100] Creating Layer conv13_mbox_loc_flat
I0226 15:02:39.256840 21023 net.cpp:434] conv13_mbox_loc_flat <- conv13_mbox_loc_perm
I0226 15:02:39.256847 21023 net.cpp:408] conv13_mbox_loc_flat -> conv13_mbox_loc_flat
I0226 15:02:39.256882 21023 net.cpp:150] Setting up conv13_mbox_loc_flat
I0226 15:02:39.256893 21023 net.cpp:157] Top shape: 24 2400 (57600)
I0226 15:02:39.256901 21023 net.cpp:165] Memory required for data: 3868910624
I0226 15:02:39.256906 21023 layer_factory.hpp:77] Creating layer conv13_mbox_conf_new
I0226 15:02:39.256917 21023 net.cpp:100] Creating Layer conv13_mbox_conf_new
I0226 15:02:39.256923 21023 net.cpp:434] conv13_mbox_conf_new <- conv13_conv13/relu_0_split_2
I0226 15:02:39.256935 21023 net.cpp:408] conv13_mbox_conf_new -> conv13_mbox_conf
I0226 15:02:39.259779 21023 net.cpp:150] Setting up conv13_mbox_conf_new
I0226 15:02:39.259802 21023 net.cpp:157] Top shape: 24 18 10 10 (43200)
I0226 15:02:39.259809 21023 net.cpp:165] Memory required for data: 3869083424
I0226 15:02:39.259820 21023 layer_factory.hpp:77] Creating layer conv13_mbox_conf_perm
I0226 15:02:39.259830 21023 net.cpp:100] Creating Layer conv13_mbox_conf_perm
I0226 15:02:39.259838 21023 net.cpp:434] conv13_mbox_conf_perm <- conv13_mbox_conf
I0226 15:02:39.259850 21023 net.cpp:408] conv13_mbox_conf_perm -> conv13_mbox_conf_perm
I0226 15:02:39.260009 21023 net.cpp:150] Setting up conv13_mbox_conf_perm
I0226 15:02:39.260020 21023 net.cpp:157] Top shape: 24 10 10 18 (43200)
I0226 15:02:39.260025 21023 net.cpp:165] Memory required for data: 3869256224
I0226 15:02:39.260044 21023 layer_factory.hpp:77] Creating layer conv13_mbox_conf_flat
I0226 15:02:39.260053 21023 net.cpp:100] Creating Layer conv13_mbox_conf_flat
I0226 15:02:39.260059 21023 net.cpp:434] conv13_mbox_conf_flat <- conv13_mbox_conf_perm
I0226 15:02:39.260069 21023 net.cpp:408] conv13_mbox_conf_flat -> conv13_mbox_conf_flat
I0226 15:02:39.260103 21023 net.cpp:150] Setting up conv13_mbox_conf_flat
I0226 15:02:39.260113 21023 net.cpp:157] Top shape: 24 1800 (43200)
I0226 15:02:39.260118 21023 net.cpp:165] Memory required for data: 3869429024
I0226 15:02:39.260124 21023 layer_factory.hpp:77] Creating layer conv13_mbox_priorbox
I0226 15:02:39.260133 21023 net.cpp:100] Creating Layer conv13_mbox_priorbox
I0226 15:02:39.260141 21023 net.cpp:434] conv13_mbox_priorbox <- conv13_conv13/relu_0_split_3
I0226 15:02:39.260149 21023 net.cpp:434] conv13_mbox_priorbox <- data_data_0_split_2
I0226 15:02:39.260159 21023 net.cpp:408] conv13_mbox_priorbox -> conv13_mbox_priorbox
I0226 15:02:39.260196 21023 net.cpp:150] Setting up conv13_mbox_priorbox
I0226 15:02:39.260206 21023 net.cpp:157] Top shape: 1 2 2400 (4800)
I0226 15:02:39.260210 21023 net.cpp:165] Memory required for data: 3869448224
I0226 15:02:39.260216 21023 layer_factory.hpp:77] Creating layer conv14_2_mbox_loc
I0226 15:02:39.260228 21023 net.cpp:100] Creating Layer conv14_2_mbox_loc
I0226 15:02:39.260236 21023 net.cpp:434] conv14_2_mbox_loc <- conv14_2_conv14_2/relu_0_split_1
I0226 15:02:39.260244 21023 net.cpp:408] conv14_2_mbox_loc -> conv14_2_mbox_loc
I0226 15:02:39.264575 21023 net.cpp:150] Setting up conv14_2_mbox_loc
I0226 15:02:39.264603 21023 net.cpp:157] Top shape: 24 24 5 5 (14400)
I0226 15:02:39.264611 21023 net.cpp:165] Memory required for data: 3869505824
I0226 15:02:39.264622 21023 layer_factory.hpp:77] Creating layer conv14_2_mbox_loc_perm
I0226 15:02:39.264633 21023 net.cpp:100] Creating Layer conv14_2_mbox_loc_perm
I0226 15:02:39.264641 21023 net.cpp:434] conv14_2_mbox_loc_perm <- conv14_2_mbox_loc
I0226 15:02:39.264653 21023 net.cpp:408] conv14_2_mbox_loc_perm -> conv14_2_mbox_loc_perm
I0226 15:02:39.264796 21023 net.cpp:150] Setting up conv14_2_mbox_loc_perm
I0226 15:02:39.264806 21023 net.cpp:157] Top shape: 24 5 5 24 (14400)
I0226 15:02:39.264811 21023 net.cpp:165] Memory required for data: 3869563424
I0226 15:02:39.264817 21023 layer_factory.hpp:77] Creating layer conv14_2_mbox_loc_flat
I0226 15:02:39.264827 21023 net.cpp:100] Creating Layer conv14_2_mbox_loc_flat
I0226 15:02:39.264832 21023 net.cpp:434] conv14_2_mbox_loc_flat <- conv14_2_mbox_loc_perm
I0226 15:02:39.264842 21023 net.cpp:408] conv14_2_mbox_loc_flat -> conv14_2_mbox_loc_flat
I0226 15:02:39.264878 21023 net.cpp:150] Setting up conv14_2_mbox_loc_flat
I0226 15:02:39.264884 21023 net.cpp:157] Top shape: 24 600 (14400)
I0226 15:02:39.264890 21023 net.cpp:165] Memory required for data: 3869621024
I0226 15:02:39.264895 21023 layer_factory.hpp:77] Creating layer conv14_2_mbox_conf_new
I0226 15:02:39.264911 21023 net.cpp:100] Creating Layer conv14_2_mbox_conf_new
I0226 15:02:39.264919 21023 net.cpp:434] conv14_2_mbox_conf_new <- conv14_2_conv14_2/relu_0_split_2
I0226 15:02:39.264930 21023 net.cpp:408] conv14_2_mbox_conf_new -> conv14_2_mbox_conf
I0226 15:02:39.267638 21023 net.cpp:150] Setting up conv14_2_mbox_conf_new
I0226 15:02:39.267659 21023 net.cpp:157] Top shape: 24 18 5 5 (10800)
I0226 15:02:39.267666 21023 net.cpp:165] Memory required for data: 3869664224
I0226 15:02:39.267675 21023 layer_factory.hpp:77] Creating layer conv14_2_mbox_conf_perm
I0226 15:02:39.267685 21023 net.cpp:100] Creating Layer conv14_2_mbox_conf_perm
I0226 15:02:39.267695 21023 net.cpp:434] conv14_2_mbox_conf_perm <- conv14_2_mbox_conf
I0226 15:02:39.267704 21023 net.cpp:408] conv14_2_mbox_conf_perm -> conv14_2_mbox_conf_perm
I0226 15:02:39.267843 21023 net.cpp:150] Setting up conv14_2_mbox_conf_perm
I0226 15:02:39.267851 21023 net.cpp:157] Top shape: 24 5 5 18 (10800)
I0226 15:02:39.267858 21023 net.cpp:165] Memory required for data: 3869707424
I0226 15:02:39.267870 21023 layer_factory.hpp:77] Creating layer conv14_2_mbox_conf_flat
I0226 15:02:39.267886 21023 net.cpp:100] Creating Layer conv14_2_mbox_conf_flat
I0226 15:02:39.267892 21023 net.cpp:434] conv14_2_mbox_conf_flat <- conv14_2_mbox_conf_perm
I0226 15:02:39.267904 21023 net.cpp:408] conv14_2_mbox_conf_flat -> conv14_2_mbox_conf_flat
I0226 15:02:39.267938 21023 net.cpp:150] Setting up conv14_2_mbox_conf_flat
I0226 15:02:39.267946 21023 net.cpp:157] Top shape: 24 450 (10800)
I0226 15:02:39.267951 21023 net.cpp:165] Memory required for data: 3869750624
I0226 15:02:39.267958 21023 layer_factory.hpp:77] Creating layer conv14_2_mbox_priorbox
I0226 15:02:39.267967 21023 net.cpp:100] Creating Layer conv14_2_mbox_priorbox
I0226 15:02:39.267973 21023 net.cpp:434] conv14_2_mbox_priorbox <- conv14_2_conv14_2/relu_0_split_3
I0226 15:02:39.267982 21023 net.cpp:434] conv14_2_mbox_priorbox <- data_data_0_split_3
I0226 15:02:39.267992 21023 net.cpp:408] conv14_2_mbox_priorbox -> conv14_2_mbox_priorbox
I0226 15:02:39.268029 21023 net.cpp:150] Setting up conv14_2_mbox_priorbox
I0226 15:02:39.268038 21023 net.cpp:157] Top shape: 1 2 600 (1200)
I0226 15:02:39.268043 21023 net.cpp:165] Memory required for data: 3869755424
I0226 15:02:39.268049 21023 layer_factory.hpp:77] Creating layer conv15_2_mbox_loc
I0226 15:02:39.268062 21023 net.cpp:100] Creating Layer conv15_2_mbox_loc
I0226 15:02:39.268069 21023 net.cpp:434] conv15_2_mbox_loc <- conv15_2_conv15_2/relu_0_split_1
I0226 15:02:39.268076 21023 net.cpp:408] conv15_2_mbox_loc -> conv15_2_mbox_loc
I0226 15:02:39.270756 21023 net.cpp:150] Setting up conv15_2_mbox_loc
I0226 15:02:39.270778 21023 net.cpp:157] Top shape: 24 24 3 3 (5184)
I0226 15:02:39.270784 21023 net.cpp:165] Memory required for data: 3869776160
I0226 15:02:39.270794 21023 layer_factory.hpp:77] Creating layer conv15_2_mbox_loc_perm
I0226 15:02:39.270826 21023 net.cpp:100] Creating Layer conv15_2_mbox_loc_perm
I0226 15:02:39.270834 21023 net.cpp:434] conv15_2_mbox_loc_perm <- conv15_2_mbox_loc
I0226 15:02:39.270843 21023 net.cpp:408] conv15_2_mbox_loc_perm -> conv15_2_mbox_loc_perm
I0226 15:02:39.270987 21023 net.cpp:150] Setting up conv15_2_mbox_loc_perm
I0226 15:02:39.270999 21023 net.cpp:157] Top shape: 24 3 3 24 (5184)
I0226 15:02:39.271005 21023 net.cpp:165] Memory required for data: 3869796896
I0226 15:02:39.271013 21023 layer_factory.hpp:77] Creating layer conv15_2_mbox_loc_flat
I0226 15:02:39.271023 21023 net.cpp:100] Creating Layer conv15_2_mbox_loc_flat
I0226 15:02:39.271030 21023 net.cpp:434] conv15_2_mbox_loc_flat <- conv15_2_mbox_loc_perm
I0226 15:02:39.271040 21023 net.cpp:408] conv15_2_mbox_loc_flat -> conv15_2_mbox_loc_flat
I0226 15:02:39.271077 21023 net.cpp:150] Setting up conv15_2_mbox_loc_flat
I0226 15:02:39.271085 21023 net.cpp:157] Top shape: 24 216 (5184)
I0226 15:02:39.271092 21023 net.cpp:165] Memory required for data: 3869817632
I0226 15:02:39.271097 21023 layer_factory.hpp:77] Creating layer conv15_2_mbox_conf_new
I0226 15:02:39.271111 21023 net.cpp:100] Creating Layer conv15_2_mbox_conf_new
I0226 15:02:39.271117 21023 net.cpp:434] conv15_2_mbox_conf_new <- conv15_2_conv15_2/relu_0_split_2
I0226 15:02:39.271131 21023 net.cpp:408] conv15_2_mbox_conf_new -> conv15_2_mbox_conf
I0226 15:02:39.274332 21023 net.cpp:150] Setting up conv15_2_mbox_conf_new
I0226 15:02:39.274356 21023 net.cpp:157] Top shape: 24 18 3 3 (3888)
I0226 15:02:39.274363 21023 net.cpp:165] Memory required for data: 3869833184
I0226 15:02:39.274375 21023 layer_factory.hpp:77] Creating layer conv15_2_mbox_conf_perm
I0226 15:02:39.274389 21023 net.cpp:100] Creating Layer conv15_2_mbox_conf_perm
I0226 15:02:39.274396 21023 net.cpp:434] conv15_2_mbox_conf_perm <- conv15_2_mbox_conf
I0226 15:02:39.274406 21023 net.cpp:408] conv15_2_mbox_conf_perm -> conv15_2_mbox_conf_perm
I0226 15:02:39.274555 21023 net.cpp:150] Setting up conv15_2_mbox_conf_perm
I0226 15:02:39.274565 21023 net.cpp:157] Top shape: 24 3 3 18 (3888)
I0226 15:02:39.274571 21023 net.cpp:165] Memory required for data: 3869848736
I0226 15:02:39.274576 21023 layer_factory.hpp:77] Creating layer conv15_2_mbox_conf_flat
I0226 15:02:39.274605 21023 net.cpp:100] Creating Layer conv15_2_mbox_conf_flat
I0226 15:02:39.274610 21023 net.cpp:434] conv15_2_mbox_conf_flat <- conv15_2_mbox_conf_perm
I0226 15:02:39.274619 21023 net.cpp:408] conv15_2_mbox_conf_flat -> conv15_2_mbox_conf_flat
I0226 15:02:39.274657 21023 net.cpp:150] Setting up conv15_2_mbox_conf_flat
I0226 15:02:39.274665 21023 net.cpp:157] Top shape: 24 162 (3888)
I0226 15:02:39.274670 21023 net.cpp:165] Memory required for data: 3869864288
I0226 15:02:39.274677 21023 layer_factory.hpp:77] Creating layer conv15_2_mbox_priorbox
I0226 15:02:39.274688 21023 net.cpp:100] Creating Layer conv15_2_mbox_priorbox
I0226 15:02:39.274695 21023 net.cpp:434] conv15_2_mbox_priorbox <- conv15_2_conv15_2/relu_0_split_3
I0226 15:02:39.274703 21023 net.cpp:434] conv15_2_mbox_priorbox <- data_data_0_split_4
I0226 15:02:39.274711 21023 net.cpp:408] conv15_2_mbox_priorbox -> conv15_2_mbox_priorbox
I0226 15:02:39.274758 21023 net.cpp:150] Setting up conv15_2_mbox_priorbox
I0226 15:02:39.274771 21023 net.cpp:157] Top shape: 1 2 216 (432)
I0226 15:02:39.274776 21023 net.cpp:165] Memory required for data: 3869866016
I0226 15:02:39.274782 21023 layer_factory.hpp:77] Creating layer conv16_2_mbox_loc
I0226 15:02:39.274796 21023 net.cpp:100] Creating Layer conv16_2_mbox_loc
I0226 15:02:39.274804 21023 net.cpp:434] conv16_2_mbox_loc <- conv16_2_conv16_2/relu_0_split_1
I0226 15:02:39.274816 21023 net.cpp:408] conv16_2_mbox_loc -> conv16_2_mbox_loc
I0226 15:02:39.277492 21023 net.cpp:150] Setting up conv16_2_mbox_loc
I0226 15:02:39.277513 21023 net.cpp:157] Top shape: 24 24 2 2 (2304)
I0226 15:02:39.277520 21023 net.cpp:165] Memory required for data: 3869875232
I0226 15:02:39.277530 21023 layer_factory.hpp:77] Creating layer conv16_2_mbox_loc_perm
I0226 15:02:39.277542 21023 net.cpp:100] Creating Layer conv16_2_mbox_loc_perm
I0226 15:02:39.277550 21023 net.cpp:434] conv16_2_mbox_loc_perm <- conv16_2_mbox_loc
I0226 15:02:39.277564 21023 net.cpp:408] conv16_2_mbox_loc_perm -> conv16_2_mbox_loc_perm
I0226 15:02:39.277716 21023 net.cpp:150] Setting up conv16_2_mbox_loc_perm
I0226 15:02:39.277729 21023 net.cpp:157] Top shape: 24 2 2 24 (2304)
I0226 15:02:39.277734 21023 net.cpp:165] Memory required for data: 3869884448
I0226 15:02:39.277742 21023 layer_factory.hpp:77] Creating layer conv16_2_mbox_loc_flat
I0226 15:02:39.277751 21023 net.cpp:100] Creating Layer conv16_2_mbox_loc_flat
I0226 15:02:39.277757 21023 net.cpp:434] conv16_2_mbox_loc_flat <- conv16_2_mbox_loc_perm
I0226 15:02:39.277766 21023 net.cpp:408] conv16_2_mbox_loc_flat -> conv16_2_mbox_loc_flat
I0226 15:02:39.277801 21023 net.cpp:150] Setting up conv16_2_mbox_loc_flat
I0226 15:02:39.277827 21023 net.cpp:157] Top shape: 24 96 (2304)
I0226 15:02:39.277832 21023 net.cpp:165] Memory required for data: 3869893664
I0226 15:02:39.277838 21023 layer_factory.hpp:77] Creating layer conv16_2_mbox_conf_new
I0226 15:02:39.277850 21023 net.cpp:100] Creating Layer conv16_2_mbox_conf_new
I0226 15:02:39.277855 21023 net.cpp:434] conv16_2_mbox_conf_new <- conv16_2_conv16_2/relu_0_split_2
I0226 15:02:39.277864 21023 net.cpp:408] conv16_2_mbox_conf_new -> conv16_2_mbox_conf
I0226 15:02:39.280423 21023 net.cpp:150] Setting up conv16_2_mbox_conf_new
I0226 15:02:39.280443 21023 net.cpp:157] Top shape: 24 18 2 2 (1728)
I0226 15:02:39.280449 21023 net.cpp:165] Memory required for data: 3869900576
I0226 15:02:39.280459 21023 layer_factory.hpp:77] Creating layer conv16_2_mbox_conf_perm
I0226 15:02:39.280470 21023 net.cpp:100] Creating Layer conv16_2_mbox_conf_perm
I0226 15:02:39.280478 21023 net.cpp:434] conv16_2_mbox_conf_perm <- conv16_2_mbox_conf
I0226 15:02:39.280488 21023 net.cpp:408] conv16_2_mbox_conf_perm -> conv16_2_mbox_conf_perm
I0226 15:02:39.280638 21023 net.cpp:150] Setting up conv16_2_mbox_conf_perm
I0226 15:02:39.280650 21023 net.cpp:157] Top shape: 24 2 2 18 (1728)
I0226 15:02:39.280656 21023 net.cpp:165] Memory required for data: 3869907488
I0226 15:02:39.280663 21023 layer_factory.hpp:77] Creating layer conv16_2_mbox_conf_flat
I0226 15:02:39.280676 21023 net.cpp:100] Creating Layer conv16_2_mbox_conf_flat
I0226 15:02:39.280690 21023 net.cpp:434] conv16_2_mbox_conf_flat <- conv16_2_mbox_conf_perm
I0226 15:02:39.280701 21023 net.cpp:408] conv16_2_mbox_conf_flat -> conv16_2_mbox_conf_flat
I0226 15:02:39.280735 21023 net.cpp:150] Setting up conv16_2_mbox_conf_flat
I0226 15:02:39.280745 21023 net.cpp:157] Top shape: 24 72 (1728)
I0226 15:02:39.280750 21023 net.cpp:165] Memory required for data: 3869914400
I0226 15:02:39.280756 21023 layer_factory.hpp:77] Creating layer conv16_2_mbox_priorbox
I0226 15:02:39.280766 21023 net.cpp:100] Creating Layer conv16_2_mbox_priorbox
I0226 15:02:39.280772 21023 net.cpp:434] conv16_2_mbox_priorbox <- conv16_2_conv16_2/relu_0_split_3
I0226 15:02:39.280779 21023 net.cpp:434] conv16_2_mbox_priorbox <- data_data_0_split_5
I0226 15:02:39.280791 21023 net.cpp:408] conv16_2_mbox_priorbox -> conv16_2_mbox_priorbox
I0226 15:02:39.280825 21023 net.cpp:150] Setting up conv16_2_mbox_priorbox
I0226 15:02:39.280835 21023 net.cpp:157] Top shape: 1 2 96 (192)
I0226 15:02:39.280840 21023 net.cpp:165] Memory required for data: 3869915168
I0226 15:02:39.280846 21023 layer_factory.hpp:77] Creating layer conv17_2_mbox_loc
I0226 15:02:39.280859 21023 net.cpp:100] Creating Layer conv17_2_mbox_loc
I0226 15:02:39.280866 21023 net.cpp:434] conv17_2_mbox_loc <- conv17_2_conv17_2/relu_0_split_0
I0226 15:02:39.280874 21023 net.cpp:408] conv17_2_mbox_loc -> conv17_2_mbox_loc
I0226 15:02:39.286100 21023 net.cpp:150] Setting up conv17_2_mbox_loc
I0226 15:02:39.286124 21023 net.cpp:157] Top shape: 24 24 1 1 (576)
I0226 15:02:39.286130 21023 net.cpp:165] Memory required for data: 3869917472
I0226 15:02:39.286141 21023 layer_factory.hpp:77] Creating layer conv17_2_mbox_loc_perm
I0226 15:02:39.286155 21023 net.cpp:100] Creating Layer conv17_2_mbox_loc_perm
I0226 15:02:39.286164 21023 net.cpp:434] conv17_2_mbox_loc_perm <- conv17_2_mbox_loc
I0226 15:02:39.286172 21023 net.cpp:408] conv17_2_mbox_loc_perm -> conv17_2_mbox_loc_perm
I0226 15:02:39.286326 21023 net.cpp:150] Setting up conv17_2_mbox_loc_perm
I0226 15:02:39.286339 21023 net.cpp:157] Top shape: 24 1 1 24 (576)
I0226 15:02:39.286343 21023 net.cpp:165] Memory required for data: 3869919776
I0226 15:02:39.286348 21023 layer_factory.hpp:77] Creating layer conv17_2_mbox_loc_flat
I0226 15:02:39.286360 21023 net.cpp:100] Creating Layer conv17_2_mbox_loc_flat
I0226 15:02:39.286366 21023 net.cpp:434] conv17_2_mbox_loc_flat <- conv17_2_mbox_loc_perm
I0226 15:02:39.286376 21023 net.cpp:408] conv17_2_mbox_loc_flat -> conv17_2_mbox_loc_flat
I0226 15:02:39.286411 21023 net.cpp:150] Setting up conv17_2_mbox_loc_flat
I0226 15:02:39.286417 21023 net.cpp:157] Top shape: 24 24 (576)
I0226 15:02:39.286423 21023 net.cpp:165] Memory required for data: 3869922080
I0226 15:02:39.286429 21023 layer_factory.hpp:77] Creating layer conv17_2_mbox_conf_new
I0226 15:02:39.286444 21023 net.cpp:100] Creating Layer conv17_2_mbox_conf_new
I0226 15:02:39.286451 21023 net.cpp:434] conv17_2_mbox_conf_new <- conv17_2_conv17_2/relu_0_split_1
I0226 15:02:39.286461 21023 net.cpp:408] conv17_2_mbox_conf_new -> conv17_2_mbox_conf
I0226 15:02:39.289093 21023 net.cpp:150] Setting up conv17_2_mbox_conf_new
I0226 15:02:39.289115 21023 net.cpp:157] Top shape: 24 18 1 1 (432)
I0226 15:02:39.289121 21023 net.cpp:165] Memory required for data: 3869923808
I0226 15:02:39.289132 21023 layer_factory.hpp:77] Creating layer conv17_2_mbox_conf_perm
I0226 15:02:39.289142 21023 net.cpp:100] Creating Layer conv17_2_mbox_conf_perm
I0226 15:02:39.289150 21023 net.cpp:434] conv17_2_mbox_conf_perm <- conv17_2_mbox_conf
I0226 15:02:39.289161 21023 net.cpp:408] conv17_2_mbox_conf_perm -> conv17_2_mbox_conf_perm
I0226 15:02:39.289305 21023 net.cpp:150] Setting up conv17_2_mbox_conf_perm
I0226 15:02:39.289314 21023 net.cpp:157] Top shape: 24 1 1 18 (432)
I0226 15:02:39.289335 21023 net.cpp:165] Memory required for data: 3869925536
I0226 15:02:39.289341 21023 layer_factory.hpp:77] Creating layer conv17_2_mbox_conf_flat
I0226 15:02:39.289352 21023 net.cpp:100] Creating Layer conv17_2_mbox_conf_flat
I0226 15:02:39.289374 21023 net.cpp:434] conv17_2_mbox_conf_flat <- conv17_2_mbox_conf_perm
I0226 15:02:39.289384 21023 net.cpp:408] conv17_2_mbox_conf_flat -> conv17_2_mbox_conf_flat
I0226 15:02:39.289419 21023 net.cpp:150] Setting up conv17_2_mbox_conf_flat
I0226 15:02:39.289428 21023 net.cpp:157] Top shape: 24 18 (432)
I0226 15:02:39.289433 21023 net.cpp:165] Memory required for data: 3869927264
I0226 15:02:39.289438 21023 layer_factory.hpp:77] Creating layer conv17_2_mbox_priorbox
I0226 15:02:39.289450 21023 net.cpp:100] Creating Layer conv17_2_mbox_priorbox
I0226 15:02:39.289458 21023 net.cpp:434] conv17_2_mbox_priorbox <- conv17_2_conv17_2/relu_0_split_2
I0226 15:02:39.289464 21023 net.cpp:434] conv17_2_mbox_priorbox <- data_data_0_split_6
I0226 15:02:39.289491 21023 net.cpp:408] conv17_2_mbox_priorbox -> conv17_2_mbox_priorbox
I0226 15:02:39.289528 21023 net.cpp:150] Setting up conv17_2_mbox_priorbox
I0226 15:02:39.289537 21023 net.cpp:157] Top shape: 1 2 24 (48)
I0226 15:02:39.289542 21023 net.cpp:165] Memory required for data: 3869927456
I0226 15:02:39.289549 21023 layer_factory.hpp:77] Creating layer mbox_loc
I0226 15:02:39.289566 21023 net.cpp:100] Creating Layer mbox_loc
I0226 15:02:39.289577 21023 net.cpp:434] mbox_loc <- conv11_mbox_loc_flat
I0226 15:02:39.289588 21023 net.cpp:434] mbox_loc <- conv13_mbox_loc_flat
I0226 15:02:39.289598 21023 net.cpp:434] mbox_loc <- conv14_2_mbox_loc_flat
I0226 15:02:39.289608 21023 net.cpp:434] mbox_loc <- conv15_2_mbox_loc_flat
I0226 15:02:39.289619 21023 net.cpp:434] mbox_loc <- conv16_2_mbox_loc_flat
I0226 15:02:39.289626 21023 net.cpp:434] mbox_loc <- conv17_2_mbox_loc_flat
I0226 15:02:39.289636 21023 net.cpp:408] mbox_loc -> mbox_loc
I0226 15:02:39.289680 21023 net.cpp:150] Setting up mbox_loc
I0226 15:02:39.289690 21023 net.cpp:157] Top shape: 24 7668 (184032)
I0226 15:02:39.289695 21023 net.cpp:165] Memory required for data: 3870663584
I0226 15:02:39.289701 21023 layer_factory.hpp:77] Creating layer mbox_conf
I0226 15:02:39.289711 21023 net.cpp:100] Creating Layer mbox_conf
I0226 15:02:39.289718 21023 net.cpp:434] mbox_conf <- conv11_mbox_conf_flat
I0226 15:02:39.289726 21023 net.cpp:434] mbox_conf <- conv13_mbox_conf_flat
I0226 15:02:39.289733 21023 net.cpp:434] mbox_conf <- conv14_2_mbox_conf_flat
I0226 15:02:39.289741 21023 net.cpp:434] mbox_conf <- conv15_2_mbox_conf_flat
I0226 15:02:39.289748 21023 net.cpp:434] mbox_conf <- conv16_2_mbox_conf_flat
I0226 15:02:39.289754 21023 net.cpp:434] mbox_conf <- conv17_2_mbox_conf_flat
I0226 15:02:39.289762 21023 net.cpp:408] mbox_conf -> mbox_conf
I0226 15:02:39.289795 21023 net.cpp:150] Setting up mbox_conf
I0226 15:02:39.289804 21023 net.cpp:157] Top shape: 24 5751 (138024)
I0226 15:02:39.289811 21023 net.cpp:165] Memory required for data: 3871215680
I0226 15:02:39.289820 21023 layer_factory.hpp:77] Creating layer mbox_priorbox
I0226 15:02:39.289834 21023 net.cpp:100] Creating Layer mbox_priorbox
I0226 15:02:39.289844 21023 net.cpp:434] mbox_priorbox <- conv11_mbox_priorbox
I0226 15:02:39.289852 21023 net.cpp:434] mbox_priorbox <- conv13_mbox_priorbox
I0226 15:02:39.289860 21023 net.cpp:434] mbox_priorbox <- conv14_2_mbox_priorbox
I0226 15:02:39.289865 21023 net.cpp:434] mbox_priorbox <- conv15_2_mbox_priorbox
I0226 15:02:39.289873 21023 net.cpp:434] mbox_priorbox <- conv16_2_mbox_priorbox
I0226 15:02:39.289880 21023 net.cpp:434] mbox_priorbox <- conv17_2_mbox_priorbox
I0226 15:02:39.289887 21023 net.cpp:408] mbox_priorbox -> mbox_priorbox
I0226 15:02:39.289922 21023 net.cpp:150] Setting up mbox_priorbox
I0226 15:02:39.289932 21023 net.cpp:157] Top shape: 1 2 7668 (15336)
I0226 15:02:39.289937 21023 net.cpp:165] Memory required for data: 3871277024
I0226 15:02:39.289942 21023 layer_factory.hpp:77] Creating layer mbox_loss
I0226 15:02:39.289958 21023 net.cpp:100] Creating Layer mbox_loss
I0226 15:02:39.289965 21023 net.cpp:434] mbox_loss <- mbox_loc
I0226 15:02:39.289973 21023 net.cpp:434] mbox_loss <- mbox_conf
I0226 15:02:39.289978 21023 net.cpp:434] mbox_loss <- mbox_priorbox
…
name: "MobileNet-SSD"
state {
  phase: TEST
}
layer {
  name: "data"
  type: "AnnotatedData"
  top: "data"
  top: "label"
  include {
    phase: TEST
  }
  transform_param {
    scale: 0.007843
    mean_value: 127.5
    mean_value: 127.5
    mean_value: 127.5
    resize_param {
      prob: 1
      resize_mode: WARP
      height: 300
      width: 300
      interp_mode: LINEAR
    }
  }
  data_param {
    source: "test_lmdb"
    batch_size: 8
    backend: LMDB
  }
  annotated_data_param {
    batch_sampler {
    }
    label_map_file: "labelmap.prototxt"
  }
}
layer {
  name: "conv0"
  type: "Convolution"
  bottom: "data"
  top: "conv0"
  param {
    lr_mult: 1
    decay_mult: 1
  }
  convolution_param {
    num_output: 32
    bias_term: false
    pad: 1
    kernel_size: 3
    stride: 2
    weight_filler {
      type: "msra"
    }
  }
}
layer {
  name: "conv0/bn"
  type: "BatchNorm"
  bottom: "conv0"
  top: "conv0"
}
layer {
  name: "conv0/scale"
  type: "Scale"
  bottom: "conv0"
  top: "conv0"
  param {
    lr_mult: 1
    decay_mult: 0
  }
  param {
    lr_mult: 2
    decay_mult: 0
  }
  scale_param {
    filler {
      value: 1
    }
    bias_term: true
    bias_filler {
      value: 0
    }
  }
}
layer {
  name: "conv0/relu"
  type: "ReLU"
  bottom: "conv0"
  top: "conv0"
}
layer {
  name: "conv1/dw"
  type: "Convolution"
  bottom: "conv0"
  top: "conv1/dw"
  param {
    lr_mult: 1
    decay_mult: 1
  }
  convolution_param {
    num_output: 32
    bias_term: false
    pad: 1
    kernel_size: 3
    group: 32
    weight_filler {
      type: "msra"
    }
    engine: CAFFE
  }
}
layer {
  name: "conv1/dw/bn"
  type: "BatchNorm"
  bottom: "conv1/dw"
  top: "conv1/dw"
}
layer {
  name: "conv1/dw/scale"
  type: "Scale"
  bottom: "conv1/dw"
  top: "conv1/dw"
  param {
    lr_mult: 1
    decay_mult: 0
  }
  param {
    lr_mult: 2
    decay_mult: 0
  }
  scale_param {
    filler {
      value: 1
    }
    bias_term: true
    bias_filler {
      value: 0
    }
  }
}
layer {
  name: "conv1/dw/relu"
  type: "ReLU"
  bottom: "conv1/dw"
  top: "conv1/dw"
}
layer {
  name: "conv1"
  type: "Convolution"
  bottom: "conv1/dw"
  top: "conv1"
  param {
    lr_mult: 1
    decay_mult: 1
  }
  convolution_param {
    num_output: 64
    bias_term: false
    kernel_size: 1
    weight_filler {
      type: "msra"
    }
  }
}
layer {
  name: "conv1/bn"
  type: "BatchNorm"
  bottom: "conv1"
  top: "conv1"
}
layer {
  name: "conv1/scale"
  type: "Scale"
  bottom: "conv1"
  top: "conv1"
  param {
    lr_mult: 1
    decay_mult: 0
  }
  param {
    lr_mult: 2
    decay_mult: 0
  }
  scale_param {
    filler {
      value: 1
    }
    bias_term: true
    bias_filler {
      value: 0
    }
  }
}
layer {
  name: "conv1/relu"
  type: "ReLU"
  bottom: "conv1"
  top: "conv1"
}
layer {
  name: "conv2/dw"
  type: "Convolution"
  bottom: "conv1"
  top: "conv2/dw"
  param {
    lr_mult: 1
    decay_mult: 1
  }
  convolution_param {
    num_output: 64
    bias_term: false
    pad: 1
    kernel_size: 3
    group: 64
    stride: 2
    weight_filler {
      type: "msra"
    }
    engine: CAFFE
  }
}
layer {
  name: "conv2/dw/bn"
  type: "BatchNorm"
  bottom: "conv2/dw"
  top: "conv2/dw"
}
layer {
  name: "conv2/dw/scale"
  type: "Scale"
  bottom: "conv2/dw"
  top: "conv2/dw"
  param {
    lr_mult: 1
    decay_mult: 0
  }
  param {
    lr_mult: 2
    decay_mult: 0
  }
  scale_param {
    filler {
      value: 1
    }
    bias_term: true
    bias_filler {
      value: 0
    }
  }
}
layer {
  name: "conv2/dw/relu"
  type: "ReLU"
  bottom: "conv2/dw"
  top: "conv2/dw"
}
layer {
  name: "conv2"
  type: "Convolution"
  bottom: "conv2/dw"
  top: "conv2"
  param {
    lr_mult: 1
    decay_mult: 1
  }
  convolution_param {
    num_output: 128
    bias_term: false
    kernel_size: 1
    weight_filler {
      type: "msra"
    }
  }
}
layer {
  name: "conv2/bn"
  type: "BatchNorm"
  bottom: "conv2"
  top: "conv2"
}
layer {
  name: "conv2/scale"
  type: "Scale"
  bottom: "conv2"
  top: "conv2"
  param {
    lr_mult: 1
    decay_mult: 0
  }
  param {
    lr_mult: 2
    decay_mult: 0
  }
  scale_param {
    filler {
      value: 1
    }
    bias_term: true
    bias_filler {
      value: 0
    }
  }
}
layer {
  name: "conv2/relu"
  type: "ReLU"
  bottom: "conv2"
  top: "conv2"
}
layer {
  name: "conv3/dw"
  type: "Convolution"
  bottom: "conv2"
  top: "conv3/dw"
  param {
    lr_mult: 1
    decay_mult: 1
  }
  convolution_param {
    num_output: 128
    bias_term: false
    pad: 1
    kernel_size: 3
    group: 128
    weight_filler {
      type: "msra"
    }
    engine: CAFFE
  }
}
layer {
  name: "conv3/dw/bn"
  type: "BatchNorm"
  bottom: "conv3/dw"
  top: "conv3/dw"
}
layer {
  name: "conv3/dw/scale"
  type: "Scale"
  bottom: "conv3/dw"
  top: "conv3/dw"
  param {
    lr_mult: 1
    decay_mult: 0
  }
  param {
    lr_mult: 2
    decay_mult: 0
  }
  scale_param {
    filler {
      value: 1
    }
    bias_term: true
    bias_filler {
      value: 0
    }
  }
}
layer {
  name: "conv3/dw/relu"
  type: "ReLU"
  bottom: "conv3/dw"
  top: "conv3/dw"
}
layer {
  name: "conv3"
  type: "Convolution"
  bottom: "conv3/dw"
  top: "conv3"
  param {
    lr_mult: 1
    decay_mult: 1
  }
  convolution_param {
    num_output: 128
    bias_term: false
    kernel_size: 1
    weight_filler {
      type: "msra"
    }
  }
}
layer {
  name: "conv3/bn"
  type: "BatchNorm"
  bottom: "conv3"
  top: "conv3"
}
layer {
  name: "conv3/scale"
  type: "Scale"
  bottom: "conv3"
  top: "conv3"
  param {
    lr_mult: 1
    decay_mult: 0
  }
  param {
    lr_mult: 2
    decay_mult: 0
  }
  scale_param {
    filler {
      value: 1
    }
    bias_term: true
    bias_filler {
      value: 0
    }
  }
}
layer {
  name: "conv3/relu"
  type: "ReLU"
  bottom: "conv3"
  top: "conv3"
}
layer {
  name: "conv4/dw"
  type: "Convolution"
  bottom: "conv3"
  top: "conv4/dw"
  param {
    lr_mult: 1
    decay_mult: 1
  }
  convolution_param {
    num_output: 128
    bias_term: false
    pad: 1
    kernel_size: 3
    group: 128
    stride: 2
    weight_filler {
      type: "msra"
    }
    engine: CAFFE
  }
}
layer {
  name: "conv4/dw/bn"
  type: "BatchNorm"
  bottom: "conv4/dw"
  top: "conv4/dw"
}
layer {
  name: "conv4/dw/scale"
  type: "Scale"
  bottom: "conv4/dw"
  top: "conv4/dw"
  param {
    lr_mult: 1
    decay_mult: 0
  }
  param {
    lr_mult: 2
    decay_mult: 0
  }
  scale_param {
    filler {
      value: 1
    }
    bias_term: true
    bias_filler {
      value: 0
    }
  }
}
layer {
  name: "conv4/dw/relu"
  type: "ReLU"
  bottom: "conv4/dw"
  top: "conv4/dw"
}
layer {
  name: "conv4"
  type: "Convolution"
  bottom: "conv4/dw"
  top: "conv4"
  param {
    lr_mult: 1
    decay_mult: 1
  }
  convolution_param {
    num_output: 256
    bias_term: false
    kernel_size: 1
    weight_filler {
      type: "msra"
    }
  }
}
layer {
  name: "conv4/bn"
  type: "BatchNorm"
  bottom: "conv4"
  top: "conv4"
}
layer {
  name: "conv4/scale"
  type: "Scale"
  bottom: "conv4"
  top: "conv4"
  param {
    lr_mult: 1
    decay_mult: 0
  }
  param {
    lr_mult: 2
    decay_mult: 0
  }
  scale_param {
    filler {
      value: 1
    }
    bias_term: true
    bias_filler {
      value: 0
    }
  }
}
layer {
  name: "conv4/relu"
  type: "ReLU"
  bottom: "conv4"
  top: "conv4"
}
layer {
  name: "conv5/dw"
  type: "Convolution"
  bottom: "conv4"
  top: "conv5/dw"
  param {
    lr_mult: 1
    decay_mult: 1
  }
  convolution_param {
    num_output: 256
    bias_term: false
    pad: 1
    kernel_size: 3
    group: 256
    weight_filler {
      type: "msra"
    }
    engine: CAFFE
  }
}
layer {
  name: "conv5/dw/bn"
  type: "BatchNorm"
  bottom: "conv5/dw"
  top: "conv5/dw"
}
layer {
  name: "conv5/dw/scale"
  type: "Scale"
  bottom: "conv5/dw"
  top: "conv5/dw"
  param {
    lr_mult: 1
    decay_mult: 0
  }
  param {
    lr_mult: 2
    decay_mult: 0
  }
  scale_param {
    filler {
      value: 1
    }
    bias_term: true
    bias_filler {
      value: 0
    }
  }
}
layer {
  name: "conv5/dw/relu"
  type: "ReLU"
  bottom: "conv5/dw"
  top: "conv5/dw"
}
layer {
  name: "conv5"
  type: "Convolution"
  bottom: "conv5/dw"
  top: "conv5"
  param {
    lr_mult: 1
    decay_mult: 1
  }
  convolution_param {
    num_output: 256
    bias_term: false
    kernel_size: 1
    weight_filler {
      type: "msra"
    }
  }
}
layer {
  name: "conv5/bn"
  type: "BatchNorm"
  bottom: "conv5"
  top: "conv5"
}
layer {
  name: "conv5/scale"
  type: "Scale"
  bottom: "conv5"
  top: "conv5"
  param {
    lr_mult: 1
    decay_mult: 0
  }
  param {
    lr_mult: 2
    decay_mult: 0
  }
  scale_param {
    filler {
      value: 1
    }
    bias_term: true
    bias_filler {
      value: 0
    }
  }
}
layer {
  name: "conv5/relu"
  type: "ReLU"
  bottom: "conv5"
  top: "conv5"
}
layer {
  name: "conv6/dw"
  type: "Convolution"
  bottom: "conv5"
  top: "conv6/dw"
  param {
    lr_mult: 1
    decay_mult: 1
  }
  convolution_param {
    num_output: 256
    bias_term: false
    pad: 1
    kernel_size: 3
    group: 256
    stride: 2
    weight_filler {
      type: "msra"
    }
    engine: CAFFE
  }
}
layer {
  name: "conv6/dw/bn"
  type: "BatchNorm"
  bottom: "conv6/dw"
  top: "conv6/dw"
}
layer {
  name: "conv6/dw/scale"
  type: "Scale"
  bottom: "conv6/dw"
  top: "conv6/dw"
  param {
    lr_mult: 1
    decay_mult: 0
  }
  param {
    lr_mult: 2
    decay_mult: 0
  }
  scale_param {
    filler {
      value: 1
    }
    bias_term: true
    bias_filler {
      value: 0
    }
  }
}
layer {
  name: "conv6/dw/relu"
  type: "ReLU"
  bottom: "conv6/dw"
  top: "conv6/dw"
}
layer {
  name: "conv6"
  type: "Convolution"
  bottom: "conv6/dw"
  top: "conv6"
  param {
    lr_mult: 1
    decay_mult: 1
  }
  convolution_param {
    num_output: 512
    bias_term: false
    kernel_size: 1
    weight_filler {
      type: "msra"
    }
  }
}
layer {
  name: "conv6/bn"
  type: "BatchNorm"
  bottom: "conv6"
  top: "conv6"
}
layer {
  name: "conv6/scale"
  type: "Scale"
  bottom: "conv6"
  top: "conv6"
  param {
    lr_mult: 1
    decay_mult: 0
  }
  param {
    lr_mult: 2
    decay_mult: 0
  }
  scale_param {
    filler {
      value: 1
    }
    bias_term: true
    bias_filler {
      value: 0
    }
  }
}
layer {
  name: "conv6/relu"
  type: "ReLU"
  bottom: "conv6"
  top: "conv6"
}
layer {
  name: "conv7/dw"
  type: "Convolution"
  bottom: "conv6"
  top: "conv7/dw"
  param {
    lr_mult: 1
    decay_mult: 1
  }
  convolution_param {
    num_output: 512
    bias_term: false
    pad: 1
    kernel_size: 3
    group: 512
    weight_filler {
      type: "msra"
    }
    engine: CAFFE
  }
}
layer {
  name: "conv7/dw/bn"
  type: "BatchNorm"
  bottom: "conv7/dw"
  top: "conv7/dw"
}
layer {
  name: "conv7/dw/scale"
  type: "Scale"
  bottom: "conv7/dw"
  top: "conv7/dw"
  param {
    lr_mult: 1
    decay_mult: 0
  }
  param {
    lr_mult: 2
    decay_mult: 0
  }
  scale_param {
    filler {
      value: 1
    }
    bias_term: true
    bias_filler {
      value: 0
    }
  }
}
layer {
  name: "conv7/dw/relu"
  type: "ReLU"
  bottom: "conv7/dw"
  top: "conv7/dw"
}
layer {
  name: "conv7"
  type: "Convolution"
  bottom: "conv7/dw"
  top: "conv7"
  param {
    lr_mult: 1
    decay_mult: 1
  }
  convolution_param {
    num_output: 512
    bias_term: false
    kernel_size: 1
    weight_filler {
      type: "msra"
    }
  }
}
layer {
  name: "conv7/bn"
  type: "BatchNorm"
  bottom: "conv7"
  top: "conv7"
}
layer {
  name: "conv7/scale"
  type: "Scale"
  bottom: "conv7"
  top: "conv7"
  param {
    lr_mult: 1
    decay_mult: 0
  }
  param {
    lr_mult: 2
    decay_mult: 0
  }
  scale_param {
    filler {
      value: 1
    }
    bias_term: true
    bias_filler {
      value: 0
    }
  }
}
layer {
  name: "conv7/relu"
  type: "ReLU"
  bottom: "conv7"
  top: "conv7"
}
layer {
  name: "conv8/dw"
  type: "Convolution"
  bottom: "conv7"
  top: "conv8/dw"
  param {
    lr_mult: 1
    decay_mult: 1
  }
  convolution_param {
    num_output: 512
    bias_term: false
    pad: 1
    kernel_size: 3
    group: 512
    weight_filler {
      type: "msra"
    }
    engine: CAFFE
  }
}
layer {
  name: "conv8/dw/bn"
  type: "BatchNorm"
  bottom: "conv8/dw"
  top: "conv8/dw"
}
layer {
  name: "conv8/dw/scale"
  type: "Scale"
  bottom: "conv8/dw"
  top: "conv8/dw"
  param {
    lr_mult: 1
    decay_mult: 0
  }
  param {
    lr_mult: 2
    decay_mult: 0
  }
  scale_param {
    filler {
      value: 1
    }
    bias_term: true
    bias_filler {
      value: 0
    }
  }
}
layer {
  name: "conv8/dw/relu"
  type: "ReLU"
  bottom: "conv8/dw"
  top: "conv8/dw"
}
layer {
  name: "conv8"
  type: "Convolution"
  bottom: "conv8/dw"
  top: "conv8"
  param {
    lr_mult: 1
    decay_mult: 1
  }
  convolution_param {
    num_output: 512
    bias_term: false
    kernel_size: 1
    weight_filler {
      type: "msra"
    }
  }
}
layer {
  name: "conv8/bn"
  type: "BatchNorm"
  bottom: "conv8"
  top: "conv8"
}
layer {
  name: "conv8/scale"
  type: "Scale"
  bottom: "conv8"
  top: "conv8"
  param {
    lr_mult: 1
    decay_mult: 0
  }
  param {
    lr_mult: 2
    decay_mult: 0
  }
  scale_param {
    filler {
      value: 1
    }
    bias_term: true
    bias_filler {
      value: 0
    }
  }
}
layer {
  name: "conv8/relu"
  type: "ReLU"
  bottom: "conv8"
  top: "conv8"
}
layer {
  name: "conv9/dw"
  type: "Convolution"
  bottom: "conv8"
  top: "conv9/dw"
  param {
    lr_mult: 1
    decay_mult: 1
  }
  convolution_param {
    num_output: 512
    bias_term: false
    pad: 1
    kernel_size: 3
    group: 512
    weight_filler {
      type: "msra"
    }
    engine: CAFFE
  }
}
layer {
  name: "conv9/dw/bn"
  type: "BatchNorm"
  bottom: "conv9/dw"
  top: "conv9/dw"
}
layer {
  name: "conv9/dw/scale"
  type: "Scale"
  bottom: "conv9/dw"
  top: "conv9/dw"
  param {
    lr_mult: 1
    decay_mult: 0
  }
  param {
    lr_mult: 2
    decay_mult: 0
  }
  scale_param {
    filler {
      value: 1
    }
    bias_term: true
    bias_filler {
      value: 0
    }
  }
}
layer {
  name: "conv9/dw/relu"
  type: "ReLU"
  bottom: "conv9/dw"
…
I0226 15:02:39.859974 21023 layer_factory.hpp:77] Creating layer conv14_1/scale
I0226 15:02:39.859987 21023 net.cpp:100] Creating Layer conv14_1/scale
I0226 15:02:39.859992 21023 net.cpp:434] conv14_1/scale <- conv14_1
I0226 15:02:39.859999 21023 net.cpp:395] conv14_1/scale -> conv14_1 (in-place)
I0226 15:02:39.860066 21023 layer_factory.hpp:77] Creating layer conv14_1/scale
I0226 15:02:39.860235 21023 net.cpp:150] Setting up conv14_1/scale
I0226 15:02:39.860245 21023 net.cpp:157] Top shape: 8 256 10 10 (204800)
I0226 15:02:39.860250 21023 net.cpp:165] Memory required for data: 1283100704
I0226 15:02:39.860260 21023 layer_factory.hpp:77] Creating layer conv14_1/relu
I0226 15:02:39.860270 21023 net.cpp:100] Creating Layer conv14_1/relu
I0226 15:02:39.860275 21023 net.cpp:434] conv14_1/relu <- conv14_1
I0226 15:02:39.860282 21023 net.cpp:395] conv14_1/relu -> conv14_1 (in-place)
I0226 15:02:39.864727 21023 net.cpp:150] Setting up conv14_1/relu
I0226 15:02:39.864749 21023 net.cpp:157] Top shape: 8 256 10 10 (204800)
I0226 15:02:39.864754 21023 net.cpp:165] Memory required for data: 1283919904
I0226 15:02:39.864760 21023 layer_factory.hpp:77] Creating layer conv14_2
I0226 15:02:39.864778 21023 net.cpp:100] Creating Layer conv14_2
I0226 15:02:39.864784 21023 net.cpp:434] conv14_2 <- conv14_1
I0226 15:02:39.864794 21023 net.cpp:408] conv14_2 -> conv14_2
I0226 15:02:39.893674 21023 net.cpp:150] Setting up conv14_2
I0226 15:02:39.893728 21023 net.cpp:157] Top shape: 8 512 5 5 (102400)
I0226 15:02:39.893739 21023 net.cpp:165] Memory required for data: 1284329504
I0226 15:02:39.893757 21023 layer_factory.hpp:77] Creating layer conv14_2/bn
I0226 15:02:39.893779 21023 net.cpp:100] Creating Layer conv14_2/bn
I0226 15:02:39.893791 21023 net.cpp:434] conv14_2/bn <- conv14_2
I0226 15:02:39.893808 21023 net.cpp:395] conv14_2/bn -> conv14_2 (in-place)
I0226 15:02:39.894381 21023 net.cpp:150] Setting up conv14_2/bn
I0226 15:02:39.894399 21023 net.cpp:157] Top shape: 8 512 5 5 (102400)
I0226 15:02:39.894408 21023 net.cpp:165] Memory required for data: 1284739104
I0226 15:02:39.894425 21023 layer_factory.hpp:77] Creating layer conv14_2/scale
I0226 15:02:39.894444 21023 net.cpp:100] Creating Layer conv14_2/scale
I0226 15:02:39.894454 21023 net.cpp:434] conv14_2/scale <- conv14_2
I0226 15:02:39.894469 21023 net.cpp:395] conv14_2/scale -> conv14_2 (in-place)
I0226 15:02:39.894564 21023 layer_factory.hpp:77] Creating layer conv14_2/scale
I0226 15:02:39.894834 21023 net.cpp:150] Setting up conv14_2/scale
I0226 15:02:39.894860 21023 net.cpp:157] Top shape: 8 512 5 5 (102400)
I0226 15:02:39.894883 21023 net.cpp:165] Memory required for data: 1285148704
I0226 15:02:39.894897 21023 layer_factory.hpp:77] Creating layer conv14_2/relu
I0226 15:02:39.894909 21023 net.cpp:100] Creating Layer conv14_2/relu
I0226 15:02:39.894918 21023 net.cpp:434] conv14_2/relu <- conv14_2
I0226 15:02:39.894932 21023 net.cpp:395] conv14_2/relu -> conv14_2 (in-place)
I0226 15:02:39.895876 21023 net.cpp:150] Setting up conv14_2/relu
I0226 15:02:39.895898 21023 net.cpp:157] Top shape: 8 512 5 5 (102400)
I0226 15:02:39.895906 21023 net.cpp:165] Memory required for data: 1285558304
I0226 15:02:39.895917 21023 layer_factory.hpp:77] Creating layer conv14_2_conv14_2/relu_0_split
I0226 15:02:39.895933 21023 net.cpp:100] Creating Layer conv14_2_conv14_2/relu_0_split
I0226 15:02:39.895942 21023 net.cpp:434] conv14_2_conv14_2/relu_0_split <- conv14_2
I0226 15:02:39.895956 21023 net.cpp:408] conv14_2_conv14_2/relu_0_split -> conv14_2_conv14_2/relu_0_split_0
I0226 15:02:39.895973 21023 net.cpp:408] conv14_2_conv14_2/relu_0_split -> conv14_2_conv14_2/relu_0_split_1
I0226 15:02:39.895989 21023 net.cpp:408] conv14_2_conv14_2/relu_0_split -> conv14_2_conv14_2/relu_0_split_2
I0226 15:02:39.896003 21023 net.cpp:408] conv14_2_conv14_2/relu_0_split -> conv14_2_conv14_2/relu_0_split_3
I0226 15:02:39.896153 21023 net.cpp:150] Setting up conv14_2_conv14_2/relu_0_split
I0226 15:02:39.896168 21023 net.cpp:157] Top shape: 8 512 5 5 (102400)
I0226 15:02:39.896179 21023 net.cpp:157] Top shape: 8 512 5 5 (102400)
I0226 15:02:39.896189 21023 net.cpp:157] Top shape: 8 512 5 5 (102400)
I0226 15:02:39.896199 21023 net.cpp:157] Top shape: 8 512 5 5 (102400)
I0226 15:02:39.896209 21023 net.cpp:165] Memory required for data: 1287196704
I0226 15:02:39.896217 21023 layer_factory.hpp:77] Creating layer conv15_1
I0226 15:02:39.896237 21023 net.cpp:100] Creating Layer conv15_1
I0226 15:02:39.896246 21023 net.cpp:434] conv15_1 <- conv14_2_conv14_2/relu_0_split_0
I0226 15:02:39.896262 21023 net.cpp:408] conv15_1 -> conv15_1
I0226 15:02:39.901679 21023 net.cpp:150] Setting up conv15_1
I0226 15:02:39.901715 21023 net.cpp:157] Top shape: 8 128 5 5 (25600)
I0226 15:02:39.901723 21023 net.cpp:165] Memory required for data: 1287299104
I0226 15:02:39.901739 21023 layer_factory.hpp:77] Creating layer conv15_1/bn
I0226 15:02:39.901754 21023 net.cpp:100] Creating Layer conv15_1/bn
I0226 15:02:39.901765 21023 net.cpp:434] conv15_1/bn <- conv15_1
I0226 15:02:39.901780 21023 net.cpp:395] conv15_1/bn -> conv15_1 (in-place)
I0226 15:02:39.902242 21023 net.cpp:150] Setting up conv15_1/bn
I0226 15:02:39.902258 21023 net.cpp:157] Top shape: 8 128 5 5 (25600)
I0226 15:02:39.902266 21023 net.cpp:165] Memory required for data: 1287401504
I0226 15:02:39.902282 21023 layer_factory.hpp:77] Creating layer conv15_1/scale
I0226 15:02:39.902299 21023 net.cpp:100] Creating Layer conv15_1/scale
I0226 15:02:39.902307 21023 net.cpp:434] conv15_1/scale <- conv15_1
I0226 15:02:39.902320 21023 net.cpp:395] conv15_1/scale -> conv15_1 (in-place)
I0226 15:02:39.902415 21023 layer_factory.hpp:77] Creating layer conv15_1/scale
I0226 15:02:39.902662 21023 net.cpp:150] Setting up conv15_1/scale
I0226 15:02:39.902676 21023 net.cpp:157] Top shape: 8 128 5 5 (25600)
I0226 15:02:39.902683 21023 net.cpp:165] Memory required for data: 1287503904
I0226 15:02:39.902696 21023 layer_factory.hpp:77] Creating layer conv15_1/relu
I0226 15:02:39.902710 21023 net.cpp:100] Creating Layer conv15_1/relu
I0226 15:02:39.902719 21023 net.cpp:434] conv15_1/relu <- conv15_1
I0226 15:02:39.902734 21023 net.cpp:395] conv15_1/relu -> conv15_1 (in-place)
I0226 15:02:39.908713 21023 net.cpp:150] Setting up conv15_1/relu
I0226 15:02:39.908748 21023 net.cpp:157] Top shape: 8 128 5 5 (25600)
I0226 15:02:39.908757 21023 net.cpp:165] Memory required for data: 1287606304
I0226 15:02:39.908767 21023 layer_factory.hpp:77] Creating layer conv15_2
I0226 15:02:39.908790 21023 net.cpp:100] Creating Layer conv15_2
I0226 15:02:39.908803 21023 net.cpp:434] conv15_2 <- conv15_1
I0226 15:02:39.908828 21023 net.cpp:408] conv15_2 -> conv15_2
I0226 15:02:39.924715 21023 net.cpp:150] Setting up conv15_2
I0226 15:02:39.924772 21023 net.cpp:157] Top shape: 8 256 3 3 (18432)
I0226 15:02:39.924783 21023 net.cpp:165] Memory required for data: 1287680032
I0226 15:02:39.924800 21023 layer_factory.hpp:77] Creating layer conv15_2/bn
I0226 15:02:39.924819 21023 net.cpp:100] Creating Layer conv15_2/bn
I0226 15:02:39.924831 21023 net.cpp:434] conv15_2/bn <- conv15_2
I0226 15:02:39.924849 21023 net.cpp:395] conv15_2/bn -> conv15_2 (in-place)
I0226 15:02:39.925367 21023 net.cpp:150] Setting up conv15_2/bn
I0226 15:02:39.925385 21023 net.cpp:157] Top shape: 8 256 3 3 (18432)
I0226 15:02:39.925393 21023 net.cpp:165] Memory required for data: 1287753760
I0226 15:02:39.925411 21023 layer_factory.hpp:77] Creating layer conv15_2/scale
I0226 15:02:39.925428 21023 net.cpp:100] Creating Layer conv15_2/scale
I0226 15:02:39.925437 21023 net.cpp:434] conv15_2/scale <- conv15_2
I0226 15:02:39.925454 21023 net.cpp:395] conv15_2/scale -> conv15_2 (in-place)
I0226 15:02:39.925552 21023 layer_factory.hpp:77] Creating layer conv15_2/scale
I0226 15:02:39.925803 21023 net.cpp:150] Setting up conv15_2/scale
I0226 15:02:39.925818 21023 net.cpp:157] Top shape: 8 256 3 3 (18432)
I0226 15:02:39.925827 21023 net.cpp:165] Memory required for data: 1287827488
I0226 15:02:39.925842 21023 layer_factory.hpp:77] Creating layer conv15_2/relu
I0226 15:02:39.925875 21023 net.cpp:100] Creating Layer conv15_2/relu
I0226 15:02:39.925886 21023 net.cpp:434] conv15_2/relu <- conv15_2
I0226 15:02:39.925899 21023 net.cpp:395] conv15_2/relu -> conv15_2 (in-place)
I0226 15:02:39.926897 21023 net.cpp:150] Setting up conv15_2/relu
I0226 15:02:39.926923 21023 net.cpp:157] Top shape: 8 256 3 3 (18432)
I0226 15:02:39.926934 21023 net.cpp:165] Memory required for data: 1287901216
I0226 15:02:39.926944 21023 layer_factory.hpp:77] Creating layer conv15_2_conv15_2/relu_0_split
I0226 15:02:39.926960 21023 net.cpp:100] Creating Layer conv15_2_conv15_2/relu_0_split
I0226 15:02:39.926970 21023 net.cpp:434] conv15_2_conv15_2/relu_0_split <- conv15_2
I0226 15:02:39.926990 21023 net.cpp:408] conv15_2_conv15_2/relu_0_split -> conv15_2_conv15_2/relu_0_split_0
I0226 15:02:39.927006 21023 net.cpp:408] conv15_2_conv15_2/relu_0_split -> conv15_2_conv15_2/relu_0_split_1
I0226 15:02:39.927021 21023 net.cpp:408] conv15_2_conv15_2/relu_0_split -> conv15_2_conv15_2/relu_0_split_2
I0226 15:02:39.927036 21023 net.cpp:408] conv15_2_conv15_2/relu_0_split -> conv15_2_conv15_2/relu_0_split_3
I0226 15:02:39.927194 21023 net.cpp:150] Setting up conv15_2_conv15_2/relu_0_split
I0226 15:02:39.927209 21023 net.cpp:157] Top shape: 8 256 3 3 (18432)
I0226 15:02:39.927220 21023 net.cpp:157] Top shape: 8 256 3 3 (18432)
I0226 15:02:39.927230 21023 net.cpp:157] Top shape: 8 256 3 3 (18432)
I0226 15:02:39.927240 21023 net.cpp:157] Top shape: 8 256 3 3 (18432)
I0226 15:02:39.927248 21023 net.cpp:165] Memory required for data: 1288196128
I0226 15:02:39.927258 21023 layer_factory.hpp:77] Creating layer conv16_1
I0226 15:02:39.927278 21023 net.cpp:100] Creating Layer conv16_1
I0226 15:02:39.927286 21023 net.cpp:434] conv16_1 <- conv15_2_conv15_2/relu_0_split_0
I0226 15:02:39.927299 21023 net.cpp:408] conv16_1 -> conv16_1
I0226 15:02:39.932044 21023 net.cpp:150] Setting up conv16_1
I0226 15:02:39.932080 21023 net.cpp:157] Top shape: 8 128 3 3 (9216)
I0226 15:02:39.932090 21023 net.cpp:165] Memory required for data: 1288232992
I0226 15:02:39.932104 21023 layer_factory.hpp:77] Creating layer conv16_1/bn
I0226 15:02:39.932123 21023 net.cpp:100] Creating Layer conv16_1/bn
I0226 15:02:39.932134 21023 net.cpp:434] conv16_1/bn <- conv16_1
I0226 15:02:39.932147 21023 net.cpp:395] conv16_1/bn -> conv16_1 (in-place)
I0226 15:02:39.932612 21023 net.cpp:150] Setting up conv16_1/bn
I0226 15:02:39.932631 21023 net.cpp:157] Top shape: 8 128 3 3 (9216)
I0226 15:02:39.932638 21023 net.cpp:165] Memory required for data: 1288269856
I0226 15:02:39.932654 21023 layer_factory.hpp:77] Creating layer conv16_1/scale
I0226 15:02:39.932680 21023 net.cpp:100] Creating Layer conv16_1/scale
I0226 15:02:39.932703 21023 net.cpp:434] conv16_1/scale <- conv16_1
I0226 15:02:39.932715 21023 net.cpp:395] conv16_1/scale -> conv16_1 (in-place)
I0226 15:02:39.932809 21023 layer_factory.hpp:77] Creating layer conv16_1/scale
I0226 15:02:39.933094 21023 net.cpp:150] Setting up conv16_1/scale
I0226 15:02:39.933112 21023 net.cpp:157] Top shape: 8 128 3 3 (9216)
I0226 15:02:39.933121 21023 net.cpp:165] Memory required for data: 1288306720
I0226 15:02:39.933135 21023 layer_factory.hpp:77] Creating layer conv16_1/relu
I0226 15:02:39.933148 21023 net.cpp:100] Creating Layer conv16_1/relu
I0226 15:02:39.933158 21023 net.cpp:434] conv16_1/relu <- conv16_1
I0226 15:02:39.933169 21023 net.cpp:395] conv16_1/relu -> conv16_1 (in-place)
I0226 15:02:39.937528 21023 net.cpp:150] Setting up conv16_1/relu
I0226 15:02:39.937556 21023 net.cpp:157] Top shape: 8 128 3 3 (9216)
I0226 15:02:39.937566 21023 net.cpp:165] Memory required for data: 1288343584
I0226 15:02:39.937577 21023 layer_factory.hpp:77] Creating layer conv16_2
I0226 15:02:39.937597 21023 net.cpp:100] Creating Layer conv16_2
I0226 15:02:39.937608 21023 net.cpp:434] conv16_2 <- conv16_1
I0226 15:02:39.937623 21023 net.cpp:408] conv16_2 -> conv16_2
I0226 15:02:39.949295 21023 net.cpp:150] Setting up conv16_2
I0226 15:02:39.949337 21023 net.cpp:157] Top shape: 8 256 2 2 (8192)
I0226 15:02:39.949347 21023 net.cpp:165] Memory required for data: 1288376352
I0226 15:02:39.949363 21023 layer_factory.hpp:77] Creating layer conv16_2/bn
I0226 15:02:39.949379 21023 net.cpp:100] Creating Layer conv16_2/bn
I0226 15:02:39.949390 21023 net.cpp:434] conv16_2/bn <- conv16_2
I0226 15:02:39.949405 21023 net.cpp:395] conv16_2/bn -> conv16_2 (in-place)
I0226 15:02:39.949837 21023 net.cpp:150] Setting up conv16_2/bn
I0226 15:02:39.949851 21023 net.cpp:157] Top shape: 8 256 2 2 (8192)
I0226 15:02:39.949858 21023 net.cpp:165] Memory required for data: 1288409120
I0226 15:02:39.949872 21023 layer_factory.hpp:77] Creating layer conv16_2/scale
I0226 15:02:39.949888 21023 net.cpp:100] Creating Layer conv16_2/scale
I0226 15:02:39.949896 21023 net.cpp:434] conv16_2/scale <- conv16_2
I0226 15:02:39.949909 21023 net.cpp:395] conv16_2/scale -> conv16_2 (in-place)
I0226 15:02:39.949998 21023 layer_factory.hpp:77] Creating layer conv16_2/scale
I0226 15:02:39.950237 21023 net.cpp:150] Setting up conv16_2/scale
I0226 15:02:39.950250 21023 net.cpp:157] Top shape: 8 256 2 2 (8192)
I0226 15:02:39.950258 21023 net.cpp:165] Memory required for data: 1288441888
I0226 15:02:39.950270 21023 layer_factory.hpp:77] Creating layer conv16_2/relu
I0226 15:02:39.950284 21023 net.cpp:100] Creating Layer conv16_2/relu
I0226 15:02:39.950291 21023 net.cpp:434] conv16_2/relu <- conv16_2
I0226 15:02:39.950301 21023 net.cpp:395] conv16_2/relu -> conv16_2 (in-place)
I0226 15:02:39.952827 21023 net.cpp:150] Setting up conv16_2/relu
I0226 15:02:39.952852 21023 net.cpp:157] Top shape: 8 256 2 2 (8192)
I0226 15:02:39.952862 21023 net.cpp:165] Memory required for data: 1288474656
I0226 15:02:39.952872 21023 layer_factory.hpp:77] Creating layer conv16_2_conv16_2/relu_0_split
I0226 15:02:39.952884 21023 net.cpp:100] Creating Layer conv16_2_conv16_2/relu_0_split
I0226 15:02:39.952895 21023 net.cpp:434] conv16_2_conv16_2/relu_0_split <- conv16_2
I0226 15:02:39.952910 21023 net.cpp:408] conv16_2_conv16_2/relu_0_split -> conv16_2_conv16_2/relu_0_split_0
I0226 15:02:39.952927 21023 net.cpp:408] conv16_2_conv16_2/relu_0_split -> conv16_2_conv16_2/relu_0_split_1
I0226 15:02:39.952944 21023 net.cpp:408] conv16_2_conv16_2/relu_0_split -> conv16_2_conv16_2/relu_0_split_2
I0226 15:02:39.952960 21023 net.cpp:408] conv16_2_conv16_2/relu_0_split -> conv16_2_conv16_2/relu_0_split_3
I0226 15:02:39.953169 21023 net.cpp:150] Setting up conv16_2_conv16_2/relu_0_split
I0226 15:02:39.953187 21023 net.cpp:157] Top shape: 8 256 2 2 (8192)
I0226 15:02:39.953197 21023 net.cpp:157] Top shape: 8 256 2 2 (8192)
I0226 15:02:39.953208 21023 net.cpp:157] Top shape: 8 256 2 2 (8192)
I0226 15:02:39.953227 21023 net.cpp:157] Top shape: 8 256 2 2 (8192)
I0226 15:02:39.953249 21023 net.cpp:165] Memory required for data: 1288605728
I0226 15:02:39.953258 21023 layer_factory.hpp:77] Creating layer conv17_1
I0226 15:02:39.953279 21023 net.cpp:100] Creating Layer conv17_1
I0226 15:02:39.953287 21023 net.cpp:434] conv17_1 <- conv16_2_conv16_2/relu_0_split_0
I0226 15:02:39.953303 21023 net.cpp:408] conv17_1 -> conv17_1
I0226 15:02:39.957641 21023 net.cpp:150] Setting up conv17_1
I0226 15:02:39.957671 21023 net.cpp:157] Top shape: 8 64 2 2 (2048)
I0226 15:02:39.957680 21023 net.cpp:165] Memory required for data: 1288613920
I0226 15:02:39.957692 21023 layer_factory.hpp:77] Creating layer conv17_1/bn
I0226 15:02:39.957705 21023 net.cpp:100] Creating Layer conv17_1/bn
I0226 15:02:39.957718 21023 net.cpp:434] conv17_1/bn <- conv17_1
I0226 15:02:39.957731 21023 net.cpp:395] conv17_1/bn -> conv17_1 (in-place)
I0226 15:02:39.958199 21023 net.cpp:150] Setting up conv17_1/bn
I0226 15:02:39.958214 21023 net.cpp:157] Top shape: 8 64 2 2 (2048)
I0226 15:02:39.958225 21023 net.cpp:165] Memory required for data: 1288622112
I0226 15:02:39.958238 21023 layer_factory.hpp:77] Creating layer conv17_1/scale
I0226 15:02:39.958253 21023 net.cpp:100] Creating Layer conv17_1/scale
I0226 15:02:39.958262 21023 net.cpp:434] conv17_1/scale <- conv17_1
I0226 15:02:39.958277 21023 net.cpp:395] conv17_1/scale -> conv17_1 (in-place)
I0226 15:02:39.958372 21023 layer_factory.hpp:77] Creating layer conv17_1/scale
I0226 15:02:39.958643 21023 net.cpp:150] Setting up conv17_1/scale
I0226 15:02:39.958658 21023 net.cpp:157] Top shape: 8 64 2 2 (2048)
I0226 15:02:39.958667 21023 net.cpp:165] Memory required for data: 1288630304
I0226 15:02:39.958680 21023 layer_factory.hpp:77] Creating layer conv17_1/relu
I0226 15:02:39.958694 21023 net.cpp:100] Creating Layer conv17_1/relu
I0226 15:02:39.958703 21023 net.cpp:434] conv17_1/relu <- conv17_1
I0226 15:02:39.958716 21023 net.cpp:395] conv17_1/relu -> conv17_1 (in-place)
I0226 15:02:39.961267 21023 net.cpp:150] Setting up conv17_1/relu
I0226 15:02:39.961294 21023 net.cpp:157] Top shape: 8 64 2 2 (2048)
I0226 15:02:39.961304 21023 net.cpp:165] Memory required for data: 1288638496
I0226 15:02:39.961315 21023 layer_factory.hpp:77] Creating layer conv17_2
I0226 15:02:39.961336 21023 net.cpp:100] Creating Layer conv17_2
I0226 15:02:39.961346 21023 net.cpp:434] conv17_2 <- conv17_1
I0226 15:02:39.961364 21023 net.cpp:408] conv17_2 -> conv17_2
I0226 15:02:39.969218 21023 net.cpp:150] Setting up conv17_2
I0226 15:02:39.969259 21023 net.cpp:157] Top shape: 8 128 1 1 (1024)
I0226 15:02:39.969269 21023 net.cpp:165] Memory required for data: 1288642592
I0226 15:02:39.969285 21023 layer_factory.hpp:77] Creating layer conv17_2/bn
I0226 15:02:39.969305 21023 net.cpp:100] Creating Layer conv17_2/bn
I0226 15:02:39.969316 21023 net.cpp:434] conv17_2/bn <- conv17_2
I0226 15:02:39.969329 21023 net.cpp:395] conv17_2/bn -> conv17_2 (in-place)
I0226 15:02:39.969796 21023 net.cpp:150] Setting up conv17_2/bn
I0226 15:02:39.969815 21023 net.cpp:157] Top shape: 8 128 1 1 (1024)
I0226 15:02:39.969825 21023 net.cpp:165] Memory required for data: 1288646688
I0226 15:02:39.969841 21023 layer_factory.hpp:77] Creating layer conv17_2/scale
I0226 15:02:39.969856 21023 net.cpp:100] Creating Layer conv17_2/scale
I0226 15:02:39.969866 21023 net.cpp:434] conv17_2/scale <- conv17_2
I0226 15:02:39.969878 21023 net.cpp:395] conv17_2/scale -> conv17_2 (in-place)
I0226 15:02:39.969980 21023 layer_factory.hpp:77] Creating layer conv17_2/scale
I0226 15:02:39.970233 21023 net.cpp:150] Setting up conv17_2/scale
I0226 15:02:39.970250 21023 net.cpp:157] Top shape: 8 128 1 1 (1024)
I0226 15:02:39.970258 21023 net.cpp:165] Memory required for data: 1288650784
I0226 15:02:39.970271 21023 layer_factory.hpp:77] Creating layer conv17_2/relu
I0226 15:02:39.970286 21023 net.cpp:100] Creating Layer conv17_2/relu
I0226 15:02:39.970296 21023 net.cpp:434] conv17_2/relu <- conv17_2
I0226 15:02:39.970309 21023 net.cpp:395] conv17_2/relu -> conv17_2 (in-place)
I0226 15:02:39.971222 21023 net.cpp:150] Setting up conv17_2/relu
I0226 15:02:39.971258 21023 net.cpp:157] Top shape: 8 128 1 1 (1024)
I0226 15:02:39.971268 21023 net.cpp:165] Memory required for data: 1288654880
I0226 15:02:39.971277 21023 layer_factory.hpp:77] Creating layer conv17_2_conv17_2/relu_0_split
I0226 15:02:39.971290 21023 net.cpp:100] Creating Layer conv17_2_conv17_2/relu_0_split
I0226 15:02:39.971299 21023 net.cpp:434] conv17_2_conv17_2/relu_0_split <- conv17_2
I0226 15:02:39.971314 21023 net.cpp:408] conv17_2_conv17_2/relu_0_split -> conv17_2_conv17_2/relu_0_split_0
I0226 15:02:39.971349 21023 net.cpp:408] conv17_2_conv17_2/relu_0_split -> conv17_2_conv17_2/relu_0_split_1
I0226 15:02:39.971364 21023 net.cpp:408] conv17_2_conv17_2/relu_0_split -> conv17_2_conv17_2/relu_0_split_2
I0226 15:02:39.971490 21023 net.cpp:150] Setting up conv17_2_conv17_2/relu_0_split
I0226 15:02:39.971508 21023 net.cpp:157] Top shape: 8 128 1 1 (1024)
I0226 15:02:39.971519 21023 net.cpp:157] Top shape: 8 128 1 1 (1024)
I0226 15:02:39.971529 21023 net.cpp:157] Top shape: 8 128 1 1 (1024)
I0226 15:02:39.971539 21023 net.cpp:165] Memory required for data: 1288667168
I0226 15:02:39.971549 21023 layer_factory.hpp:77] Creating layer conv11_mbox_loc
I0226 15:02:39.971567 21023 net.cpp:100] Creating Layer conv11_mbox_loc
I0226 15:02:39.971577 21023 net.cpp:434] conv11_mbox_loc <- conv11_conv11/relu_0_split_1
I0226 15:02:39.971593 21023 net.cpp:408] conv11_mbox_loc -> conv11_mbox_loc
I0226 15:02:39.976030 21023 net.cpp:150] Setting up conv11_mbox_loc
I0226 15:02:39.976078 21023 net.cpp:157] Top shape: 8 12 19 19 (34656)
I0226 15:02:39.976089 21023 net.cpp:165] Memory required for data: 1288805792
I0226 15:02:39.976106 21023 layer_factory.hpp:77] Creating layer conv11_mbox_loc_perm
I0226 15:02:39.976131 21023 net.cpp:100] Creating Layer conv11_mbox_loc_perm
I0226 15:02:39.976145 21023 net.cpp:434] conv11_mbox_loc_perm <- conv11_mbox_loc
I0226 15:02:39.976160 21023 net.cpp:408] conv11_mbox_loc_perm -> conv11_mbox_loc_perm
I0226 15:02:39.976399 21023 net.cpp:150] Setting up conv11_mbox_loc_perm
I0226 15:02:39.976418 21023 net.cpp:157] Top shape: 8 19 19 12 (34656)
I0226 15:02:39.976425 21023 net.cpp:165] Memory required for data: 1288944416
I0226 15:02:39.976434 21023 layer_factory.hpp:77] Creating layer conv11_mbox_loc_flat
I0226 15:02:39.976449 21023 net.cpp:100] Creating Layer conv11_mbox_loc_flat
I0226 15:02:39.976459 21023 net.cpp:434] conv11_mbox_loc_flat <- conv11_mbox_loc_perm
I0226 15:02:39.976471 21023 net.cpp:408] conv11_mbox_loc_flat -> conv11_mbox_loc_flat
I0226 15:02:39.976526 21023 net.cpp:150] Setting up conv11_mbox_loc_flat
I0226 15:02:39.976539 21023 net.cpp:157] Top shape: 8 4332 (34656)
I0226 15:02:39.976548 21023 net.cpp:165] Memory required for data: 1289083040
I0226 15:02:39.976557 21023 layer_factory.hpp:77] Creating layer conv11_mbox_conf_new
I0226 15:02:39.976577 21023 net.cpp:100] Creating Layer conv11_mbox_conf_new
I0226 15:02:39.976586 21023 net.cpp:434] conv11_mbox_conf_new <- conv11_conv11/relu_0_split_2
I0226 15:02:39.976604 21023 net.cpp:408] conv11_mbox_conf_new -> conv11_mbox_conf
I0226 15:02:39.994910 21023 net.cpp:150] Setting up conv11_mbox_conf_new
I0226 15:02:39.994956 21023 net.cpp:157] Top shape: 8 9 19 19 (25992)
I0226 15:02:39.994966 21023 net.cpp:165] Memory required for data: 1289187008
I0226 15:02:39.994987 21023 layer_factory.hpp:77] Creating layer conv11_mbox_conf_perm
I0226 15:02:39.995009 21023 net.cpp:100] Creating Layer conv11_mbox_conf_perm
I0226 15:02:39.995020 21023 net.cpp:434] conv11_mbox_conf_perm <- conv11_mbox_conf
I0226 15:02:39.995036 21023 net.cpp:408] conv11_mbox_conf_perm -> conv11_mbox_conf_perm
I0226 15:02:39.995286 21023 net.cpp:150] Setting up conv11_mbox_conf_perm
I0226 15:02:39.995301 21023 net.cpp:157] Top shape: 8 19 19 9 (25992)
I0226 15:02:39.995311 21023 net.cpp:165] Memory required for data: 1289290976
I0226 15:02:39.995319 21023 layer_factory.hpp:77] Creating layer conv11_mbox_conf_flat
I0226 15:02:39.995337 21023 net.cpp:100] Creating Layer conv11_mbox_conf_flat
I0226 15:02:39.995355 21023 net.cpp:434] conv11_mbox_conf_flat <- conv11_mbox_conf_perm
I0226 15:02:39.995381 21023 net.cpp:408] conv11_mbox_conf_flat -> conv11_mbox_conf_flat
I0226 15:02:39.995440 21023 net.cpp:150] Setting up conv11_mbox_conf_flat
I0226 15:02:39.995453 21023 net.cpp:157] Top shape: 8 3249 (25992)
I0226 15:02:39.995461 21023 net.cpp:165] Memory required for data: 1289394944
I0226 15:02:39.995470 21023 layer_factory.hpp:77] Creating layer conv11_mbox_priorbox
I0226 15:02:39.995486 21023 net.cpp:100] Creating Layer conv11_mbox_priorbox
I0226 15:02:39.995496 21023 net.cpp:434] conv11_mbox_priorbox <- conv11_conv11/relu_0_split_3
I0226 15:02:39.995509 21023 net.cpp:434] conv11_mbox_priorbox <- data_data_0_split_1
I0226 15:02:39.995522 21023 net.cpp:408] conv11_mbox_priorbox -> conv11_mbox_priorbox
I0226 15:02:39.995589 21023 net.cpp:150] Setting up conv11_mbox_priorbox
I0226 15:02:39.995602 21023 net.cpp:157] Top shape: 1 2 4332 (8664)
I0226 15:02:39.995610 21023 net.cpp:165] Memory required for data: 1289429600
I0226 15:02:39.995618 21023 layer_factory.hpp:77] Creating layer conv13_mbox_loc
I0226 15:02:39.995645 21023 net.cpp:100] Creating Layer conv13_mbox_loc
I0226 15:02:39.995654 21023 net.cpp:434] conv13_mbox_loc <- conv13_conv13/relu_0_split_1
I0226 15:02:39.995672 21023 net.cpp:408] conv13_mbox_loc -> conv13_mbox_loc
I0226 15:02:40.001536 21023 net.cpp:150] Setting up conv13_mbox_loc
I0226 15:02:40.001579 21023 net.cpp:157] Top shape: 8 24 10 10 (19200)
I0226 15:02:40.001590 21023 net.cpp:165] Memory required for data: 1289506400
I0226 15:02:40.001610 21023 layer_factory.hpp:77] Creating layer conv13_mbox_loc_perm
I0226 15:02:40.001632 21023 net.cpp:100] Creating Layer conv13_mbox_loc_perm
I0226 15:02:40.001644 21023 net.cpp:434] conv13_mbox_loc_perm <- conv13_mbox_loc
I0226 15:02:40.001662 21023 net.cpp:408] conv13_mbox_loc_perm -> conv13_mbox_loc_perm
I0226 15:02:40.001914 21023 net.cpp:150] Setting up conv13_mbox_loc_perm
I0226 15:02:40.001929 21023 net.cpp:157] Top shape: 8 10 10 24 (19200)
I0226 15:02:40.001937 21023 net.cpp:165] Memory required for data: 1289583200
I0226 15:02:40.001947 21023 layer_factory.hpp:77] Creating layer conv13_mbox_loc_flat
I0226 15:02:40.001963 21023 net.cpp:100] Creating Layer conv13_mbox_loc_flat
I0226 15:02:40.001972 21023 net.cpp:434] conv13_mbox_loc_flat <- conv13_mbox_loc_perm
I0226 15:02:40.001983 21023 net.cpp:408] conv13_mbox_loc_flat -> conv13_mbox_loc_flat
I0226 15:02:40.002041 21023 net.cpp:150] Setting up conv13_mbox_loc_flat
I0226 15:02:40.002053 21023 net.cpp:157] Top shape: 8 2400 (19200)
I0226 15:02:40.002061 21023 net.cpp:165] Memory required for data: 1289660000
I0226 15:02:40.002070 21023 layer_factory.hpp:77] Creating layer conv13_mbox_conf_new
I0226 15:02:40.002095 21023 net.cpp:100] Creating Layer conv13_mbox_conf_new
I0226 15:02:40.002105 21023 net.cpp:434] conv13_mbox_conf_new <- conv13_conv13/relu_0_split_2
I0226 15:02:40.002120 21023 net.cpp:408] conv13_mbox_conf_new -> conv13_mbox_conf
I0226 15:02:40.011621 21023 net.cpp:150] Setting up conv13_mbox_conf_new
I0226 15:02:40.011669 21023 net.cpp:157] Top shape: 8 18 10 10 (14400)
I0226 15:02:40.011679 21023 net.cpp:165] Memory required for data: 1289717600
I0226 15:02:40.011698 21023 layer_factory.hpp:77] Creating layer conv13_mbox_conf_perm
I0226 15:02:40.011719 21023 net.cpp:100] Creating Layer conv13_mbox_conf_perm
I0226 15:02:40.011734 21023 net.cpp:434] conv13_mbox_conf_perm <- conv13_mbox_conf
I0226 15:02:40.011749 21023 net.cpp:408] conv13_mbox_conf_perm -> conv13_mbox_conf_perm
I0226 15:02:40.011994 21023 net.cpp:150] Setting up conv13_mbox_conf_perm
I0226 15:02:40.012009 21023 net.cpp:157] Top shape: 8 10 10 18 (14400)
I0226 15:02:40.012019 21023 net.cpp:165] Memory required for data: 1289775200
I0226 15:02:40.012028 21023 layer_factory.hpp:77] Creating layer conv13_mbox_conf_flat
I0226 15:02:40.012043 21023 net.cpp:100] Creating Layer conv13_mbox_conf_flat
I0226 15:02:40.012053 21023 net.cpp:434] conv13_mbox_conf_flat <- conv13_mbox_conf_perm
I0226 15:02:40.012068 21023 net.cpp:408] conv13_mbox_conf_flat -> conv13_mbox_conf_flat
I0226 15:02:40.012133 21023 net.cpp:150] Setting up conv13_mbox_conf_flat
I0226 15:02:40.012161 21023 net.cpp:157] Top shape: 8 1800 (14400)
I0226 15:02:40.012168 21023 net.cpp:165] Memory required for data: 1289832800
I0226 15:02:40.012179 21023 layer_factory.hpp:77] Creating layer conv13_mbox_priorbox
I0226 15:02:40.012195 21023 net.cpp:100] Creating Layer conv13_mbox_priorbox
I0226 15:02:40.012205 21023 net.cpp:434] conv13_mbox_priorbox <- conv13_conv13/relu_0_split_3
I0226 15:02:40.012218 21023 net.cpp:434] conv13_mbox_priorbox <- data_data_0_split_2
I0226 15:02:40.012235 21023 net.cpp:408] conv13_mbox_priorbox -> conv13_mbox_priorbox
I0226 15:02:40.012300 21023 net.cpp:150] Setting up conv13_mbox_priorbox
I0226 15:02:40.012315 21023 net.cpp:157] Top shape: 1 2 2400 (4800)
I0226 15:02:40.012322 21023 net.cpp:165] Memory required for data: 1289852000
I0226 15:02:40.012331 21023 layer_factory.hpp:77] Creating layer conv14_2_mbox_loc
I0226 15:02:40.012356 21023 net.cpp:100] Creating Layer conv14_2_mbox_loc
I0226 15:02:40.012365 21023 net.cpp:434] conv14_2_mbox_loc <- conv14_2_conv14_2/relu_0_split_1
I0226 15:02:40.012380 21023 net.cpp:408] conv14_2_mbox_loc -> conv14_2_mbox_loc
I0226 15:02:40.016845 21023 net.cpp:150] Setting up conv14_2_mbox_loc
I0226 15:02:40.016873 21023 net.cpp:157] Top shape: 8 24 5 5 (4800)
I0226 15:02:40.016881 21023 net.cpp:165] Memory required for data: 1289871200
I0226 15:02:40.016897 21023 layer_factory.hpp:77] Creating layer conv14_2_mbox_loc_perm
I0226 15:02:40.016914 21023 net.cpp:100] Creating Layer conv14_2_mbox_loc_perm
I0226 15:02:40.016924 21023 net.cpp:434] conv14_2_mbox_loc_perm <- conv14_2_mbox_loc
I0226 15:02:40.016939 21023 net.cpp:408] conv14_2_mbox_loc_perm -> conv14_2_mbox_loc_perm
I0226 15:02:40.017235 21023 net.cpp:150] Setting up conv14_2_mbox_loc_perm
I0226 15:02:40.017252 21023 net.cpp:157] Top shape: 8 5 5 24 (4800)
I0226 15:02:40.017261 21023 net.cpp:165] Memory required for data: 1289890400
I0226 15:02:40.017269 21023 layer_factory.hpp:77] Creating layer conv14_2_mbox_loc_flat
I0226 15:02:40.017283 21023 net.cpp:100] Creating Layer conv14_2_mbox_loc_flat
I0226 15:02:40.017294 21023 net.cpp:434] conv14_2_mbox_loc_flat <- conv14_2_mbox_loc_perm
I0226 15:02:40.017307 21023 net.cpp:408] conv14_2_mbox_loc_flat -> conv14_2_mbox_loc_flat
I0226 15:02:40.017360 21023 net.cpp:150] Setting up conv14_2_mbox_loc_flat
I0226 15:02:40.017374 21023 net.cpp:157] Top shape: 8 600 (4800)
I0226 15:02:40.017382 21023 net.cpp:165] Memory required for data: 1289909600
I0226 15:02:40.017390 21023 layer_factory.hpp:77] Creating layer conv14_2_mbox_conf_new
I0226 15:02:40.017411 21023 net.cpp:100] Creating Layer conv14_2_mbox_conf_new
I0226 15:02:40.017421 21023 net.cpp:434] conv14_2_mbox_conf_new <- conv14_2_conv14_2/relu_0_split_2
I0226 15:02:40.017436 21023 net.cpp:408] conv14_2_mbox_conf_new -> conv14_2_mbox_conf
I0226 15:02:40.022512 21023 net.cpp:150] Setting up conv14_2_mbox_conf_new
I0226 15:02:40.022543 21023 net.cpp:157] Top shape: 8 18 5 5 (3600)
I0226 15:02:40.022553 21023 net.cpp:165] Memory required for data: 1289924000
I0226 15:02:40.022568 21023 layer_factory.hpp:77] Creating layer conv14_2_mbox_conf_perm
I0226 15:02:40.022584 21023 net.cpp:100] Creating Layer conv14_2_mbox_conf_perm
I0226 15:02:40.022594 21023 net.cpp:434] conv14_2_mbox_conf_perm <- conv14_2_mbox_conf
I0226 15:02:40.022614 21023 net.cpp:408] conv14_2_mbox_conf_perm -> conv14_2_mbox_conf_perm
I0226 15:02:40.022907 21023 net.cpp:150] Setting up conv14_2_mbox_conf_perm
I0226 15:02:40.022929 21023 net.cpp:157] Top shape: 8 5 5 18 (3600)
I0226 15:02:40.022938 21023 net.cpp:165] Memory required for data: 1289938400
I0226 15:02:40.022948 21023 layer_factory.hpp:77] Creating layer conv14_2_mbox_conf_flat
I0226 15:02:40.022966 21023 net.cpp:100] Creating Layer conv14_2_mbox_conf_flat
I0226 15:02:40.022977 21023 net.cpp:434] conv14_2_mbox_conf_flat <- conv14_2_mbox_conf_perm
I0226 15:02:40.022992 21023 net.cpp:408] conv14_2_mbox_conf_flat -> conv14_2_mbox_conf_flat
I0226 15:02:40.023056 21023 net.cpp:150] Setting up conv14_2_mbox_conf_flat
I0226 15:02:40.023097 21023 net.cpp:157] Top shape: 8 450 (3600)
I0226 15:02:40.023105 21023 net.cpp:165] Memory required for data: 1289952800
I0226 15:02:40.023115 21023 layer_factory.hpp:77] Creating layer conv14_2_mbox_priorbox
I0226 15:02:40.023135 21023 net.cpp:100] Creating Layer conv14_2_mbox_priorbox
I0226 15:02:40.023149 21023 net.cpp:434] conv14_2_mbox_priorbox <- conv14_2_conv14_2/relu_0_split_3
I0226 15:02:40.023161 21023 net.cpp:434] conv14_2_mbox_priorbox <- data_data_0_split_3
I0226 15:02:40.023180 21023 net.cpp:408] conv14_2_mbox_priorbox -> conv14_2_mbox_priorbox
I0226 15:02:40.023253 21023 net.cpp:150] Setting up conv14_2_mbox_priorbox
I0226 15:02:40.023272 21023 net.cpp:157] Top shape: 1 2 600 (1200)
I0226 15:02:40.023281 21023 net.cpp:165] Memory required for data: 1289957600
I0226 15:02:40.023289 21023 layer_factory.hpp:77] Creating layer conv15_2_mbox_loc
I0226 15:02:40.023313 21023 net.cpp:100] Creating Layer conv15_2_mbox_loc
I0226 15:02:40.023327 21023 net.cpp:434] conv15_2_mbox_loc <- conv15_2_conv15_2/relu_0_split_1
I0226 15:02:40.023345 21023 net.cpp:408] conv15_2_mbox_loc -> conv15_2_mbox_loc
I0226 15:02:40.033953 21023 net.cpp:150] Setting up conv15_2_mbox_loc
I0226 15:02:40.034004 21023 net.cpp:157] Top shape: 8 24 3 3 (1728)
I0226 15:02:40.034013 21023 net.cpp:165] Memory required for data: 1289964512
I0226 15:02:40.034031 21023 layer_factory.hpp:77] Creating layer conv15_2_mbox_loc_perm
I0226 15:02:40.034051 21023 net.cpp:100] Creating Layer conv15_2_mbox_loc_perm
I0226 15:02:40.034062 21023 net.cpp:434] conv15_2_mbox_loc_perm <- conv15_2_mbox_loc
I0226 15:02:40.034080 21023 net.cpp:408] conv15_2_mbox_loc_perm -> conv15_2_mbox_loc_perm
I0226 15:02:40.034318 21023 net.cpp:150] Setting up conv15_2_mbox_loc_perm
I0226 15:02:40.034332 21023 net.cpp:157] Top shape: 8 3 3 24 (1728)
I0226 15:02:40.034340 21023 net.cpp:165] Memory required for data: 1289971424
I0226 15:02:40.034349 21023 layer_factory.hpp:77] Creating layer conv15_2_mbox_loc_flat
I0226 15:02:40.034361 21023 net.cpp:100] Creating Layer conv15_2_mbox_loc_flat
I0226 15:02:40.034369 21023 net.cpp:434] conv15_2_mbox_loc_flat <- conv15_2_mbox_loc_perm
I0226 15:02:40.034382 21023 net.cpp:408] conv15_2_mbox_loc_flat -> conv15_2_mbox_loc_flat
I0226 15:02:40.034440 21023 net.cpp:150] Setting up conv15_2_mbox_loc_flat
I0226 15:02:40.034451 21023 net.cpp:157] Top shape: 8 216 (1728)
I0226 15:02:40.034457 21023 net.cpp:165] Memory required for data: 1289978336
I0226 15:02:40.034466 21023 layer_factory.hpp:77] Creating layer conv15_2_mbox_conf_new
I0226 15:02:40.034492 21023 net.cpp:100] Creating Layer conv15_2_mbox_conf_new
I0226 15:02:40.034500 21023 net.cpp:434] conv15_2_mbox_conf_new <- conv15_2_conv15_2/relu_0_split_2
I0226 15:02:40.034514 21023 net.cpp:408] conv15_2_mbox_conf_new -> conv15_2_mbox_conf
I0226 15:02:40.039824 21023 net.cpp:150] Setting up conv15_2_mbox_conf_new
I0226 15:02:40.039857 21023 net.cpp:157] Top shape: 8 18 3 3 (1296)
I0226 15:02:40.039865 21023 net.cpp:165] Memory required for data: 1289983520
I0226 15:02:40.039881 21023 layer_factory.hpp:77] Creating layer conv15_2_mbox_conf_perm
I0226 15:02:40.039898 21023 net.cpp:100] Creating Layer conv15_2_mbox_conf_perm
I0226 15:02:40.039911 21023 net.cpp:434] conv15_2_mbox_conf_perm <- conv15_2_mbox_conf
I0226 15:02:40.039923 21023 net.cpp:408] conv15_2_mbox_conf_perm -> conv15_2_mbox_conf_perm
I0226 15:02:40.040221 21023 net.cpp:150] Setting up conv15_2_mbox_conf_perm
I0226 15:02:40.040237 21023 net.cpp:157] Top shape: 8 3 3 18 (1296)
I0226 15:02:40.040246 21023 net.cpp:165] Memory required for data: 1289988704
I0226 15:02:40.040254 21023 layer_factory.hpp:77] Creating layer conv15_2_mbox_conf_flat
I0226 15:02:40.040269 21023 net.cpp:100] Creating Layer conv15_2_mbox_conf_flat
I0226 15:02:40.040278 21023 net.cpp:434] conv15_2_mbox_conf_flat <- conv15_2_mbox_conf_perm
I0226 15:02:40.040292 21023 net.cpp:408] conv15_2_mbox_conf_flat -> conv15_2_mbox_conf_flat
I0226 15:02:40.040347 21023 net.cpp:150] Setting up conv15_2_mbox_conf_flat
I0226 15:02:40.040369 21023 net.cpp:157] Top shape: 8 162 (1296)
I0226 15:02:40.040390 21023 net.cpp:165] Memory required for data: 1289993888
I0226 15:02:40.040400 21023 layer_factory.hpp:77] Creating layer conv15_2_mbox_priorbox
I0226 15:02:40.040416 21023 net.cpp:100] Creating Layer conv15_2_mbox_priorbox
I0226 15:02:40.040424 21023 net.cpp:434] conv15_2_mbox_priorbox <- conv15_2_conv15_2/relu_0_split_3
I0226 15:02:40.040436 21023 net.cpp:434] conv15_2_mbox_priorbox <- data_data_0_split_4
I0226 15:02:40.040448 21023 net.cpp:408] conv15_2_mbox_priorbox -> conv15_2_mbox_priorbox
I0226 15:02:40.040509 21023 net.cpp:150] Setting up conv15_2_mbox_priorbox
I0226 15:02:40.040521 21023 net.cpp:157] Top shape: 1 2 216 (432)
I0226 15:02:40.040529 21023 net.cpp:165] Memory required for data: 1289995616
I0226 15:02:40.040537 21023 layer_factory.hpp:77] Creating layer conv16_2_mbox_loc
I0226 15:02:40.040556 21023 net.cpp:100] Creating Layer conv16_2_mbox_loc
I0226 15:02:40.040566 21023 net.cpp:434] conv16_2_mbox_loc <- conv16_2_conv16_2/relu_0_split_1
I0226 15:02:40.040581 21023 net.cpp:408] conv16_2_mbox_loc -> conv16_2_mbox_loc
I0226 15:02:40.044860 21023 net.cpp:150] Setting up conv16_2_mbox_loc
I0226 15:02:40.044895 21023 net.cpp:157] Top shape: 8 24 2 2 (768)
I0226 15:02:40.044903 21023 net.cpp:165] Memory required for data: 1289998688
I0226 15:02:40.044919 21023 layer_factory.hpp:77] Creating layer conv16_2_mbox_loc_perm
I0226 15:02:40.044940 21023 net.cpp:100] Creating Layer conv16_2_mbox_loc_perm
I0226 15:02:40.044951 21023 net.cpp:434] conv16_2_mbox_loc_perm <- conv16_2_mbox_loc
I0226 15:02:40.044965 21023 net.cpp:408] conv16_2_mbox_loc_perm -> conv16_2_mbox_loc_perm
I0226 15:02:40.045260 21023 net.cpp:150] Setting up conv16_2_mbox_loc_perm
I0226 15:02:40.045279 21023 net.cpp:157] Top shape: 8 2 2 24 (768)
I0226 15:02:40.045286 21023 net.cpp:165] Memory required for data: 1290001760
I0226 15:02:40.045295 21023 layer_factory.hpp:77] Creating layer conv16_2_mbox_loc_flat
I0226 15:02:40.045308 21023 net.cpp:100] Creating Layer conv16_2_mbox_loc_flat
I0226 15:02:40.045318 21023 net.cpp:434] conv16_2_mbox_loc_flat <- conv16_2_mbox_loc_perm
I0226 15:02:40.045330 21023 net.cpp:408] conv16_2_mbox_loc_flat -> conv16_2_mbox_loc_flat
I0226 15:02:40.045413 21023 net.cpp:150] Setting up conv16_2_mbox_loc_flat
I0226 15:02:40.045428 21023 net.cpp:157] Top shape: 8 96 (768)
I0226 15:02:40.045437 21023 net.cpp:165] Memory required for data: 1290004832
I0226 15:02:40.045444 21023 layer_factory.hpp:77] Creating layer conv16_2_mbox_conf_new
I0226 15:02:40.045464 21023 net.cpp:100] Creating Layer conv16_2_mbox_conf_new
I0226 15:02:40.045475 21023 net.cpp:434] conv16_2_mbox_conf_new <- conv16_2_conv16_2/relu_0_split_2
I0226 15:02:40.045490 21023 net.cpp:408] conv16_2_mbox_conf_new -> conv16_2_mbox_conf
I0226 15:02:40.053282 21023 net.cpp:150] Setting up conv16_2_mbox_conf_new
I0226 15:02:40.053325 21023 net.cpp:157] Top shape: 8 18 2 2 (576)
I0226 15:02:40.053333 21023 net.cpp:165] Memory required for data: 1290007136
I0226 15:02:40.053354 21023 layer_factory.hpp:77] Creating layer conv16_2_mbox_conf_perm
I0226 15:02:40.053375 21023 net.cpp:100] Creating Layer conv16_2_mbox_conf_perm
I0226 15:02:40.053387 21023 net.cpp:434] conv16_2_mbox_conf_perm <- conv16_2_mbox_conf
I0226 15:02:40.053405 21023 net.cpp:408] conv16_2_mbox_conf_perm -> conv16_2_mbox_conf_perm
I0226 15:02:40.053745 21023 net.cpp:150] Setting up conv16_2_mbox_conf_perm
I0226 15:02:40.053764 21023 net.cpp:157] Top shape: 8 2 2 18 (576)
I0226 15:02:40.053772 21023 net.cpp:165] Memory required for data: 1290009440
I0226 15:02:40.053781 21023 layer_factory.hpp:77] Creating layer conv16_2_mbox_conf_flat
I0226 15:02:40.053795 21023 net.cpp:100] Creating Layer conv16_2_mbox_conf_flat
I0226 15:02:40.053804 21023 net.cpp:434] conv16_2_mbox_conf_flat <- conv16_2_mbox_conf_perm
I0226 15:02:40.053817 21023 net.cpp:408] conv16_2_mbox_conf_flat -> conv16_2_mbox_conf_flat
I0226 15:02:40.053872 21023 net.cpp:150] Setting up conv16_2_mbox_conf_flat
I0226 15:02:40.053889 21023 net.cpp:157] Top shape: 8 72 (576)
I0226 15:02:40.053903 21023 net.cpp:165] Memory required for data: 1290011744
I0226 15:02:40.053930 21023 layer_factory.hpp:77] Creating layer conv16_2_mbox_priorbox
I0226 15:02:40.053968 21023 net.cpp:100] Creating Layer conv16_2_mbox_priorbox
I0226 15:02:40.053982 21023 net.cpp:434] conv16_2_mbox_priorbox <- conv16_2_conv16_2/relu_0_split_3
I0226 15:02:40.053993 21023 net.cpp:434] conv16_2_mbox_priorbox <- data_data_0_split_5
I0226 15:02:40.054008 21023 net.cpp:408] conv16_2_mbox_priorbox -> conv16_2_mbox_priorbox
I0226 15:02:40.054081 21023 net.cpp:150] Setting up conv16_2_mbox_priorbox
I0226 15:02:40.054097 21023 net.cpp:157] Top shape: 1 2 96 (192)
I0226 15:02:40.054105 21023 net.cpp:165] Memory required for data: 1290012512
I0226 15:02:40.054112 21023 layer_factory.hpp:77] Creating layer conv17_2_mbox_loc
I0226 15:02:40.054134 21023 net.cpp:100] Creating Layer conv17_2_mbox_loc
I0226 15:02:40.054145 21023 net.cpp:434] conv17_2_mbox_loc <- conv17_2_conv17_2/relu_0_split_0
I0226 15:02:40.054157 21023 net.cpp:408] conv17_2_mbox_loc -> conv17_2_mbox_loc
I0226 15:02:40.058578 21023 net.cpp:150] Setting up conv17_2_mbox_loc
I0226 15:02:40.058607 21023 net.cpp:157] Top shape: 8 24 1 1 (192)
I0226 15:02:40.058617 21023 net.cpp:165] Memory required for data: 1290013280
I0226 15:02:40.058634 21023 layer_factory.hpp:77] Creating layer conv17_2_mbox_loc_perm
I0226 15:02:40.058652 21023 net.cpp:100] Creating Layer conv17_2_mbox_loc_perm
I0226 15:02:40.058662 21023 net.cpp:434] conv17_2_mbox_loc_perm <- conv17_2_mbox_loc
I0226 15:02:40.058678 21023 net.cpp:408] conv17_2_mbox_loc_perm -> conv17_2_mbox_loc_perm
I0226 15:02:40.058907 21023 net.cpp:150] Setting up conv17_2_mbox_loc_perm
I0226 15:02:40.058921 21023 net.cpp:157] Top shape: 8 1 1 24 (192)
I0226 15:02:40.058929 21023 net.cpp:165] Memory required for data: 1290014048
I0226 15:02:40.058940 21023 layer_factory.hpp:77] Creating layer conv17_2_mbox_loc_flat
I0226 15:02:40.058953 21023 net.cpp:100] Creating Layer conv17_2_mbox_loc_flat
I0226 15:02:40.058961 21023 net.cpp:434] conv17_2_mbox_loc_flat <- conv17_2_mbox_loc_perm
I0226 15:02:40.058974 21023 net.cpp:408] conv17_2_mbox_loc_flat -> conv17_2_mbox_loc_flat
I0226 15:02:40.059026 21023 net.cpp:150] Setting up conv17_2_mbox_loc_flat
I0226 15:02:40.059044 21023 net.cpp:157] Top shape: 8 24 (192)
I0226 15:02:40.059051 21023 net.cpp:165] Memory required for data: 1290014816
I0226 15:02:40.059059 21023 layer_factory.hpp:77] Creating layer conv17_2_mbox_conf_new
I0226 15:02:40.059079 21023 net.cpp:100] Creating Layer conv17_2_mbox_conf_new
I0226 15:02:40.059088 21023 net.cpp:434] conv17_2_mbox_conf_new <- conv17_2_conv17_2/relu_0_split_1
I0226 15:02:40.059103 21023 net.cpp:408] conv17_2_mbox_conf_new -> conv17_2_mbox_conf
I0226 15:02:40.067885 21023 net.cpp:150] Setting up conv17_2_mbox_conf_new
I0226 15:02:40.067920 21023 net.cpp:157] Top shape: 8 18 1 1 (144)
I0226 15:02:40.067927 21023 net.cpp:165] Memory required for data: 1290015392
I0226 15:02:40.067945 21023 layer_factory.hpp:77] Creating layer conv17_2_mbox_conf_perm
I0226 15:02:40.067965 21023 net.cpp:100] Creating Layer conv17_2_mbox_conf_perm
I0226 15:02:40.067976 21023 net.cpp:434] conv17_2_mbox_conf_perm <- conv17_2_mbox_conf
I0226 15:02:40.067992 21023 net.cpp:408] conv17_2_mbox_conf_perm -> conv17_2_mbox_conf_perm
I0226 15:02:40.068228 21023 net.cpp:150] Setting up conv17_2_mbox_conf_perm
I0226 15:02:40.068241 21023 net.cpp:157] Top shape: 8 1 1 18 (144)
I0226 15:02:40.068250 21023 net.cpp:165] Memory required for data: 1290015968
I0226 15:02:40.068259 21023 layer_factory.hpp:77] Creating layer conv17_2_mbox_conf_flat
I0226 15:02:40.068270 21023 net.cpp:100] Creating Layer conv17_2_mbox_conf_flat
I0226 15:02:40.068279 21023 net.cpp:434] conv17_2_mbox_conf_flat <- conv17_2_mbox_conf_perm
I0226 15:02:40.068294 21023 net.cpp:408] conv17_2_mbox_conf_flat -> conv17_2_mbox_conf_flat
I0226 15:02:40.068347 21023 net.cpp:150] Setting up conv17_2_mbox_conf_flat
I0226 15:02:40.068359 21023 net.cpp:157] Top shape: 8 18 (144)
I0226 15:02:40.068367 21023 net.cpp:165] Memory required for data: 1290016544
I0226 15:02:40.068395 21023 layer_factory.hpp:77] Creating layer conv17_2_mbox_priorbox
I0226 15:02:40.068409 21023 net.cpp:100] Creating Layer conv17_2_mbox_priorbox
I0226 15:02:40.068418 21023 net.cpp:434] conv17_2_mbox_priorbox <- conv17_2_conv17_2/relu_0_split_2
I0226 15:02:40.068429 21023 net.cpp:434] conv17_2_mbox_priorbox <- data_data_0_split_6
I0226 15:02:40.068449 21023 net.cpp:408] conv17_2_mbox_priorbox -> conv17_2_mbox_priorbox
I0226 15:02:40.068512 21023 net.cpp:150] Setting up conv17_2_mbox_priorbox
I0226 15:02:40.068524 21023 net.cpp:157] Top shape: 1 2 24 (48)
I0226 15:02:40.068532 21023 net.cpp:165] Memory required for data: 1290016736
I0226 15:02:40.068542 21023 layer_factory.hpp:77] Creating layer mbox_loc
I0226 15:02:40.068555 21023 net.cpp:100] Creating Layer mbox_loc
I0226 15:02:40.068564 21023 net.cpp:434] mbox_loc <- conv11_mbox_loc_flat
I0226 15:02:40.068575 21023 net.cpp:434] mbox_loc <- conv13_mbox_loc_flat
I0226 15:02:40.068586 21023 net.cpp:434] mbox_loc <- conv14_2_mbox_loc_flat
I0226 15:02:40.068596 21023 net.cpp:434] mbox_loc <- conv15_2_mbox_loc_flat
I0226 15:02:40.068605 21023 net.cpp:434] mbox_loc <- conv16_2_mbox_loc_flat
I0226 15:02:40.068614 21023 net.cpp:434] mbox_loc <- conv17_2_mbox_loc_flat
I0226 15:02:40.068629 21023 net.cpp:408] mbox_loc -> mbox_loc
I0226 15:02:40.068681 21023 net.cpp:150] Setting up mbox_loc
I0226 15:02:40.068693 21023 net.cpp:157] Top shape: 8 7668 (61344)
I0226 15:02:40.068701 21023 net.cpp:165] Memory required for data: 1290262112
I0226 15:02:40.068711 21023 layer_factory.hpp:77] Creating layer mbox_conf
I0226 15:02:40.068722 21023 net.cpp:100] Creating Layer mbox_conf
I0226 15:02:40.068730 21023 net.cpp:434] mbox_conf <- conv11_mbox_conf_flat
I0226 15:02:40.068740 21023 net.cpp:434] mbox_conf <- conv13_mbox_conf_flat
I0226 15:02:40.068752 21023 net.cpp:434] mbox_conf <- conv14_2_mbox_conf_flat
I0226 15:02:40.068760 21023 net.cpp:434] mbox_conf <- conv15_2_mbox_conf_flat
I0226 15:02:40.068769 21023 net.cpp:434] mbox_conf <- conv16_2_mbox_conf_flat
I0226 15:02:40.068779 21023 net.cpp:434] mbox_conf <- conv17_2_mbox_conf_flat
I0226 15:02:40.068794 21023 net.cpp:408] mbox_conf -> mbox_conf
I0226 15:02:40.068845 21023 net.cpp:150] Setting up mbox_conf
I0226 15:02:40.068856 21023 net.cpp:157] Top shape: 8 5751 (46008)
I0226 15:02:40.068863 21023 net.cpp:165] Memory required for data: 1290446144
I0226 15:02:40.068872 21023 layer_factory.hpp:77] Creating layer mbox_priorbox
I0226 15:02:40.068883 21023 net.cpp:100] Creating Layer mbox_priorbox
I0226 15:02:40.068892 21023 net.cpp:434] mbox_priorbox <- conv11_mbox_priorbox
I0226 15:02:40.068927 21023 net.cpp:434] mbox_priorbox <- conv13_mbox_priorbox
I0226 15:02:40.068939 21023 net.cpp:434] mbox_priorbox <- conv14_2_mbox_priorbox
I0226 15:02:40.068948 21023 net.cpp:434] mbox_priorbox <- conv15_2_mbox_priorbox
I0226 15:02:40.068958 21023 net.cpp:434] mbox_priorbox <- conv16_2_mbox_priorbox
I0226 15:02:40.068967 21023 net.cpp:434] mbox_priorbox <- conv17_2_mbox_priorbox
I0226 15:02:40.068979 21023 net.cpp:408] mbox_priorbox -> mbox_priorbox
I0226 15:02:40.069087 21023 net.cpp:150] Setting up mbox_priorbox
I0226 15:02:40.069102 21023 net.cpp:157] Top shape: 1 2 7668 (15336)
I0226 15:02:40.069109 21023 net.cpp:165] Memory required for data: 1290507488
I0226 15:02:40.069118 21023 layer_factory.hpp:77] Creating layer mbox_conf_reshape
I0226 15:02:40.069134 21023 net.cpp:100] Creating Layer mbox_conf_reshape
I0226 15:02:40.069144 21023 net.cpp:434] mbox_conf_reshape <- mbox_conf
I0226 15:02:40.069154 21023 net.cpp:408] mbox_conf_reshape -> mbox_conf_reshape
I0226 15:02:40.069221 21023 net.cpp:150] Setting up mbox_conf_reshape
I0226 15:02:40.069234 21023 net.cpp:157] Top shape: 8 1917 3 (46008)
I0226 15:02:40.069242 21023 net.cpp:165] Memory required for data: 1290691520
I0226 15:02:40.069250 21023 layer_factory.hpp:77] Creating layer mbox_conf_softmax
I0226 15:02:40.069264 21023 net.cpp:100] Creating Layer mbox_conf_softmax
I0226 15:02:40.069272 21023 net.cpp:434] mbox_conf_softmax <- mbox_conf_reshape
I0226 15:02:40.069293 21023 net.cpp:408] mbox_conf_softmax -> mbox_conf_softmax
I0226 15:02:40.070272 21023 net.cpp:150] Setting up mbox_conf_softmax
I0226 15:02:40.070293 21023 net.cpp:157] Top shape: 8 1917 3 (46008)
I0226 15:02:40.070302 21023 net.cpp:165] Memory required for data: 1290875552
I0226 15:02:40.070309 21023 layer_factory.hpp:77] Creating layer mbox_conf_flatten
I0226 15:02:40.070322 21023 net.cpp:100] Creating Layer mbox_conf_flatten
I0226 15:02:40.070333 21023 net.cpp:434] mbox_conf_flatten <- mbox_conf_softmax
I0226 15:02:40.070345 21023 net.cpp:408] mbox_conf_flatten -> mbox_conf_flatten
I0226 15:02:40.070401 21023 net.cpp:150] Setting up mbox_conf_flatten
I0226 15:02:40.070413 21023 net.cpp:157] Top shape: 8 5751 (46008)
I0226 15:02:40.070422 21023 net.cpp:165] Memory required for data: 1291059584
I0226 15:02:40.070430 21023 layer_factory.hpp:77] Creating layer detection_out
I0226 15:02:40.070449 21023 net.cpp:100] Creating Layer detection_out
I0226 15:02:40.070458 21023 net.cpp:434] detection_out <- mbox_loc
I0226 15:02:40.070469 21023 net.cpp:434] detection_out <- mbox_conf_flatten
I0226 15:02:40.070478 21023 net.cpp:434] detection_out <- mbox_priorbox
I0226 15:02:40.070490 21023 net.cpp:408] detection_out -> detection_out
I0226 15:02:40.070610 21023 net.cpp:150] Setting up detection_out
I0226 15:02:40.070623 21023 net.cpp:157] Top shape: 1 1 1 7 (7)
I0226 15:02:40.070631 21023 net.cpp:165] Memory required for data: 1291059612
I0226 15:02:40.070639 21023 layer_factory.hpp:77] Creating layer detection_eval
I0226 15:02:40.070652 21023 net.cpp:100] Creating Layer detection_eval
I0226 15:02:40.070662 21023 net.cpp:434] detection_eval <- detection_out
I0226 15:02:40.070670 21023 net.cpp:434] detection_eval <- label
I0226 15:02:40.070683 21023 net.cpp:408] detection_eval -> detection_eval
I0226 15:02:40.070775 21023 net.cpp:150] Setting up detection_eval
I0226 15:02:40.070791 21023 net.cpp:157] Top shape: 1 1 3 5 (15)
I0226 15:02:40.070798 21023 net.cpp:165] Memory required for data: 1291059672
I0226 15:02:40.070806 21023 net.cpp:228] detection_eval does not need backward computation.
I0226 15:02:40.070816 21023 net.cpp:228] detection_out does not need backward computation.
I0226 15:02:40.070827 21023 net.cpp:228] mbox_conf_flatten does not need backward computation.
I0226 15:02:40.070835 21023 net.cpp:228] mbox_conf_softmax does not need backward computation.
…
